model/charCNN.pt (torch, 729486 bytes, 20 tensors)

weight f4 [64, 27, 3]
000000 00 33 b4 3b ba 43 7f bd aa f7 13 3e cd a6 51 ba
       0.0054992437 -0.06232045 0.14449945 -0.00079975725
000010 c5 40 ef bd 6c 86 7c 3d 3e 82 52 bd 5b 42 11 3d
       -0.11682276 0.061651632 -0.05139374 0.035463672
000020 21 52 98 3b de 0f d0 bd 0d d2 07 3e f8 de f1 bc
       0.0046484624 -0.101592764 0.13263722 -0.029525265
000030 e1 49 ce bd 74 09 f3 bd 98 12 c1 3d 12 e0 03 3e
       -0.10072685 -0.118670374 0.094273746 0.12878445
000040 4c 15 a2 bd 5c 75 5a be 91 da 40 be 6d 65 99 be
       -0.07914218 -0.21333832 -0.18833376 -0.29960194
000050 bb 9a 6a 3d 4a 81 f5 bd 0e 12 57 3e 99 53 8a bd
       0.05727647 -0.119875506 0.21002981 -0.06754226
000060 53 6a 33 be e1 c4 ca bc 06 cc 7f be 1f b9 a6 bd
       -0.17521028 -0.024752082 -0.24980173 -0.08140778
000070 5e ab 52 3e 23 79 02 be d2 dd 09 3e c3 7f 7a be
       0.20573184 -0.12741522 0.13463524 -0.244628
000080 34 8f 70 be b9 4a 5c be b6 68 26 3d ae 17 ac bd
       -0.23492128 -0.2151288 0.040627204 -0.08402954
000090 58 74 17 be 11 94 4b 3e 29 4a ec 3c 34 87 8b be
       -0.14790475 0.19880702 0.028843956 -0.2725159
0000a0 07 ac ff 3d d9 5b d7 bc 4d 6a dc 3c bf 16 fb bd
       0.124839835 -0.026288914 0.026906157 -0.12260198
0000b0 99 61 4c bd 96 af 94 bd 67 88 54 bd a8 7f 51 bd
       -0.049897764 -0.07260053 -0.051887896 -0.051147133
0000c0 59 69 ca be 7f 17 75 3d 3a 23 ae be 43 27 47 be
       -0.395335 0.05983686 -0.3401125 -0.19448571
0000d0 3f b2 af 3d 98 80 00 be 8a 22 4f be cc 82 7a be
       0.085789196 -0.12549055 -0.2022802 -0.24463958
0000e0 73 26 89 3d b9 9a ab be 99 dd 35 3d b2 1f 4f 3d
       0.06696787 -0.33516482 0.044400785 0.050567336
0000f0 25 a7 b1 bc d4 19 26 be 47 69 33 3e 60 36 3f 3c
       -0.021686146 -0.1622079 0.17520629 0.011670679
000100 74 81 e3 be 91 82 2d 3d 7c a3 e3 bd bd d3 5d bb
       -0.44434702 0.042360846 -0.111151665 -0.003384813
000110 78 5e e5 3d f6 fb f8 3d d4 56 ab 3e fd 04 1d be
       0.11199659 0.12157433 0.33464682 -0.15333934
000120 84 7a 71 3e 2e 2d 4d 3e eb 95 12 bc b4 d4 01 bd
       0.23581892 0.20036766 -0.008946876 -0.03169699
000130 7e 49 aa bd 8c d4 7a ba bf ce 82 3d 89 53 f4 3d
       -0.08314799 -0.0009568415 0.0638709 0.119299956
000140 e8 1d 85 bb a2 f7 a5 bd f8 0a bb 3c 28 13 20 3d
       -0.004062403 -0.08103873 0.022832379 0.03908077
000150 b3 5d 21 bd 42 bf 32 be e0 2b b6 ba 69 07 22 bd
       -0.039396 -0.17455772 -0.0013898574 -0.039557848
000160 7c f2 18 3e 0b 64 0c bd 58 84 e0 bd e8 d0 40 3e
       0.1493625 -0.034275096 -0.109627426 0.18829691
000170 01 80 0a be 2b 93 7f 3d a7 53 0a 3d 92 36 27 be
       -0.13525392 0.06239621 0.033771183 -0.1632941
000180 7a b7 87 bd 59 88 12 bd 41 5a ff bc ca 61 2f 3e
       -0.06626792 -0.035774563 -0.031170966 0.17127147
000190 df cf 38 bd 1a 44 a9 bd 9b 8f 5a 3d 75 d5 b6 3c
       -0.045120116 -0.082649425 0.05335961 0.022318581
0001a0 2e f6 3d bd 47 14 32 bd d3 1d ec bd fd 44 76 3d
       -0.046377353 -0.04347637 -0.11529126 0.060124386
0001b0 26 80 12 be 5e d5 8c bd c2 21 14 be 89 d4 61 bd
       -0.14306697 -0.06876634 -0.14466003 -0.05513433
0001c0 d4 c5 55 3e 7c 0e 00 3e 2e a5 e2 bc 24 ea 69 3e
       0.20876247 0.12505525 -0.027666654 0.22843224
0001d0 db a9 cb bd c7 d7 df 3d bb 33 43 be e1 bd 38 3d
       -0.09944507 0.10929828 -0.19062702 0.045102958
0001e0 c1 fb ab 3c d7 43 0e 3e b5 cd 3e be cd 41 65 be
       0.020994069 0.13893066 -0.18633159 -0.22388382
0001f0 81 89 88 3e c5 36 d0 3d a5 d4 9f be ea 4e 1d 3e
       0.26667407 0.101666965 -0.31216922 0.15362135
000200 68 12 a1 be 36 3d 47 3e d2 8e 82 be 12 7a 7c 3d
       -0.31459355 0.19456944 -0.25499588 0.061639853
000210 eb 7a 9d 3d a1 79 2c be 9e 73 a1 3e 89 4b 18 be
       0.0768946 -0.16843273 0.3153352 -0.14872564
000220 37 6c 7a 3d be 9c 91 be d1 89 a6 3d 74 f6 c8 bd
       0.061138358 -0.28439897 0.08131755 -0.09812632
000230 fe 7a 75 3d 06 27 94 bd 9d d4 aa bd e5 25 5d 3e
       0.059931748 -0.07234006 -0.08341334 0.21596487
000240 0f 3b 14 be c8 0b 1d bd 8a 20 0e be 82 6d 88 3d
       -0.14475654 -0.038341314 -0.138796 0.06661512
000250 52 a3 c5 3d 22 28 0b be a7 b6 30 be 2d 50 46 3e
       0.096502915 -0.13589528 -0.17257176 0.19366522
000260 ac 0e 26 be 4b 2d 3c be 49 03 27 3e c4 e7 16 bf
       -0.16216534 -0.18376653 0.16309847 -0.58947396
000270 66 fc a4 bc 9a 2f 9e 3c bd 63 44 3d 2e cd bb 3e
       -0.020139884 0.019309808 0.04794668 0.36679977
000280 d2 4a e9 bd bf 78 aa be dc c4 0a be f4 60 7d 3d
       -0.11391224 -0.33295247 -0.13551658 0.06186004
000290 88 23 a7 3c 83 0b a4 be e9 ee 2a 3e c3 7d 12 3e
       0.020402685 -0.32040033 0.166927 0.14305787
0002a0 d1 63 7c bc ef 7c 4e be 43 2b 65 be 31 39 60 3e
       -0.015404657 -0.20164846 -0.22379784 0.21896817
0002b0 1a 2e db bc 61 ca 0d be cd d4 cc bc 80 dc 7c 3d
       -0.026755381 -0.13846733 -0.025003815 0.061733723
0002c0 26 0f 5b 3d fb 3a 38 be 3e ee 2c bd 68 4b b8 3b
       0.053481244 -0.1799125 -0.042219393 0.0056242235
0002d0 ad b2 fa bc 1f 88 f0 bb c2 da d8 be 5c 7e ec 3d
       -0.030602777 -0.0073404456 -0.423544 0.11547539
0002e0 06 d0 98 3d 1d d5 e7 be c5 54 55 bd 44 49 05 3e
       0.07461552 -0.4527978 -0.052082796 0.1301623
0002f0 04 aa 64 be 0f d6 01 bd da 5c 81 bd 6c e1 26 3e
       -0.22330481 -0.031698283 -0.06316538 0.16296929
000300 fe e0 ab be 1c 17 30 be 76 9c c1 bc 78 c6 41 3e
       -0.33570093 -0.17196316 -0.023634177 0.18923366
000310 d1 e4 34 bd 79 3c 40 3e bc d4 f2 bd a3 4b d8 bc
       -0.04416353 0.18773068 -0.11856982 -0.026403254
000320 86 94 f4 be 9d cd 63 be 04 da bb 3d ea fe b9 3d
       -0.47769564 -0.22246404 0.091724426 0.09081824
000330 59 80 4b bd 92 91 39 be 4c ad 0c be ce 53 8c be
       -0.04968295 -0.18121937 -0.13737983 -0.27407688
000340 5f 97 0e be eb 4d 1f 3e b1 2b 5d bb e7 8d 66 be
       -0.13924931 0.15557067 -0.0033747966 -0.22515069
000350 e5 a7 06 bc 8f c8 94 be 46 20 28 3e 2b d6 f0 3d
       -0.00821874 -0.29059264 0.16418561 0.11759599
000360 1b ed 28 3d 8c 20 c8 bd 22 b3 0d bd 3e 38 86 bd
       0.041241746 -0.09771833 -0.034594662 -0.06553696
000370 4d 37 e8 bd ca 48 33 3d 82 27 b6 be 65 a7 ae bd
       -0.11338673 0.04377059 -0.35577017 -0.08528022
000380 2a 14 5d be 52 f3 32 3e 1f bc 77 be f4 a1 d2 3c
       -0.21589723 0.17475632 -0.24192856 0.02571199
000390 d4 80 23 3e 1d 7d 8d 3e 80 d6 00 3e 51 ba d3 bc
       0.15967113 0.27634516 0.12581825 -0.025845679
0003a0 e0 6f 08 be a4 c7 9e 3d 93 a7 59 3e f6 bb c8 3d
       -0.13323927 0.07752922 0.2125533 0.09801476
0003b0 80 c8 88 bd fd b6 20 bd ff a7 39 3e 7d 4d 03 3e
       -0.06678867 -0.03923701 0.18130492 0.12822528
0003c0 5d fc 9d be 1c 53 1e 3e 5e 52 b1 be a4 a2 37 bd
       -0.308566 0.15461391 -0.34633154 -0.04483284
0003d0 00 19 0f 3c 44 bc d3 bd 6f 5e 28 bd 90 74 68 3d
       0.008733988 -0.10338643 -0.041105684 0.056751788
0003e0 4b 44 97 3d 31 40 1d 3e ce 2e 64 be af ec 01 3e
       0.07386073 0.15356518 -0.2228348 0.12687944
0003f0 94 a6 22 be 04 0f df 3c a1 b6 ae be 30 82 2b 3b
       -0.15883857 0.02722884 -0.3412371 0.0026170127

weight f4 [64]
000000 37 96 89 3f 64 51 7e 3f 89 c6 84 3f c7 ab 89 3f
       1.0748967 0.9934294 1.0373088 1.0755547
000010 3b 63 98 3f 50 67 75 3f ba ef 7d 3f 0c 0b 73 3f
       1.1905283 0.9586077 0.9919392 0.9493873
000020 94 4c 7d 3f 80 54 7d 3f d6 12 8b 3f b8 53 7e 3f
       0.98944974 0.9895706 1.0865123 0.99346495
000030 53 ba 8a 3f 4e b5 89 3f 7b 21 7b 3f 9e 24 86 3f
       1.0838112 1.0758455 0.9809796 1.0479925
000040 65 00 82 3f d2 1e 86 3f a6 53 76 3f 36 0b 78 3f
       1.015637 1.0478156 0.9622139 0.96892107
000050 96 47 81 3f 6f db 89 3f d0 53 6f 3f 8c ec 73 3f
       1.0099971 1.0770091 0.9348726 0.95282817
000060 20 64 83 3f 32 30 83 3f 0d b9 87 3f e2 ea 89 3f
       1.0264931 1.0249083 1.0603348 1.0774806
000070 f2 f0 7f 3f 55 b4 85 3f d0 e3 82 3f b6 79 8f 3f
       0.9997703 1.0445658 1.0225773 1.1209018
000080 16 5c 6a 3f ee 28 85 3f 11 a5 87 3f 77 66 9a 3f
       0.9154676 1.0403116 1.0597249 1.206252
000090 d7 e0 84 3f 5f 65 8a 3f e3 e3 6e 3f 55 fa 78 3f
       1.0381116 1.0812186 0.9331648 0.97256976
0000a0 de 6d 72 3f bf 0c 7d 3f 60 c3 87 3f 7d 6e 79 3f
       0.94698894 0.98847574 1.0606499 0.97434217
0000b0 be 0c 7b 3f 7d 99 70 3f eb c0 6e 3f 1b fb 77 3f
       0.9806632 0.93984205 0.9326312 0.9686753
0000c0 43 8d 88 3f 63 b7 8c 3f 0b d1 88 3f 73 57 75 3f
       1.066811 1.0993465 1.0688795 0.9583656
0000d0 a0 f6 70 3f 93 f3 83 3f 2b 47 6e 3f 4e df 83 3f
       0.9412632 1.0308708 0.93077344 1.0302522
0000e0 c5 34 86 3f 2f b1 7c 3f 18 75 83 3f 21 d5 95 3f
       1.0484854 0.9870786 1.0270109 1.1705667
0000f0 5f a1 8d 3f 12 cd 83 3f f2 30 81 3f 12 bf 8b 3f
       1.1064872 1.0296957 1.0093062 1.0917685

bias f4 [64]
000000 50 7e 19 be 3e 55 85 ba 5d 09 4d 3d 83 8a ba 3b
       -0.1498959 -0.0010172499 0.050057758 0.0056927814
000010 8b d3 f8 3c 02 14 47 3d 0b 5f 09 3c d6 c0 10 3e
       0.030374309 0.048603065 0.008384476 0.14136061
000020 e9 88 da 3b 55 01 9d bc b8 4e 15 be e5 80 53 bd
       0.006669153 -0.019165674 -0.1458081 -0.051636595
000030 48 2c b8 3d 2f cb 9b bd 2b 00 ff 3c 97 21 68 bd
       0.08992821 -0.076071136 0.03112801 -0.05667266
000040 e1 06 7b bd f2 ba b0 3c cc 9d e8 bd f1 fe 72 bd
       -0.061285857 0.021573517 -0.11358222 -0.059325162
000050 3d 1b 27 be f7 00 c8 3d a9 53 55 3d e4 89 11 3e
       -0.16318984 0.09765809 0.052081738 0.14212757
000060 28 0f e5 bd 7e f4 75 3c ab d6 5e be a9 64 10 3d
       -0.111845315 0.015011905 -0.21761577 0.035252247
000070 10 62 49 bd 5c 35 18 3e ab c4 f6 bc e6 1d 6d 3d
       -0.049165785 0.14864105 -0.030123075 0.05788984
000080 6b 84 6f 3e 22 34 5b 3c 1e 7d d3 be aa 02 e2 bd
       0.23390357 0.013379129 -0.41306394 -0.110356644
000090 10 9c 2f bd f5 3d 0f be 1a c4 65 be 34 f1 89 3d
       -0.042873442 -0.13988478 -0.22438088 0.06735459
0000a0 96 ed da 3c 0b 17 c8 3d 68 5e d6 bd 48 3f 10 bd
       0.026724618 0.0977002 -0.10467225 -0.0352166
0000b0 de 22 6c 3c 7a 7b 3f 3b 2f c0 9c 3d 85 e6 97 3d
       0.01441261 0.0029217885 0.076538436 0.07417015
0000c0 78 20 69 bd bb f7 d8 bb 1e 5f 3c 3d e9 c3 f8 ba
       -0.05691573 -0.0066213286 0.04598915 -0.0018979284
0000d0 c8 0a 8b 3d 2d e4 46 bd c3 23 fe bc c1 de 11 3d
       0.06789166 -0.04855745 -0.031022912 0.035612825
0000e0 61 b8 ff 3b 32 7d a8 be 5f 4a ef 3c 55 40 04 be
       0.007803962 -0.32908016 0.029210268 -0.12915166
0000f0 72 c1 e6 3c fd ff 8e 3d db 5b e3 bc 12 28 ba be
       0.028168414 0.0698242 -0.027753761 -0.36358696

running_mean f4 [64]
000000 4d 17 5e bd 3e 69 30 bd c2 70 84 bd ef c6 4f bd
       -0.05422144 -0.043069117 -0.06466819 -0.050726827
000010 d8 6e 40 bd b1 53 62 bd 6f ef 32 bd 63 43 ea bc
       -0.04698071 -0.055255596 -0.043685373 -0.028596586
000020 08 9d e2 bc db 28 f0 bc 1a 6c 5e bd af 32 ad bc
       -0.027662769 -0.029316356 -0.054302312 -0.021142332
000030 4a ba 4b bd 8f 17 57 bd f2 8e a1 bc d7 27 e9 bc
       -0.049738206 -0.0525127 -0.019721482 -0.02846138
000040 9e 64 2b bd c5 2f 71 bd 84 fa b7 bc 14 60 b1 bc
       -0.041844003 -0.058883447 -0.022458322 -0.021652259
000050 cf 28 0d bd 25 28 40 bd e6 fd fe bc 9a d4 00 bd
       -0.034462746 -0.046913285 -0.031126928 -0.031452753
000060 04 c5 72 bd e9 e8 24 bc 12 85 2a bd b7 06 81 bd
       -0.05926992 -0.010065296 -0.041630812 -0.06300109
000070 f6 1a 68 bd 0b 67 bb bc f1 ab f6 bc de f1 47 bd
       -0.056666337 -0.022876283 -0.030111285 -0.048814647
000080 99 13 6b bc c6 de 2d bd 03 d5 68 bd 6a fe 90 bd
       -0.014347934 -0.04244878 -0.05684377 -0.07079776
000090 5a f7 30 bd 3e be 85 bd b2 63 04 bd 37 0f 14 bd
       -0.043204643 -0.065304264 -0.03232164 -0.036147323
0000a0 ea a9 13 bd 63 ff f1 bc b0 d8 44 bd c1 6c 0f bd
       -0.036050715 -0.029540723 -0.04805821 -0.035015825
0000b0 d4 7d 4e bd 19 b0 bd bb 02 e2 e7 bc 50 07 04 bd
       -0.050412968 -0.0057888147 -0.028306011 -0.032233536
0000c0 51 37 1b bd d1 c3 89 bd df 55 0f bd d5 01 e1 bc
       -0.03789455 -0.06726802 -0.034994002 -0.027466694
0000d0 9e 06 dd bc 1f 86 34 bd a1 e7 24 bd ea f5 4a bd
       -0.026980694 -0.04407322 -0.04025996 -0.04955093
0000e0 52 10 2e bd c3 00 6e bd d8 23 ad bc 2e 24 6a bd
       -0.042496033 -0.058106195 -0.021135256 -0.05716341
0000f0 e3 57 58 bd 54 80 86 bc 2c 2d 1b bd ce 5c 3c bd
       -0.05281819 -0.016418613 -0.037884876 -0.045986943

running_var f4 [64]
000000 4a cf d2 3c 48 59 a1 3c 1f 7c 05 3d c3 9f cf 3c
       0.025733609 0.019695893 0.032589074 0.025344735
000010 e8 8c 15 3d 41 88 f9 3c b2 b6 d1 3c 61 70 e2 3c
       0.03651133 0.030460479 0.025599811 0.027641477
000020 87 a6 b5 3c a5 9f cd 3c 36 48 c8 3c dd 0c a1 3c
       0.022174133 0.025100539 0.024448495 0.019659454
000030 0a bf 04 3d 4b e3 f0 3c 81 f4 d0 3c b3 12 dd 3c
       0.03240875 0.029405257 0.025507214 0.026986456
000040 26 39 d2 3c e8 a7 f5 3c c7 b5 9b 3c 0d 3d a8 3c
       0.025662016 0.02998729 0.019007577 0.020536924
000050 b8 55 d1 3c e2 cb c5 3c da b3 e3 3c dd 49 af 3c
       0.02555357 0.02414507 0.02779572 0.021397525
000060 c7 a2 fb 3c d9 35 d4 3c 39 8f c6 3c c9 51 07 3d
       0.030717267 0.025904583 0.024238216 0.03303698
000070 1e a2 e4 3c 96 d9 e2 3c 6c 82 d9 3c d0 59 d0 3c
       0.027909335 0.027691644 0.026551448 0.025433451
000080 a3 b8 bf 3c fb 09 ce 3c 8e f9 ea 3c 03 b5 d4 3c
       0.023403471 0.025151243 0.02868345 0.02596522
000090 c0 17 e4 3c bc a4 e3 3c 6e eb cb 3c 1a 75 d0 3c
       0.027843356 0.027788512 0.024892535 0.025446463
0000a0 45 1d e7 3c 63 1a d0 3c fd 9f d9 3c 3b d5 c5 3c
       0.028212199 0.025403207 0.026565546 0.024149528
0000b0 e1 7e ba 3c 2e 84 a7 3c 96 6f d8 3c ad c1 c4 3c
       0.022765579 0.02044877 0.026420396 0.024018133
0000c0 e0 b2 08 3d eb 10 ee 3c 9c 52 e6 3c 73 fa ad 3c
       0.033373713 0.029060801 0.028115563 0.021237588
0000d0 c1 25 e1 3c 3e 52 bc 3c a4 48 cb 3c cb 08 fb 3c
       0.027483823 0.022988435 0.024814911 0.030643841
0000e0 38 9b de 3c ef 34 ff 3c fd 7a cf 3c 70 b1 cc 3c
       0.027173623 0.03115317 0.0253272 0.024986953
0000f0 c7 ac 11 3d 3f 42 b8 3c 5a 3e e5 3c c7 7a da 3c
       0.035565164 0.022492526 0.027983833 0.026669873

weight f4 [64, 64, 3]
000000 88 aa da bd 86 1b 57 be 4b 3e 2b 3d dc 9b 6c 3d
       -0.106770575 -0.21006593 0.041807454 0.057765827
000010 e7 f2 bf 3d cc fb 02 be 66 2b 42 3d c0 a9 15 be
       0.09372502 -0.12791365 0.04740467 -0.14615536
000020 39 57 16 3e 31 b3 b7 bd 65 62 d9 bd 26 89 fc bd
       0.1468171 -0.08969725 -0.106144704 -0.123308465
000030 63 bf 97 3d d3 0d c4 bd f2 f8 cb bd 8a 5b 23 3e
       0.07409551 -0.09572949 -0.09959592 0.15952888
000040 42 9e 17 bc 1b 06 45 3d 9e 39 d4 bd be 06 10 3e
       -0.00925404 0.048101526 -0.10362552 0.14065072
000050 dd 06 6b be 13 fc a6 3c 84 25 0c be e1 9c 38 3c
       -0.22951837 0.02038387 -0.13686186 0.011267872
000060 21 3d 39 be 0d 74 05 3e f6 87 6b 3d d1 37 fc 3d
       -0.18089725 0.13032551 0.05750271 0.12315334
000070 d7 ed d8 bc 8d 69 c2 bd 75 92 0f 3e 92 81 e4 bd
       -0.026480598 -0.094927885 0.14020713 -0.11157526
000080 e5 7d 3d bd 6a d4 7f 3e f2 34 0d be 3a 47 1d 3c
       -0.04626264 0.24983373 -0.13789728 0.009599501
000090 57 68 01 3e ec 88 07 3e c4 cf 68 3c a4 da 99 bc
       0.12637459 0.13235825 0.014209691 -0.018781014
0000a0 65 7b b4 bc 67 84 37 be 8f 58 35 3c a8 e0 a5 be
       -0.022031495 -0.17921601 0.011068477 -0.32397962
0000b0 ec 2f c1 bd 1b 25 e3 bd 73 71 08 bb 7b 4d d2 bd
       -0.094329685 -0.11091062 -0.0020819574 -0.102686845
0000c0 29 50 ad 3d 33 60 12 be 61 56 b6 3d 0e d0 e4 bd
       0.08462555 -0.1429451 0.08903194 -0.11172496
0000d0 85 d3 2a be 95 3e 08 3d 27 ba 69 3d d9 35 80 bd
       -0.16682251 0.033262808 0.057062294 -0.062602706
0000e0 1a d9 4f bd 0e 2c 1b bd 9f 74 d8 bc 97 54 c2 bd
       -0.050744154 -0.03788381 -0.026422797 -0.094887905
0000f0 f1 22 68 be 79 c8 d2 bd 09 6b 4f 3d cb 55 bd 3d
       -0.22669579 -0.102921434 0.050639186 0.09244879
000100 05 fc ab 3e 97 d5 dc 3d 10 9c 18 3e bc 95 12 3e
       0.33590713 0.107829265 0.14903283 0.14314932
000110 d1 16 bc bd 55 0b 81 bd 77 9f 5b 3e 8f ce ff 3d
       -0.091840394 -0.063009895 0.2144755 0.1249057
000120 5f b8 5d 3e d0 9f 75 3c e9 f0 18 be 75 f9 e2 bd
       0.21652363 0.014991716 -0.1493565 -0.110827364
000130 f8 4a 72 bd 32 0e e2 bd bb ce 30 3e 0b a6 4f 3d
       -0.059153527 -0.11037864 0.17266361 0.05069546
000140 53 3f ce 3c ed 30 d9 bd 28 31 01 bc 3b ae 07 be
       0.02517668 -0.10605035 -0.007885255 -0.13250057
000150 90 a3 51 3c 26 6b 8e 3d 20 7e be 3d 35 0e b3 bc
       0.012795344 0.06954031 0.093014 -0.02185736
000160 59 f1 e1 bd 6a 28 70 3b fd 1c c9 3d a1 be 23 3d
       -0.110323615 0.0036645182 0.09819982 0.03997672
000170 cd 97 18 bd dc 95 a3 be 0f 67 0b be cb 6c 77 3e
       -0.037254144 -0.3195027 -0.13613532 0.24162595
000180 30 cd 0f bd bd a8 01 3e c6 23 a0 3d 18 d9 77 bd
       -0.03510779 0.12662025 0.07819323 -0.06050977
000190 55 82 35 bd 72 f7 79 3c e2 df ba bd 26 21 94 3d
       -0.044313747 0.0152567495 -0.091247335 0.07232885
0001a0 cf f8 31 3e fe 74 c7 3c 82 93 62 3d 11 6c 26 3e
       0.17380069 0.024347778 0.055316456 0.16252162
0001b0 26 48 d2 3c ab f7 1a be e2 df d2 bc 84 f7 30 3e
       0.025669169 -0.1513354 -0.025741521 0.1728192
0001c0 63 83 18 bd 3e 00 6c 3e 8c 21 bf bc 99 f7 ec 3d
       -0.037234675 0.23046967 -0.023331426 0.11570663
0001d0 f4 63 7a be 45 d8 54 bd c5 dc 6d 3d f9 7f 29 be
       -0.24452192 -0.051964063 0.05807187 -0.16552724
0001e0 89 38 f2 3c b8 fb fd 3d 85 ca 42 be 7e 9a e4 bc
       0.029567974 0.12401527 -0.19022568 -0.027905699
0001f0 ae 1e f8 bd 79 2a b6 bc 83 05 2a 3e 73 18 6e 3d
       -0.12115227 -0.02223705 0.16603665 0.058128785
000200 67 22 f8 bb 95 87 0a 3d 5f 65 2e 3e 77 54 a1 3d
       -0.0075724605 0.033820707 0.17030858 0.078774385
000210 b2 fa b2 bc 7f ef 7d 3d ed 38 e5 3d 9c 5c c8 bd
       -0.021848056 0.06199598 0.11192498 -0.09783289
000220 50 ba 91 3e c0 71 f7 3c 35 ef d3 3d 28 cf db 3d
       0.28462458 0.030205607 0.103483595 0.10732871
000230 d9 6d 65 bd e9 c6 f7 bd 36 98 5a bc 03 f1 99 bd
       -0.056012962 -0.12098486 -0.013341954 -0.075166725
000240 47 d6 79 be a9 52 40 3c e9 b5 16 3e e2 0c 8c bd
       -0.24398147 0.011738458 0.1471783 -0.06838395
000250 4c c9 c5 bc 95 a8 8a bc 35 1f a9 3d 04 a1 0c 3e
       -0.024143837 -0.01692609 0.082579054 0.13733298
000260 fb 21 43 3d 22 d7 bf bc a7 c2 13 be 27 fa 2d be
       0.04763983 -0.023418013 -0.14429723 -0.16989957
000270 fe 2a 3a be 42 e4 5c be db 55 95 3e f4 46 12 bd
       -0.18180463 -0.21571448 0.29167065 -0.035712197
000280 38 ac 20 bb 39 54 3d bd fb 1a 3b 3e 18 f9 c5 bc
       -0.0024516713 -0.0462229 0.18272011 -0.024166629
000290 c5 61 8c bd d3 86 c1 bc 9b 78 39 bd f3 85 3d 3d
       -0.068545856 -0.02362386 -0.045281034 0.046270322
0002a0 d3 f5 68 3d ae 59 91 3e 5e d9 ce bd 63 9b 8a bc
       0.05687506 0.28388733 -0.10100053 -0.016919797
0002b0 e7 74 0c be 3c 4c b2 3d 73 f6 d9 bc 85 5e 45 3c
       -0.1371647 0.08705947 -0.026606774 0.012046461
0002c0 6e 4c 88 3d 7c c5 55 bc 73 ee 26 3c fc e9 d8 3d
       0.06655203 -0.013047572 0.010188687 0.10591504
0002d0 7b d3 ef 3d 37 85 11 3d ff 34 7c be dc 84 9d 3e
       0.117102586 0.035527434 -0.24629591 0.30765426
0002e0 43 86 fd bd 65 6d 14 be 3b 92 81 3e 8b 1b 21 3e
       -0.12379124 -0.14494856 0.25306877 0.15733163
0002f0 3f 0c 77 be 79 08 aa 3d 5b 52 6b be 68 66 7c bd
       -0.24125765 0.08302397 -0.22980635 -0.0616211
000300 61 76 65 bb 1e 02 10 bd 6d f6 f4 3d f1 e3 6b 3d
       -0.0035013186 -0.03515827 0.119610645 0.05759043
000310 11 3d fe bc 4b 27 e2 bd 31 52 66 3e e1 39 85 3e
       -0.031034978 -0.11042651 0.22492291 0.2602072
000320 f6 6b 12 be c9 6a 4c be 90 e7 88 3d 16 a3 5c 3e
       -0.14298996 -0.1996261 0.06684792 0.21546587
000330 4c 91 ca bd a7 ee 11 be 56 a0 29 be 33 be 4b 3d
       -0.098909944 -0.14251195 -0.1656507 0.049741935
000340 96 51 8b 3d a9 15 fe 3c d2 1d b1 3c 5e d1 5d bd
       0.06802671 0.031016188 0.021620665 -0.054154746
000350 72 d7 fa 3d f5 79 b1 bd fa 49 4c 3e 4b b4 35 be
       0.12248124 -0.086658396 0.19950095 -0.17744558
000360 f1 57 05 be ec 21 13 be 29 da a3 3e 20 6e 37 be
       -0.13021828 -0.14368409 0.3200238 -0.17913103
000370 de a7 c2 bd db 33 44 3e 3d b9 d7 bd 6b 38 ed 3c
       -0.095046744 0.19160406 -0.10533378 0.028957566
000380 d3 2a 1e be da a1 8a 3e 09 c7 91 3e 71 7c c9 3d
       -0.15446024 0.27076608 0.28472164 0.098381884
000390 4b 6c 18 3e 1a 53 0d 3e 08 d8 d9 3c 41 be 3c 3d
       0.1488506 0.13801232 0.02659227 0.046079878
0003a0 08 f6 aa 3d ec aa 63 3c 47 96 80 bd 42 07 1d be
       0.08347708 0.013895731 -0.06278663 -0.153348
0003b0 da 3f 8d bc a1 f5 11 bd 3a 7f 3f 3d a2 a9 0e 3d
       -0.01724236 -0.03563464 0.046752192 0.034829743
0003c0 98 4b 30 bd 49 9d 9e bd 9c c4 06 3d fa 5e 42 3c
       -0.04304084 -0.077448435 0.032902345 0.0118634645
0003d0 5b 27 8a bc 84 09 6f 3e 27 04 6d bc d2 af a1 3d
       -0.01686447 0.23343474 -0.014466322 0.07894863
0003e0 b4 23 d9 bb c8 3c 08 be a6 16 04 bd 3d ee a1 bd
       -0.0066265706 -0.13304436 -0.03224816 -0.079067685
0003f0 e1 85 98 bd 8a 8e be 3d 02 66 53 3e 78 e4 fd bd
       -0.074474104 0.09304531 0.20644382 -0.123970926

weight f4 [64]
000000 6b 55 85 3f 1f 45 88 3f 8f f1 53 3f df 6e 9e 3f
       1.0416692 1.0646094 0.82790464 1.2377585
000010 d3 b1 86 3f 1d a9 8d 3f 2c 2e 86 3f 17 03 77 3f
       1.0523018 1.1067234 1.048284 0.9648909
000020 29 e1 89 3f 91 f0 79 3f d9 8b 82 3f 25 a5 6a 3f
       1.0771838 0.976327 1.0198928 0.9165824
000030 dd 1f 8b 3f 4e 5a 8a 3f 84 81 61 3f c3 50 7b 3f
       1.0869099 1.0808809 0.8808825 0.9817011
000040 fb 26 72 3f fe 32 7e 3f cd b7 7a 3f 6e f0 91 3f
       0.9459073 0.9929656 0.9793671 1.1401498
000050 77 d8 85 3f d4 f2 8d 3f 49 4e 8b 3f 5e 98 78 3f
       1.0456685 1.108973 1.0883266 0.97107494
000060 8b 22 8d 3f c2 10 9a 3f da 2d 8f 3f ed db 7f 3f
       1.1026167 1.2036364 1.1185868 0.99944955
000070 12 6a 8d 3f 33 eb 84 3f fd 79 82 3f bc a9 82 3f
       1.1047995 1.0384277 1.0193478 1.0208049
000080 d7 26 81 3f 8c 43 8e 3f 3e 32 7d 3f 17 c0 92 3f
       1.0089978 1.1114364 0.9890479 1.1464871
000090 09 39 93 3f 4e 2b 89 3f 9e bb 8b 3f 90 87 84 3f
       1.1501781 1.071634 1.0916631 1.035387
0000a0 22 6b 85 3f bc 15 92 3f 47 96 6f 3f 1a d3 8b 3f
       1.0423319 1.1412883 0.9358868 1.0923798
0000b0 39 23 8e 3f d5 e6 7c 3f 53 88 65 3f 66 f5 9d 3f
       1.1104499 0.9878972 0.8966114 1.2340515
0000c0 3f db 91 3f a1 0c 88 3f a9 40 86 3f 85 98 8b 3f
       1.1395034 1.0628854 1.0488483 1.090592
0000d0 d2 4e 7d 3f a0 03 75 3f e0 b9 89 3f c6 a3 9b 3f
       0.98948395 0.95708656 1.075985 1.2159355
0000e0 c0 af 8b 3f cb fd 92 3f ce f7 89 3f 59 fa 82 3f
       1.091301 1.1483701 1.0778749 1.023265
0000f0 a8 8f 88 3f bb 7a 9e 3f 10 27 82 3f f6 33 9d 3f
       1.066884 1.2381204 1.0168171 1.2281482

bias f4 [64]
000000 7c 2e 15 be 9e 3d 92 bd 37 d7 08 bc 01 f7 cb be
       -0.14568514 -0.07140659 -0.0083520925 -0.39836887
000010 2b 62 7b bd a1 57 d4 be a4 f9 20 be ff 9e 50 bb
       -0.061372917 -0.41473106 -0.1572023 -0.003183305
000020 f8 9c 56 be 9a 76 40 bd 4b 9f 1d bc d1 35 23 3c
       -0.20958316 -0.046988107 -0.009620498 0.009961561
000030 f6 14 03 be 0b 77 e0 bd 28 29 10 bd 35 f8 11 3c
       -0.12800965 -0.10960206 -0.0351955 0.008909275
000040 2d a4 28 bd a1 37 69 bd 5e 9e a4 bd e5 32 65 be
       -0.041172195 -0.056937817 -0.08038019 -0.22382696
000050 b2 04 74 be 61 8b b0 be 1b 83 29 be e4 93 3f bd
       -0.23829916 -0.34481338 -0.16553919 -0.0467719
000060 06 ea 33 be 9f 33 1d be 0c df 50 be 2a a9 04 bd
       -0.17569742 -0.15351723 -0.20397586 -0.03238789
000070 29 a0 bc be 51 9c d5 bd c9 b6 8e bd c9 9d 51 be
       -0.36840943 -0.104302056 -0.06968457 -0.20470347
000080 7b 70 7e be ea 03 4e be 68 77 43 be ab d0 80 be
       -0.24847595 -0.2011868 -0.19088519 -0.251592
000090 a0 49 d4 bd 23 a7 94 bd 07 93 f7 bd 85 45 15 be
       -0.10365605 -0.07258441 -0.1208859 -0.14577301
0000a0 ff 9f d9 be 03 92 a6 be 3e 72 1d 3d a6 e8 0b be
       -0.4250488 -0.32533273 0.038439028 -0.13662967
0000b0 f6 31 73 be 99 ef 81 be 16 df 8c 3b 53 31 c9 be
       -0.23749527 -0.2537811 0.004299055 -0.39295444
0000c0 1b 58 ae be f8 36 aa be 0b 6f 31 be 5e aa 34 be
       -0.34051594 -0.33245063 -0.17327516 -0.17643115
0000d0 17 25 1c be 15 fd 96 bd 74 b6 59 be 03 a6 08 bf
       -0.15248524 -0.0737249 -0.21261007 -0.53378314
0000e0 03 e8 1e be f3 05 48 be a0 fc 22 be e4 af 3c be
       -0.15518193 -0.1953352 -0.15916681 -0.18426472
0000f0 c7 d3 e4 bd e0 b4 97 be 16 80 e7 3b 40 02 b0 be
       -0.11173206 -0.29630184 0.0070648296 -0.34376717

running_mean f4 [64]
000000 2c cd 03 bd 58 90 a5 3d 28 f4 88 3f df b0 b6 bf
       -0.03217809 0.08084172 1.069951 -1.4272727
000010 ee 68 01 bf 14 5c 99 bf 01 b0 f5 be 20 a0 41 3e
       -0.50550735 -1.1981225 -0.47985843 0.18908739
000020 63 83 b1 bf 1b e5 18 3e c0 25 30 bf ac 1b 16 3f
       -1.3868221 0.14931147 -0.688076 0.58635974
000030 de 23 a5 be 4d 43 da be 7c bc cb 3f a8 1d 4c be
       -0.32253927 -0.4262947 1.5916896 -0.19933188
000040 b0 9b cf be 21 74 86 bf dc 5e 09 3f 93 87 28 be
       -0.40548468 -1.050419 0.5366037 -0.16457967
000050 e8 0b 9d bf 5c 72 1e bf e8 86 16 bf b8 1a 13 bf
       -1.2269258 -0.6189325 -0.587996 -0.57462645
000060 e3 e4 47 bf 9b 9d 55 bf 07 70 f5 be a2 76 b4 3e
       -0.7808363 -0.8344361 -0.47937033 0.3524676
000070 2a b3 2a bf 77 4e 5f bf 60 fc 59 bf 53 10 33 bf
       -0.6667963 -0.872291 -0.8515072 -0.69946784
000080 22 24 d4 be 42 3e 5c bf 04 2f 84 bd 1b 61 07 bf
       -0.41433817 -0.860325 -0.0645428 -0.52882546
000090 e9 b9 0a bf 90 b2 52 3f ea b5 23 bf 42 f8 f3 be
       -0.54189926 0.82303715 -0.63949454 -0.47650343
0000a0 f6 12 51 bf a8 c7 1b bc 67 2d 87 3e 22 8e 0d be
       -0.8166956 -0.009508051 0.26401827 -0.1382375
0000b0 d8 93 8b be 4f 7c 5b bf 07 eb 63 3f e4 1b a8 be
       -0.27261233 -0.85736555 0.890305 -0.3283378
0000c0 14 49 3a bf ba 93 af bf bd 42 a6 be 72 38 73 be
       -0.7276776 -1.3716958 -0.32472792 -0.23752001
0000d0 54 cb 8c bf 18 94 66 3f b0 dc aa be 95 b6 b4 bf
       -1.0999551 0.90069723 -0.33371496 -1.411822
0000e0 06 49 71 bf 2b 00 dc be 34 3c 50 bf 7d d4 95 bf
       -0.9425205 -0.42968878 -0.8134186 -1.1705471
0000f0 c8 94 9a bd f9 6f 01 bf 8f 4c 49 3e 1d 7c 3b bd
       -0.07547909 -0.5056148 0.19658111 -0.04577266

running_var f4 [64]
000000 ab 6b 9d 3f 47 a7 7c 3f 54 3b 8d 3f 98 f5 a7 3f
       1.2298483 0.98692745 1.103373 1.3121824
000010 ca a5 74 3f 3e 29 a9 3f 4a 06 76 3f af 47 7f 3f
       0.95565474 1.3215711 0.96103346 0.99718755
000020 5b 20 93 3f 65 e6 60 3f a8 a1 91 3f 77 88 84 3f
       1.1494249 0.87851554 1.1377459 1.0354146
000030 21 2a 89 3f 45 4d 99 3f af 53 c6 3f 29 40 89 3f
       1.0715982 1.1976706 1.5494288 1.0722705
000040 28 5f 71 3f a6 c9 8e 3f 4c 9a 4b 3f bd 18 87 3f
       0.9428582 1.1155288 0.79532313 1.0554425
000050 6b b9 99 3f 25 b9 9a 3f fa 0e 95 3f f5 63 65 3f
       1.200971 1.2087752 1.1645195 0.8960565
000060 cb 9d 92 3f 4d f1 93 3f bb 78 86 3f 03 64 6a 3f
       1.1454405 1.1558014 1.0505594 0.91558856
000070 fc 19 69 3f f3 17 8a 3f 41 8c 8e 3f be 24 88 3f
       0.91055274 1.0788559 1.1136552 1.0636213
000080 0e 6c 87 3f 3e a4 8e 3f ec d2 7a 3f c5 c6 88 3f
       1.0579851 1.1143873 0.9797809 1.068566
000090 72 a9 91 3f c0 5c 83 3f 16 32 8d 3f ee 03 5b 3f
       1.1379836 1.026268 1.103091 0.8555287
0000a0 70 7d 72 3f 46 4c 8c 3f b6 f6 a2 3f ea 03 61 3f
       0.9472265 1.0960777 1.273154 0.878966
0000b0 6c 27 7a 3f 70 88 91 3f 44 ae 7a 3f aa b6 77 3f
       0.97716403 1.1369762 0.9792216 0.967631
0000c0 11 30 98 3f 58 35 91 3f 41 6c 94 3f ee 43 60 3f
       1.1889669 1.1344404 1.1595536 0.8760365
0000d0 2a 10 7f 3f af 62 a2 3f e9 7f 96 3f 27 d1 8b 3f
       0.9963404 1.2686366 1.1757785 1.0923203
0000e0 22 32 b4 3f 31 ae 80 3f 7a a5 8c 3f 6d 1c 9c 3f
       1.4077799 1.0053159 1.0988 1.2196175
0000f0 04 15 6a 3f 5e 0a 78 3f 26 39 9b 3f e9 6a 69 3f
       0.9143832 0.9689082 1.2126815 0.91178757

weight f4 [64, 64, 3]
000000 1a cf 8c bd 52 2f 9f 3d a0 79 4d 3c 04 15 ca 3d
       -0.06875439 0.077726975 0.012541205 0.0986729
000010 f8 50 5b 3d 9a 2d b9 3d 30 14 75 3c 1a 8a 96 bd
       0.053544015 0.09041901 0.014958426 -0.073505595
000020 d0 0d 5d bc 3c ec 9a bd 00 ee ff 3c 04 53 26 bd
       -0.013492063 -0.075645894 0.031241417 -0.040606514
000030 50 aa 82 bd c0 f6 3b bd 40 9f 2c 3b 64 61 12 bd
       -0.06380141 -0.045889616 0.0026340038 -0.03573741
000040 12 e1 8c 3d 20 f2 ca 3b 58 a2 af 3d d0 e1 ae bd
       0.06878866 0.0061934143 0.085758865 -0.08539164
000050 10 a7 3d 3d 66 c3 ec 3d 3c 00 44 bd 48 87 ef bc
       0.0463019 0.11560707 -0.047851786 -0.029239312
000060 08 f9 86 3c 9e 8a 9e 3d c2 44 93 3d f8 0b 1c bd
       0.01647617 0.07741283 0.07190849 -0.03809735
000070 28 5e b8 bc 0a 53 c6 3d ca e3 e5 3d 08 3e 85 3d
       -0.022505835 0.09683807 0.11225088 0.06505972
000080 90 73 57 3d f8 99 27 bd 64 b5 7b bd fc ef 07 3d
       0.052600443 -0.04091832 -0.061452284 0.03318785
000090 66 ff 93 3d 62 b9 a3 bd d2 d9 9e 3d b8 54 c5 3d
       0.07226448 -0.07994343 0.0775639 0.096352994
0000a0 04 36 5b 3d 5c 1b b2 3d 30 a6 c0 3c ec 61 db 3d
       0.05351831 0.08696625 0.023516744 0.107120365
0000b0 18 68 cd 3d 74 e8 ba 3d d0 5e 95 bd 38 f4 9e 3c
       0.1002962 0.09126368 -0.07293475 0.019403562
0000c0 74 eb ac 3d d4 e9 93 3d e8 29 09 3d 8e bb 9e 3d
       0.084433466 0.072223336 0.03348723 0.07750617
0000d0 44 58 24 bd 00 54 7f 3b 00 0f 84 bb 88 7a e5 3d
       -0.04012324 0.003895998 -0.0040301085 0.112050116
0000e0 1c 61 bd 3d 04 63 8b bd 8c 3d fb bd ca 90 c9 bd
       0.09247038 -0.06805995 -0.122675985 -0.098420694
0000f0 9c 85 55 bd de c5 90 bd dc cc 52 bd 7c 71 fc bd
       -0.052129373 -0.0706899 -0.0514649 -0.12326333
000100 48 99 c0 3c 48 73 77 3d c0 41 a5 3c 1e 53 c4 bd
       0.02351059 0.060412675 0.020172954 -0.09586166
000110 e4 6c d1 3d ae ed f9 bd b0 14 f9 3c b0 f8 69 3c
       0.10225847 -0.12203537 0.030405372 0.014280483
000120 4c c2 a7 bd 00 5c 69 b9 e0 b6 af 3c 98 05 94 bc
       -0.08191356 -0.00022254884 0.021449506 -0.018069074
000130 a8 89 a9 3d be ae a2 bd 54 4b 2b 3d c0 f8 af 3d
       0.08278209 -0.07943486 0.041819885 0.08592367
000140 40 4f f4 bc 5e dc d4 bd 00 57 26 bc 48 c5 c1 3d
       -0.029822946 -0.10393594 -0.010152578 0.094614565
000150 0a d6 c3 3d 60 d9 36 bc 1e 91 bb bd 9a 45 bf 3d
       0.09562309 -0.011160225 -0.09158538 0.09339447
000160 98 a0 19 bd 12 b1 f2 bd 78 84 96 3d b0 82 f7 bc
       -0.03750667 -0.1185018 0.07349485 -0.030213684
000170 c0 32 88 3b 1c 66 a4 bd ee 58 ca 3d 94 e9 c5 3d
       0.0041564405 -0.08027288 0.09880243 0.09663692
000180 c0 01 e4 3b 7e 40 c0 3d c8 25 31 bd 38 e4 cc bd
       0.0069582164 0.09387301 -0.04324892 -0.10004467
000190 a0 e4 58 bd e4 dc 46 bd 06 4d bf 3d 96 7b 93 bd
       -0.05295241 -0.0485505 0.09340863 -0.072013065
0001a0 54 9f 45 3d ea 92 e4 bd b8 36 ee bc 30 70 eb bc
       0.04824765 -0.11160834 -0.029078826 -0.028740019
0001b0 6c 66 be bd c8 9d f5 3d e8 58 68 bd f4 21 2b bd
       -0.09296879 0.11992985 -0.056725413 -0.041780427
0001c0 bc f5 8c 3d 20 bb aa 3b 04 42 59 3d a8 34 84 bc
       0.068828076 0.0052102953 0.053041473 -0.01613839
0001d0 e8 20 30 3d 8c e4 c4 3d fc 00 7c bd 78 e5 b6 3d
       0.04300013 0.09613904 -0.061524376 0.089304864
0001e0 fe e5 f0 3d ce 6e cc 3d 18 34 84 3d 40 05 ce bd
       0.117626175 0.09982072 0.064552486 -0.10059595
0001f0 24 c1 0e 3d 60 40 d5 3c 36 f2 de 3d a4 b6 fa bd
       0.034852162 0.026031673 0.10886042 -0.12241867
000200 8e d6 d5 3d 4a 47 c1 bd 00 42 c2 bc c4 77 54 bd
       0.10441314 -0.094374254 -0.023713112 -0.05187203
000210 3c eb 01 bd d6 cf e0 bd c4 a0 be bd d0 d3 39 3d
       -0.031718478 -0.109771416 -0.09308007 0.045368016
000220 fe b0 9b 3d b0 54 bd bd d0 79 18 3c b4 8b e5 3d
       0.07602118 -0.092446685 0.009306386 0.11208287
000230 72 de a2 3d a2 ee c3 3d a0 0e 8f bc ee 69 93 3d
       0.07952584 0.09567 -0.017463028 0.07197939
000240 80 d2 01 3b 90 d5 6f bc b6 d5 fe 3d d4 28 a6 bd
       0.0019809306 -0.01463832 0.12443106 -0.08113256
000250 b0 d2 fb 3d aa b9 83 bd 74 c1 92 bd 60 45 a1 3b
       0.12296045 -0.06431897 -0.071658045 0.0049216
000260 28 6d d1 bc c4 67 24 bd 64 1b 64 bd 40 b8 cf bb
       -0.025564745 -0.04013802 -0.055690184 -0.006339103
000270 64 fc f4 3d e8 4f 08 bd 20 8d a8 bd a0 75 ee 3d
       0.11962202 -0.03327933 -0.082300425 0.11643529
000280 fe 23 f2 bd 26 6b e4 bd 42 2b f6 3d a0 f5 af 3c
       -0.11823271 -0.111532494 0.120199695 0.021479428
000290 88 81 5d bd 9a 62 ff bd d0 8f 99 bc 98 de 9e bd
       -0.05407861 -0.12469979 -0.018745333 -0.077573
0002a0 7a 9c a1 bd 54 be f8 bd dc 15 7c bd c0 38 4a 3d
       -0.07891174 -0.12145677 -0.061544284 0.049370527
0002b0 00 25 57 ba 32 21 d7 3d 60 21 b3 bd 8a 8d 8b 3d
       -0.00082071126 0.105043784 -0.087466 0.06814106
0002c0 fa 78 f6 bd e0 96 cf 3b 60 df 70 bd 92 93 bd bd
       -0.12034793 0.0063351244 -0.058806777 -0.092566624
0002d0 e0 33 ca bb 28 eb fd 3c ce 9a ec 3d b0 be 89 bc
       -0.0061707348 0.03099592 0.11552964 -0.01681456
0002e0 8c 25 f3 bd 56 eb 91 bd 10 46 02 3c c0 f9 26 3c
       -0.11872396 -0.07124965 0.0079512745 0.010191381
0002f0 c0 56 ff 3d 00 35 19 bc 6c 6d f2 bd 44 4c 3c bd
       0.12467718 -0.009351015 -0.11837277 -0.04597117
000300 68 73 f5 bd 30 67 df 3c d8 8b dd bc c0 24 4f 3d
       -0.119849026 0.027270883 -0.027044222 0.050572157
000310 16 90 8a 3d b2 84 b3 bd a0 05 8a 3d 08 50 8f bc
       0.067657635 -0.08765544 0.06739354 -0.017494217
000320 d0 4b d2 3d f8 cc 51 bd 90 d2 69 bd 94 af 47 3d
       0.10268366 -0.051220864 -0.057085574 0.04875143
000330 00 d4 71 3a 50 b7 b8 3d 6c e7 4d bd 80 32 b7 bc
       0.0009225011 0.09019339 -0.05026953 -0.022362947
000340 62 30 d5 bd e8 2d 5a 3d e0 eb 64 bc 70 04 d4 3c
       -0.10409619 0.053266436 -0.013972253 0.025881022
000350 00 aa a1 bd 54 eb 2c 3d 7c 48 c4 bd 20 cd c2 bd
       -0.07893753 0.042216614 -0.09584138 -0.09511781
000360 c4 bc 63 bd 88 9c d2 3c b4 95 74 3d b0 1f e1 bc
       -0.055599943 0.025709406 0.05971308 -0.02748093
000370 86 34 97 bd c0 0f 63 3b ac 04 ad bd 50 bf d7 3c
       -0.07383065 0.003464684 -0.08448157 0.026336342
000380 50 ac 61 3d 06 0f e7 3d 6c 20 e7 3d ce 64 e7 bd
       0.05509597 0.11282162 0.11285481 -0.11298524
000390 5c ac 6c 3d 38 6b 20 bd 78 36 3e bd f8 7e d4 3d
       0.057781562 -0.03916475 -0.046438664 0.1037578
0003a0 3e 82 90 bd 10 14 99 bc 78 3f 98 bd e8 82 a9 bc
       -0.07056092 -0.018686324 -0.07433981 -0.020692304
0003b0 f6 b7 b4 bd b2 3f ee 3d 46 c8 87 3d c0 86 0a bb
       -0.0882415 0.11633243 0.06629996 -0.0021137446
0003c0 bc 62 1f 3d 00 95 d3 bc 10 02 c8 bc 30 0d dd bd
       0.03891252 -0.025827885 -0.024415046 -0.10793531
0003d0 40 a9 db 3d 00 19 3b ba 38 4b 87 3d 80 25 d1 bd
       0.10725641 -0.0007137209 0.06606144 -0.10212231
0003e0 36 83 ed 3d 00 1a 47 3a 8a 90 8e bd cc e2 8f 3d
       0.11597292 0.0007595122 -0.069611624 0.0702568
0003f0 f8 34 4f 3d 7c da b0 bd a0 c4 b3 bc 5c b0 d2 3d
       0.050587624 -0.086354226 -0.021944344 0.10287544

weight f4 [64]
000000 00 00 80 3f 00 00 80 3f 00 00 80 3f 00 00 80 3f
       1.0 1.0 1.0 1.0
000010 00 00 80 3f 00 00 80 3f 00 00 80 3f 00 00 80 3f
       1.0 1.0 1.0 1.0
000020 00 00 80 3f 00 00 80 3f 00 00 80 3f 00 00 80 3f
       1.0 1.0 1.0 1.0
000030 00 00 80 3f 00 00 80 3f 00 00 80 3f 00 00 80 3f
       1.0 1.0 1.0 1.0
000040 00 00 80 3f 00 00 80 3f 00 00 80 3f 00 00 80 3f
       1.0 1.0 1.0 1.0
000050 00 00 80 3f 00 00 80 3f 00 00 80 3f 00 00 80 3f
       1.0 1.0 1.0 1.0
000060 00 00 80 3f 00 00 80 3f 00 00 80 3f 00 00 80 3f
       1.0 1.0 1.0 1.0
000070 00 00 80 3f 00 00 80 3f 00 00 80 3f 00 00 80 3f
       1.0 1.0 1.0 1.0
000080 00 00 80 3f 00 00 80 3f 00 00 80 3f 00 00 80 3f
       1.0 1.0 1.0 1.0
000090 00 00 80 3f 00 00 80 3f 00 00 80 3f 00 00 80 3f
       1.0 1.0 1.0 1.0
0000a0 00 00 80 3f 00 00 80 3f 00 00 80 3f 00 00 80 3f
       1.0 1.0 1.0 1.0
0000b0 00 00 80 3f 00 00 80 3f 00 00 80 3f 00 00 80 3f
       1.0 1.0 1.0 1.0
0000c0 00 00 80 3f 00 00 80 3f 00 00 80 3f 00 00 80 3f
       1.0 1.0 1.0 1.0
0000d0 00 00 80 3f 00 00 80 3f 00 00 80 3f 00 00 80 3f
       1.0 1.0 1.0 1.0
0000e0 00 00 80 3f 00 00 80 3f 00 00 80 3f 00 00 80 3f
       1.0 1.0 1.0 1.0
0000f0 00 00 80 3f 00 00 80 3f 00 00 80 3f 00 00 80 3f
       1.0 1.0 1.0 1.0

bias f4 [64]
000000 00 00 00 00 00 00 00 00 00 00 00 00 00 00 00 00
       0.0 0.0 0.0 0.0
000010 00 00 00 00 00 00 00 00 00 00 00 00 00 00 00 00
       0.0 0.0 0.0 0.0
000020 00 00 00 00 00 00 00 00 00 00 00 00 00 00 00 00
       0.0 0.0 0.0 0.0
000030 00 00 00 00 00 00 00 00 00 00 00 00 00 00 00 00
       0.0 0.0 0.0 0.0
000040 00 00 00 00 00 00 00 00 00 00 00 00 00 00 00 00
       0.0 0.0 0.0 0.0
000050 00 00 00 00 00 00 00 00 00 00 00 00 00 00 00 00
       0.0 0.0 0.0 0.0
000060 00 00 00 00 00 00 00 00 00 00 00 00 00 00 00 00
       0.0 0.0 0.0 0.0
000070 00 00 00 00 00 00 00 00 00 00 00 00 00 00 00 00
       0.0 0.0 0.0 0.0
000080 00 00 00 00 00 00 00 00 00 00 00 00 00 00 00 00
       0.0 0.0 0.0 0.0
000090 00 00 00 00 00 00 00 00 00 00 00 00 00 00 00 00
       0.0 0.0 0.0 0.0
0000a0 00 00 00 00 00 00 00 00 00 00 00 00 00 00 00 00
       0.0 0.0 0.0 0.0
0000b0 00 00 00 00 00 00 00 00 00 00 00 00 00 00 00 00
       0.0 0.0 0.0 0.0
0000c0 00 00 00 00 00 00 00 00 00 00 00 00 00 00 00 00
       0.0 0.0 0.0 0.0
0000d0 00 00 00 00 00 00 00 00 00 00 00 00 00 00 00 00
       0.0 0.0 0.0 0.0
0000e0 00 00 00 00 00 00 00 00 00 00 00 00 00 00 00 00
       0.0 0.0 0.0 0.0
0000f0 00 00 00 00 00 00 00 00 00 00 00 00 00 00 00 00
       0.0 0.0 0.0 0.0

running_mean f4 [64]
000000 00 00 00 00 00 00 00 00 00 00 00 00 00 00 00 00
       0.0 0.0 0.0 0.0
000010 00 00 00 00 00 00 00 00 00 00 00 00 00 00 00 00
       0.0 0.0 0.0 0.0
000020 00 00 00 00 00 00 00 00 00 00 00 00 00 00 00 00
       0.0 0.0 0.0 0.0
000030 00 00 00 00 00 00 00 00 00 00 00 00 00 00 00 00
       0.0 0.0 0.0 0.0
000040 00 00 00 00 00 00 00 00 00 00 00 00 00 00 00 00
       0.0 0.0 0.0 0.0
000050 00 00 00 00 00 00 00 00 00 00 00 00 00 00 00 00
       0.0 0.0 0.0 0.0
000060 00 00 00 00 00 00 00 00 00 00 00 00 00 00 00 00
       0.0 0.0 0.0 0.0
000070 00 00 00 00 00 00 00 00 00 00 00 00 00 00 00 00
       0.0 0.0 0.0 0.0
000080 00 00 00 00 00 00 00 00 00 00 00 00 00 00 00 00
       0.0 0.0 0.0 0.0
000090 00 00 00 00 00 00 00 00 00 00 00 00 00 00 00 00
       0.0 0.0 0.0 0.0
0000a0 00 00 00 00 00 00 00 00 00 00 00 00 00 00 00 00
       0.0 0.0 0.0 0.0
0000b0 00 00 00 00 00 00 00 00 00 00 00 00 00 00 00 00
       0.0 0.0 0.0 0.0
0000c0 00 00 00 00 00 00 00 00 00 00 00 00 00 00 00 00
       0.0 0.0 0.0 0.0
0000d0 00 00 00 00 00 00 00 00 00 00 00 00 00 00 00 00
       0.0 0.0 0.0 0.0
0000e0 00 00 00 00 00 00 00 00 00 00 00 00 00 00 00 00
       0.0 0.0 0.0 0.0
0000f0 00 00 00 00 00 00 00 00 00 00 00 00 00 00 00 00
       0.0 0.0 0.0 0.0

running_var f4 [64]
000000 00 00 80 3f 00 00 80 3f 00 00 80 3f 00 00 80 3f
       1.0 1.0 1.0 1.0
000010 00 00 80 3f 00 00 80 3f 00 00 80 3f 00 00 80 3f
       1.0 1.0 1.0 1.0
000020 00 00 80 3f 00 00 80 3f 00 00 80 3f 00 00 80 3f
       1.0 1.0 1.0 1.0
000030 00 00 80 3f 00 00 80 3f 00 00 80 3f 00 00 80 3f
       1.0 1.0 1.0 1.0
000040 00 00 80 3f 00 00 80 3f 00 00 80 3f 00 00 80 3f
       1.0 1.0 1.0 1.0
000050 00 00 80 3f 00 00 80 3f 00 00 80 3f 00 00 80 3f
       1.0 1.0 1.0 1.0
000060 00 00 80 3f 00 00 80 3f 00 00 80 3f 00 00 80 3f
       1.0 1.0 1.0 1.0
000070 00 00 80 3f 00 00 80 3f 00 00 80 3f 00 00 80 3f
       1.0 1.0 1.0 1.0
000080 00 00 80 3f 00 00 80 3f 00 00 80 3f 00 00 80 3f
       1.0 1.0 1.0 1.0
000090 00 00 80 3f 00 00 80 3f 00 00 80 3f 00 00 80 3f
       1.0 1.0 1.0 1.0
0000a0 00 00 80 3f 00 00 80 3f 00 00 80 3f 00 00 80 3f
       1.0 1.0 1.0 1.0
0000b0 00 00 80 3f 00 00 80 3f 00 00 80 3f 00 00 80 3f
       1.0 1.0 1.0 1.0
0000c0 00 00 80 3f 00 00 80 3f 00 00 80 3f 00 00 80 3f
       1.0 1.0 1.0 1.0
0000d0 00 00 80 3f 00 00 80 3f 00 00 80 3f 00 00 80 3f
       1.0 1.0 1.0 1.0
0000e0 00 00 80 3f 00 00 80 3f 00 00 80 3f 00 00 80 3f
       1.0 1.0 1.0 1.0
0000f0 00 00 80 3f 00 00 80 3f 00 00 80 3f 00 00 80 3f
       1.0 1.0 1.0 1.0

weight f4 [256, 320]
000000 17 5e 0a be 3c de 30 3e a1 f0 87 bd 17 a1 d7 3c
       -0.13512455 0.17272276 -0.06637693 0.02632193
000010 8e fa fa bc ee e0 3b 3e 02 b2 fd 3d 51 76 ad 3d
       -0.030637052 0.18347523 0.12387468 0.08469833
000020 94 11 60 3e 6c f0 ce 3d 59 76 6f 3b 8f 74 93 3d
       0.21881706 0.101044506 0.0036539047 0.07199966
000030 e8 be 95 3d 91 f7 0b bd ef 86 b0 3d a3 44 5d be
       0.07311803 -0.034171645 0.086194865 -0.21608214
000040 70 7f ac 3d c1 59 d4 bd 55 27 19 3d 69 47 33 3b
       0.08422744 -0.10368682 0.037391026 0.0027355796
000050 7f 73 71 3c 58 73 d4 3d d1 98 1f 3e 3c 7d 85 3d
       0.014737009 0.103735626 0.15585639 0.06518027
000060 52 ea 25 bc b4 29 0e be f1 7a c8 3d 8f 26 07 be
       -0.010126667 -0.13883096 0.09789074 -0.13198303
000070 75 8a c1 bd f0 cb 8f 3d 7f e1 1c be 25 8a 48 be
       -0.09450237 0.0702132 -0.15320395 -0.19583948
000080 c8 55 fe 3d ea 0c 5c 3c 80 bd a6 bc 11 ea db 3b
       0.12418705 0.013430813 -0.020354033 0.0067112525
000090 da 2e 23 3e b8 21 8a 3d af 30 f0 3b 76 ba c3 3d
       0.15935841 0.067447126 0.0073300223 0.09557049
0000a0 ac d0 43 be e5 97 4e bd 8a f7 1e bd 64 15 b8 3c
       -0.19122571 -0.050437827 -0.03881029 0.022471137
0000b0 f2 65 7c 3d 9b a0 01 be 49 57 0e 3d 44 02 17 3e
       0.06162066 -0.12658922 0.03475121 0.14746958
0000c0 7a 85 83 3c 34 29 e7 bd 3d ff 30 3e 54 9b 24 3d
       0.016054858 -0.11287156 0.17284866 0.040187195
0000d0 28 3f ee 3d 1f 9f 99 3d 27 dc a0 3d 55 89 0b bd
       0.1163314 0.07501053 0.07854491 -0.034066517
0000e0 c8 05 2a 3e a5 d8 2c 3e f3 bd 9b 3c 56 46 a3 bd
       0.16603768 0.16879518 0.019011473 -0.079724
0000f0 2f 66 1e be 9c 95 04 be 23 f9 df 3b b8 7f 05 be
       -0.15468667 -0.12947696 0.0068351193 -0.13037002
000100 16 37 6e bd 95 31 14 be 61 36 33 be 59 93 a6 bc
       -0.058158003 -0.14472039 -0.17501213 -0.020333933
000110 67 1f 08 be cc 08 0d bc 7d b8 30 be 5a 3e ae 3d
       -0.13293229 -0.008608054 -0.17257877 0.08507986
000120 1c 8f e4 bc 11 73 29 bc b8 52 c4 bd bf a7 36 3e
       -0.027900271 -0.010342375 -0.0958609 0.17837428
000130 5c 1b d9 3d f4 a0 5a 3d eb eb 1d 3e ee 5f 91 3c
       0.106009215 0.053376153 0.15422027 0.017745938
000140 ba 34 21 bd f9 11 96 3d 29 64 3c 3d 6e cd db 3d
       -0.039356925 0.07327647 0.045993958 0.10732542
000150 2f 0c 30 bc ae 49 0a 3e 0d 29 b2 3d df ea 9e bd
       -0.010745092 0.13504669 0.08699236 -0.07759642
000160 1c d9 95 bd af d6 2f 3d 5c 4f 26 be 70 a1 ba bd
       -0.07316801 0.042929348 -0.1624121 -0.09112823
000170 6e 17 48 3e b8 95 85 bc 77 4b b5 bd 76 95 de bd
       0.19540188 -0.016306743 -0.088522844 -0.10868351
000180 2d b2 bd 3d 75 32 b7 bd dd 79 14 3e a3 e1 c5 bd
       0.092625 -0.08945171 0.14499612 -0.096621774
000190 7b 1f a2 bd 0c 22 0e bd 1d 4c cd bb 0c ae dd bd
       -0.07916161 -0.03470044 -0.006265177 -0.108242124
0001a0 1e 5d 4f 3d ab 3b 22 3e d7 52 4e bd ab bf 32 bb
       0.050625913 0.15843074 -0.05037197 -0.0027274888
0001b0 ad f6 01 bc c8 47 bf 3d 8d a6 42 be 4b 53 5e bd
       -0.007932347 0.09339863 -0.19008847 -0.054278653
0001c0 34 50 b9 bd b6 c7 ba 3d 59 04 56 bd e2 d1 63 3d
       -0.09048501 0.09120123 -0.05225024 0.05562008
0001d0 0a e6 b7 3d a6 a2 ff 3d b9 65 b6 bd e6 b8 1c 3e
       0.08979423 0.124821946 -0.08906121 0.15304908
0001e0 f4 1f 48 be 30 d2 f6 bd d1 b2 97 3d 93 88 09 be
       -0.19543439 -0.12051809 0.074071534 -0.13431005
0001f0 4d c7 7d 3d 06 f5 9d be f8 65 45 3d 70 16 ae 3b
       0.061957646 -0.30851 0.048192948 0.0053127334
000200 f4 b2 15 3c 95 67 40 3c a2 cb f1 bd f0 26 ae 3d
       0.009136904 0.011743446 -0.11806418 0.085035205
000210 bd 95 5b bd 6a 44 3c bc 45 72 f6 bd 06 c8 0d be
       -0.0536096 -0.011490921 -0.12033514 -0.13845834
000220 0a 98 18 3d 23 4f c2 bd df c8 e0 bd fe 2a b6 bd
       0.03725437 -0.094877504 -0.10975813 -0.08894919
000230 e7 00 1c be b5 11 93 3d c5 5e a5 3c 95 3c eb 3c
       -0.15234719 0.07181112 0.020186791 0.028715411
000240 52 ec fb bd fe 94 ff 3d cf df 2f 3e d0 ee ca 3d
       -0.12300934 0.1247959 0.1717522 0.09908831
000250 9c 93 92 3c 0b 82 05 3d 14 f3 64 bd f9 ce 2d 3e
       0.017892651 0.03259472 -0.05589588 0.16973485
000260 c7 6b 20 bb cc 1e 9e 3d bc 0c 6b bc 40 67 3e be
       -0.0024478303 0.07720718 -0.014346298 -0.18594074
000270 a0 39 3d 3d 27 32 f3 bd 87 de 8d 3d c3 26 d0 3b
       0.046197534 -0.118748 0.06927209 0.006352277
000280 7d 52 83 be 28 ca 2a be 0a 65 1f 3d 8f 7b 61 3d
       -0.2564887 -0.16678679 0.038914718 0.055049475
000290 24 fa b5 bc 75 a2 8d bc 3c 07 76 be 66 8e 52 bc
       -0.022214003 -0.01728938 -0.24026197 -0.012851333
0002a0 9d ad 2d be d4 72 6f bd 14 7b 31 bd 29 3b 8b bd
       -0.1696076 -0.058459118 -0.043330267 -0.06798393
0002b0 6c e8 6a 3d 51 40 cb bc 98 d9 02 bd ab 9b 2c be
       0.05735056 -0.024810942 -0.031945795 -0.16856258
0002c0 b8 4d ad bd 07 13 27 bc dd f8 b1 3c fc e5 0f bd
       -0.08462089 -0.010197408 0.021725113 -0.03513144
0002d0 94 39 49 3e af b9 36 3d a2 3b 03 bd c7 e0 eb 3d
       0.1965087 0.044610675 -0.032039292 0.11517482
0002e0 9c 39 be bc e3 83 15 3e 96 a7 b9 bc 11 b8 15 3d
       -0.02322083 0.14601092 -0.022662919 0.036552493
0002f0 9f d6 2f 3d b9 e0 03 3d db fa 29 3e fb 73 fb 3d
       0.042929288 0.032196734 0.165996 0.12277981
000300 e9 2e da 3b a3 4e 1f 3e a3 e0 a0 3d 81 d3 b7 3d
       0.006658424 0.15557341 0.07855346 0.08975888
000310 7f ca 13 be ee 0c bc 3c 27 07 28 3d e4 61 c9 bc
       -0.14432715 0.022955384 0.041022446 -0.02458281
000320 41 b9 8d 3d 2c ad a7 bd 75 14 58 3d 52 32 c1 3d
       0.069201 -0.08187327 0.052753884 0.09433426
000330 b9 02 89 3c 14 69 d5 bd 28 9f 74 3d f3 27 89 3e
       0.016724931 -0.10420433 0.059722096 0.2678829
000340 be b0 c6 3d 51 23 63 bd 8d 61 01 3e 39 4a b3 bd
       0.0970168 -0.055453602 0.12634869 -0.08754391
000350 52 03 1b 3d 91 e1 82 3d a0 98 4a 3d 97 a1 2a be
       0.037844963 0.0639068 0.04946196 -0.16663204
000360 13 d5 3d bd 10 fa d4 3d 58 2b de bd 14 1b af bd
       -0.04634578 0.10399258 -0.10848111 -0.085500866
000370 48 c4 4e 3e 2e 36 80 bd 1b b6 8d bd 08 40 79 bd
       0.20192063 -0.06260334 -0.069194995 -0.06085208
000380 79 57 86 3d 87 3d b0 3d 0e c9 9e 3d d0 3b 96 bd
       0.06559653 0.086054854 0.07753192 -0.07335627
000390 b2 fd 01 3d d0 38 19 3e cd 9a f0 3c 99 e7 38 3e
       0.031736083 0.14963078 0.02937069 0.18057097
0003a0 f6 4a a0 3b 13 24 6a 3d bb 8e a3 bd 2c c7 0c 3e
       0.0048917485 0.05716331 -0.07986208 0.13747853
0003b0 c9 ff c5 3c 31 98 40 bd a4 d0 dd 3d f0 f2 11 bc
       0.02416982 -0.04702014 0.10830811 -0.0089080185
0003c0 dd ab e0 bc b6 1a 54 3d 93 ed e1 b8 fe 55 10 3d
       -0.0274257 0.051783286 -0.00010773088 0.03523826
0003d0 2f 34 bf bc 0e 56 2a 3e cc fa f3 bc 75 4d a6 bd
       -0.023340313 0.1663439 -0.029782675 -0.081202425
0003e0 ab 3b c4 3d 5d 5a 61 3c 2a e7 6e be f7 a8 85 bd
       0.09581693 0.013754454 -0.2333037 -0.06526368
0003f0 81 37 80 3c 16 d1 33 be d2 fb 80 3d 60 d0 cf bd
       0.015651466 -0.17560229 0.06298031 -0.10147166
