model/backups/charCNN-v0.pt (torch, 199438 bytes, 20 tensors)

weight f4 [32, 27, 3]
000000 6a 59 a7 bd d1 ff 7a bd 5a 32 31 3d 75 36 d5 3c
       -0.08171351 -0.06127912 0.04326091 0.026026944
000010 ec fe 50 bd 12 56 dc bb 6f c5 09 be e1 66 f7 3c
       -0.051024362 -0.0067241276 -0.13454221 0.030200424
000020 de b2 20 bd 25 49 42 3d b6 6e 09 be 63 71 4f bd
       -0.03923308 0.047433037 -0.13421139 -0.050645243
000030 a2 38 68 3d 03 e5 f4 bb a9 1a 7e bd a6 21 2e 3d
       0.056694634 -0.0074735894 -0.062037144 0.04251256
000040 91 0e ef bd c7 c3 93 bd 1a b3 cc bd c4 74 85 bd
       -0.116727 -0.07215076 -0.099950984 -0.06516412
000050 0e b5 b1 bd e2 b3 95 3d 5a 76 99 bd 99 3b 63 3d
       -0.086771116 0.073097005 -0.07493277 0.05547676
000060 22 f5 21 bd bf 36 14 bd fb 84 bb 3d bd 8e 9e bd
       -0.039540417 -0.036185022 0.091562234 -0.07742069
000070 88 7a f0 3b 95 61 dd bd b5 fb c6 bd 8c 61 7f 3d
       0.0073388256 -0.10809628 -0.09715978 0.062348887
000080 86 95 8e bd 17 84 f7 3c a3 e6 ae bb a9 79 36 bd
       -0.06962113 0.030214353 -0.0053375526 -0.044549618
000090 6e aa be bd 37 e4 79 3d 17 b5 92 3d 3a 6b 9b 3d
       -0.09309851 0.06100866 0.071634464 0.07588811
0000a0 88 96 84 3d 73 97 24 bc f8 67 58 3d ca 53 db 3d
       0.06474024 -0.010045874 0.052833527 0.10709341
0000b0 a4 21 3d bd cc b7 a7 3d a9 06 1c bd 1b d8 c5 3d
       -0.04617466 0.08189353 -0.03809229 0.096603595
0000c0 88 a3 e4 bd be 2f 5e 3c b7 65 de 3d 11 6c f0 bd
       -0.111640036 0.013561187 0.10859244 -0.11739362
0000d0 85 2e 27 3d 65 a4 8f 3c 58 28 91 3c 30 50 9e 3d
       0.04081585 0.017534444 0.017719433 0.07730138
0000e0 d4 87 4f bc 8d d8 c3 bd bd 9a b9 3c 4c 59 7f bd
       -0.012666661 -0.09562788 0.022656793 -0.06234102
0000f0 82 b7 25 bd a9 43 23 3d 51 dc 67 3d 58 2d e8 3a
       -0.04045821 0.039859448 0.056606594 0.0017713709
000100 25 b4 37 bd c8 cc c8 3d 69 88 d8 bd cb 32 db bd
       -0.044849534 0.09804684 -0.10572893 -0.10703047
000110 b7 10 9f 3d a3 22 09 bd 78 75 0b 3d be 8a 75 bd
       0.0776686 -0.033480298 0.034047574 -0.059946768
000120 a8 6f 62 bd 74 c2 11 bd 25 d1 ad bd d6 05 45 3d
       -0.055282265 -0.035585836 -0.08487157 0.04810127
000130 9a 7a 92 bd f1 11 17 be d6 4d d8 3b 5f df 14 be
       -0.07152291 -0.14752938 0.0066010756 -0.14538334
000140 8b 25 a4 3d 8f 28 60 bd 4f 64 95 bd 21 b9 a4 3c
       0.08014973 -0.05472618 -0.07294523 0.020107808
000150 f9 5b 5f bd 5b 88 11 3c 36 8f ef 3c 42 7a 0a bc
       -0.05453107 0.008882607 0.029243093 -0.008452
000160 7f f1 dc 3d 26 a6 b9 3c cd 64 a9 bd 60 d2 76 3d
       0.10788249 0.022662234 -0.08271179 0.060259223
000170 d1 15 db bc 11 92 80 bd 8a ca 08 b9 42 3a 07 ba
       -0.026743801 -0.0627786 -0.00013045422 -0.00051585224
000180 d2 f9 a4 3d 40 ab d2 3d d5 95 d1 3d f8 92 d2 3d
       0.08055462 0.102865696 0.10233656 0.10281938
000190 67 3f 13 bb f2 f6 db 3d 96 73 c1 3d 10 e7 88 3d
       -0.002246821 0.107404605 0.094458744 0.06684697
0001a0 17 59 0e bd d1 64 b2 3d 46 7d 87 bd 72 08 fe bc
       -0.03475293 0.087106355 -0.06615691 -0.031009886
0001b0 22 95 0e 3d be f8 9d 3d 37 cc a6 bc eb 2c 0c 3c
       0.034810193 0.077134594 -0.02036105 0.008555631
0001c0 d4 af c7 bc 30 1b 05 bd 78 bb 48 bd 7d ce 2c bd
       -0.024375834 -0.03249663 -0.04900691 -0.04218911
0001d0 45 b4 2b bd 77 81 cb 3d a8 b1 b1 3c 4f a4 59 3d
       -0.041919965 0.09936803 0.021691158 0.053135213
0001e0 ce cb 40 3c 25 80 44 3d 36 e2 2b bc 3d ce 9c bd
       0.011767341 0.04797377 -0.010490945 -0.07656524
0001f0 03 f8 d4 3d e0 ac bf bc 00 3e 0f bb 79 50 b3 bd
       0.10398867 -0.023397863 -0.0021857023 -0.08755583
000200 8f 66 14 3d ca 85 0d 3d fb 8b 08 3b 35 03 b4 bd
       0.03623062 0.03455142 0.0020835388 -0.08789674
000210 12 d0 14 3c f4 15 9f bd b1 97 a9 3c d0 20 a0 3d
       0.009082811 -0.07767859 0.020702215 0.078187585
000220 3f 2f cd 3d b5 67 cd 3d 98 57 60 3d 18 9d bc bc
       0.10018777 0.10029546 0.054771036 -0.023024127
000230 b1 30 cb bc db 2b dc 3d e7 9a e8 bc fe 05 55 3d
       -0.024803491 0.10750552 -0.028394176 0.052007668
000240 b2 a8 2d 3d 10 a5 82 bd ca 1d b9 3d b0 93 87 bc
       0.04239721 -0.063791394 0.09038885 -0.016549915
000250 75 d5 70 3d dd da dd 3d 06 ae 18 bd 7a a3 65 bd
       0.05879732 0.108327605 -0.037275337 -0.056064107
000260 fb 49 8d bc 76 e0 eb 3d a9 6e 5b 3d cf ab ac 3d
       -0.01724719 0.11517422 0.05357233 0.084312074
000270 76 c3 ca bc 92 cc df 3d ee 1e 8c 3b f0 47 a0 bd
       -0.024751406 0.109276906 0.004276148 -0.07826221
000280 24 ca d6 3d 7a 7e 32 3c b9 7b a6 3d 3c 50 cf bc
       0.10487774 0.010894412 0.08129067 -0.025306813
000290 01 c2 ee bc 6a 34 98 3d 8f f2 93 bd 28 31 14 3d
       -0.029145243 0.07431872 -0.07223999 0.03617969
0002a0 52 52 d3 bd 6d 13 4a bd b6 2c 6b 3d 8f 1f e0 bd
       -0.10318436 -0.049334932 0.057415687 -0.10943519
0002b0 c5 43 94 bd 79 8b 18 bc 4c b7 50 3d b7 f3 a2 bb
       -0.072394885 -0.009310597 0.050956056 -0.0049729007
0002c0 74 71 ec bb f3 6e 4e 3d cb e8 58 3d fe f6 f4 3c
       -0.007215673 0.05039878 0.052956384 0.029902931
0002d0 d4 cc 61 3d fd 46 21 3d 63 a6 69 3d 56 6d 10 3d
       0.05512698 0.03937434 0.057043444 0.03526052
0002e0 ec da 0c bd 9b a6 3f 3d 17 dd 9c bd 3d db 52 3d
       -0.034388468 0.046789747 -0.07659357 0.051478613
0002f0 a0 b6 f3 3b 14 58 d3 bc 01 96 70 3d 7d a2 76 bd
       0.007437542 -0.025798835 0.058736805 -0.060213555
000300 42 fb 43 bd a9 69 8b bb ac 8e 03 be 87 d6 56 3d
       -0.04784704 -0.004254539 -0.12847394 0.052450683
000310 c3 db 87 bd 7c b7 36 bc 9b 30 a8 bd 6b 40 2b bd
       -0.06633713 -0.0111521445 -0.08212396 -0.04180948
000320 37 6b 67 3d 1c 29 f2 3b 04 9a 98 bd 0c 1c 98 bc
       0.056498732 0.0073901545 -0.07451251 -0.018568061
000330 36 24 40 bd 43 9b d7 bd 1e ce 15 bc 79 92 a1 bb
       -0.046909533 -0.10527661 -0.00914338 -0.004930791
000340 97 09 c8 3d 3a 10 49 bd b6 03 fb 3d 3b a8 cb bd
       0.09767454 -0.04908774 0.12256567 -0.09944197
000350 ed 94 90 3d 45 7e b1 bd e5 62 01 bd 98 8e ca 3c
       0.07059655 -0.08666662 -0.031588454 0.024726197
000360 f3 c8 5b 3c 44 10 a5 3c cb 9d 01 be ec 19 94 3d
       0.013414609 0.020149358 -0.1265785 0.07231507
000370 a5 91 a8 bd a6 24 53 bd f3 38 0e 3d b5 4f f2 3d
       -0.082309045 -0.051548623 0.03472228 0.11831609
000380 b6 98 5c 3d 84 69 e0 bc 49 8d b9 3d 41 9b 30 3d
       0.053856574 -0.027394064 0.09060151 0.04311681
000390 dc 4a 98 3d 68 ae 69 bd 8c 0e 7b 3c 91 23 04 3e
       0.07436153 -0.057051092 0.015323292 0.12904193
0003a0 8f df 01 be 75 b1 d4 bd 10 5f 59 3c 09 77 14 3a
       -0.12682937 -0.1038541 0.013267294 0.00056634896
0003b0 38 73 2b 3d 66 9e bc bd 1d 7a 46 bd fb 9b a2 3c
       0.041857928 -0.092098996 -0.0484563 0.019849768
0003c0 0a a4 0b 3c ee 9a 38 bd 79 98 63 bd 9a 21 a5 bd
       0.008522997 -0.045069627 -0.05556533 -0.080630496
0003d0 91 ed dd 3d e4 45 cf bd 93 c4 2f 3b 14 8d ea 3d
       0.10836328 -0.101207525 0.0026820048 0.1145269
0003e0 05 37 b4 3d af 45 d8 3d 29 7f 95 3c 39 27 c3 bd
       0.08799557 0.10560166 0.018249111 -0.095289655
0003f0 91 12 a1 3d 6d 80 93 bb 54 7f 02 be e5 1d 79 bd
       0.078648694 -0.0045013935 -0.12743884 -0.060819525

weight f4 [32]
000000 31 25 7a 3f d5 05 80 3f 06 ef 81 3f 65 65 80 3f
       0.97713 1.000178 1.0151069 1.0030943
000010 84 3e 84 3f 09 01 80 3f 65 55 79 3f 9e c4 7b 3f
       1.0331578 1.0000316 0.97395927 0.9834689
000020 39 74 7f 3f d5 a4 80 3f c6 f2 7b 3f a4 ce 81 3f
       0.99786717 1.0050303 0.9841732 1.0141187
000030 bc c5 82 3f 60 59 85 3f ac c8 84 3f 17 3a 7f 3f
       1.0216594 1.04179 1.037374 0.99698013
000040 d0 32 7e 3f 62 dd 82 3f 00 35 7d 3f b8 45 7d 3f
       0.99296284 1.0223811 0.98908997 0.9893451
000050 84 2d 84 3f 76 06 7a 3f dc 15 81 3f 77 d4 7e 3f
       1.032639 0.9766611 1.0084796 0.99542946
000060 24 1b 7c 3f 83 cd 7b 3f 3d f7 82 3f ea 74 7f 3f
       0.98478913 0.9836046 1.0231701 0.9978777
000070 69 cd 83 3f 5e 07 80 3f 3b 37 84 3f 75 92 80 3f
       1.0297061 1.0002248 1.0329355 1.0044695

bias f4 [32]
000000 dd 81 3d bc 76 ce b0 bc 49 b3 74 bd dd f2 52 bc
       -0.011566606 -0.021582823 -0.059741292 -0.012875286
000010 dd c9 a4 3c a2 f8 1e 3c bb 06 e8 bc 88 a0 33 3d
       0.020115787 0.009702833 -0.028323522 0.043854266
000020 f2 a3 8b bc 94 36 cd bc 9b e1 9c bc a1 1f 53 bd
       -0.017045949 -0.025050439 -0.019150546 -0.051543836
000030 e4 f2 81 bc 37 64 1e ba d5 fa 88 3c 8c eb b4 bb
       -0.01586289 -0.0006042155 0.016721169 -0.0055212434
000040 0c fd d1 b8 fa 9a 46 3d 22 00 9e bc 05 e7 b3 bc
       -0.0001001303 0.04848764 -0.019287173 -0.021960745
000050 3e 7b 54 bd 08 4f f4 bc 82 69 98 b9 8a 6b 08 bd
       -0.051875345 -0.029822841 -0.0002907031 -0.033305682
000060 12 c9 2e bd e1 ff 4a bd 84 fb 37 3d c4 19 54 bc
       -0.042672224 -0.04956043 0.0449176 -0.012945596
000070 d9 1d b5 bb f2 46 43 bc f3 5f e4 bb 94 e4 ee 3b
       -0.0055272398 -0.01191877 -0.006969446 0.007290432

running_mean f4 [32]
000000 b2 b2 23 bc 91 1d ff 3c 41 a8 42 3a 7a 62 df 3b
       -0.009991335 0.031142028 0.00074255845 0.0068171592
000010 5e d6 b9 3c 7e 9c 88 3c f8 26 a9 3b 7d 58 97 3b
       0.022685226 0.016676184 0.005162116 0.004618703
000020 c1 c9 60 3c 64 3d 63 3c 65 a5 22 bc 62 d7 12 3b
       0.013719977 0.013869617 -0.009927128 0.002240621
000030 40 af da bc a8 0c 4a 3c 54 33 b1 3c 83 ca 38 bb
       -0.026694894 0.012332119 0.02163092 -0.0028196878
000040 a7 13 e4 bb 25 2b d1 bc 8a ca a6 bc ef dd e6 bc
       -0.0069603506 -0.025533268 -0.02036025 -0.028181998
000050 47 e6 3f 3c af 53 42 bc eb 39 ee b8 fe a4 ad b9
       0.011712617 -0.011860772 -0.000113595124 -0.0003312006
000060 13 ce 71 3b d6 07 c7 bb bd ad 8e bc 99 57 46 3c
       0.0036896511 -0.006073932 -0.01741683 0.012105846
000070 a6 81 54 3b 01 51 aa bb 5c 77 cb bc 1e 59 cf 3c
       0.003242591 -0.0051976447 -0.024837188 0.02531105

running_var f4 [32]
000000 19 b4 b2 3b 87 12 b3 3b 80 9f 7b 3b 1f 59 79 3b
       0.005453598 0.005464855 0.003839463 0.0038047505
000010 97 4a 3c 3b 37 98 a1 3b f4 0b a1 3b 13 27 ad 3b
       0.0028730982 0.0049314755 0.004914755 0.005284199
000020 71 19 7e 3b 5d ba 9a 3b 07 b5 87 3b 69 b7 98 3b
       0.0038772488 0.0047219233 0.004141453 0.004660536
000030 8a 88 cb 3b 60 1b 88 3b 15 41 8b 3b 11 63 ad 3b
       0.006211345 0.004153654 0.0042497017 0.0052913507
000040 e3 d0 9f 3b d7 cb be 3b bf 28 b8 3b 0d 15 a7 3b
       0.004877196 0.0058226394 0.0056200917 0.005098945
000050 bc 76 58 3b cd ca 54 3b 08 0d 9c 3b 78 2c 89 3b
       0.0033029756 0.0032469511 0.0047622956 0.0041862093
000060 1e fe a5 3b 01 16 95 3b fa 7f 7a 3b 46 82 6c 3b
       0.0050656935 0.004549742 0.0038223253 0.0036088391
000070 50 bc 8c 3b fa e2 87 3b e6 d1 af 3b 6c 69 88 3b
       0.0042949095 0.0041469308 0.005365598 0.004162958

weight f4 [32, 32, 3]
000000 f2 b6 7f bd d2 55 8d 3d 29 01 8e 3d bd 09 c5 bd
       -0.06243033 0.069011346 0.06933815 -0.09620998
000010 9d 30 b6 3c 15 38 ec bd d3 72 35 3d 19 a8 ca 3c
       0.022239977 -0.11534134 0.044298958 0.024738358
000020 32 ac 8d bd 71 fe 5a bc ff bd 49 bd 7a 0d b5 bd
       -0.06917609 -0.013366328 -0.04925346 -0.08840461
000030 ae c5 18 bd 20 33 e3 bd f5 56 ac bd 9a 57 97 3d
       -0.037297897 -0.11093736 -0.08415023 0.073897555
000040 71 89 99 bd 93 c1 73 bd 41 fd 58 3d ee 67 e3 3c
       -0.07496918 -0.05951078 0.052975897 0.027759518
000050 02 8d 1a 3c a4 12 c3 3b 16 ec 0b be a5 73 d5 3c
       0.009433033 0.00595315 -0.13664278 0.02605612
000060 7b fe ac 3d d6 fa 8d 3d 44 5a fd 3c 5d a5 ca bc
       0.08446976 0.06932609 0.030926831 -0.024737054
000070 37 4a 3e bd 9f 8f 86 bd 83 cd 03 3d 50 94 9d bd
       -0.046457496 -0.06570362 0.032178413 -0.07694304
000080 80 24 36 bc 0b cb 5a bd 6d 61 a6 3d b6 43 aa bd
       -0.011117101 -0.053416293 0.08124051 -0.08313696
000090 6f 06 76 bd 58 3a a3 3d 8b 11 01 3d 47 6e ae 3d
       -0.06006473 0.079701126 0.03151087 0.085171275
0000a0 e3 5c 5e 3d e1 be c8 3c 9d c2 9b 3b 04 18 a3 bd
       0.054287802 0.02450508 0.0047534243 -0.07963565
0000b0 4f 2b 08 bb e6 62 44 3d 84 72 81 3d 8c 3d 88 3d
       -0.0020777767 0.04794588 0.0632067 0.06652364
0000c0 4c ec 7c 3d 7c aa 75 3d b1 ec f9 3c 6e fa 8f 3d
       0.061748788 0.05997704 0.030508371 0.070301875
0000d0 cd e0 35 3d 8f 9e b7 3d 08 ef 21 bd 98 be 65 bd
       0.04440384 0.089657895 -0.0395346 -0.056089967
0000e0 c4 3e 9f 3c 86 de b8 bd 5e a1 82 3c 9d d3 d4 3d
       0.019439109 -0.09026818 0.015946086 0.103919245
0000f0 1d af 19 bd 37 bb aa bd a3 78 0c bd cc ec 34 3d
       -0.037520517 -0.0833649 -0.034294736 0.04417114
000100 93 6e be 3c d5 d4 27 3d cf ac bf bd f3 a8 7d bd
       0.023246085 0.040974457 -0.093591325 -0.0619287
000110 f6 00 28 3d 5c 23 cf 3d 78 11 09 be c5 7d fe bb
       0.04101654 0.10114166 -0.1338557 -0.0077664577
000120 5f 04 76 bd 34 00 00 3d d2 1d 3e 3d e6 3a 90 bc
       -0.060062762 0.031250194 0.046415158 -0.01760621
000130 24 a2 e4 3c d5 3c 89 bd 51 1b 09 3d 35 97 b7 3d
       0.027909346 -0.06701056 0.033473317 0.08964387
000140 b1 74 84 3d 1a 27 56 3c 32 fe 92 3c f2 53 82 3d
       0.064675696 0.013070846 0.017943475 0.063636675
000150 e6 a4 71 bd f3 8b 49 3d c8 4c 66 bb 77 b3 df 3c
       -0.05899515 0.04920573 -0.003514098 0.027307255
000160 65 c7 64 3d 8a bc 20 bd a7 ef 67 3d 30 43 ce 3d
       0.05585422 -0.039242305 0.056625035 0.10071409
000170 1a a9 a6 3d 57 92 bb bd cf 6f 81 3c 18 20 6a bd
       0.08137722 -0.091587715 0.015800385 -0.057159513
000180 eb f0 45 3d 13 79 00 3d 2a 13 bc bd fb 86 33 3d
       0.04832546 0.031365465 -0.09183343 0.0438299
000190 71 68 4c 3d 50 35 c4 bc ab 3e e1 3c eb 9f 99 bd
       0.04990429 -0.023951203 0.027495703 -0.07501205
0001a0 d7 48 c7 bb 05 20 7c bc 39 dc 91 3d 0d e2 80 bd
       -0.0060816812 -0.015388493 0.07122082 -0.06293116
0001b0 32 03 1d 3d 29 2b 9b bd 21 7b d1 3c 2a 06 ba bd
       0.038333125 -0.075765915 0.025571408 -0.09083207
0001c0 ba f2 a0 3d ca ba a7 3d 87 23 19 bb 02 f1 e5 3b
       0.078587964 0.08189924 -0.0023367123 0.0070172558
0001d0 88 fb 03 bd 33 a5 10 bd ea 61 3f bd 80 16 63 3c
       -0.0322223 -0.035313796 -0.046724238 0.013860345
0001e0 8a dc cb 3d 8a 40 b6 3d 5c cb bb bc e0 1d 36 3d
       0.09954174 0.088990286 -0.022924118 0.044462085
0001f0 97 a1 08 3d 1f ee d1 3d ff 56 14 3d 4d fc 08 bb
       0.03335723 0.10250496 0.03621578 -0.0020902336
000200 0b 2f 7f 3c 63 fe 97 3c 22 96 a0 bd b5 80 a0 3d
       0.015575181 0.018553918 -0.078411356 0.07837049
000210 23 9d 94 bd 36 dc 7a 3d 0e 8e c3 3d 29 b0 9f 3b
       -0.07256534 0.061245166 0.09548579 0.004873295
000220 b9 93 9a 3d 34 8a f7 bc c5 4d 86 bd e2 00 87 3c
       0.07547707 -0.030217268 -0.06557802 0.016479913
000230 27 80 b2 3d 2f da 7f bd d1 86 0c bd 36 75 aa bd
       0.08715849 -0.062463935 -0.03430826 -0.083231375
000240 b2 26 5d bd 54 18 e8 3d a1 d6 9d bc b1 38 80 3d
       -0.05399198 0.11332765 -0.019267382 0.06260813
000250 87 91 0b bd 6e f0 22 3d 55 d0 64 bd ce 7f 08 bd
       -0.034074333 0.039780073 -0.055862743 -0.03332501
000260 4a b2 dc bd 3b 3f 95 3d 15 f9 1f bd 31 33 94 bc
       -0.107761934 0.07287451 -0.039055903 -0.018090816
000270 e5 2c 11 3d 79 ab da 3c 9c da ce bc 51 07 4c 3d
       0.035443205 0.026693093 -0.025250725 0.049811665
000280 05 4a 90 3d 08 f0 a9 3d 15 50 07 3d e7 1d 8e 3d
       0.07045368 0.082977355 0.033035357 0.06939297
000290 b7 06 9c 3c c7 cf 63 3d a1 8f 0a bd 0b 59 98 3c
       0.01904617 0.055618074 -0.03382838 0.018597146
0002a0 f0 0c 7c 3d 01 5c a7 3d 59 08 68 3d 16 28 fb bc
       0.061535776 0.08171845 0.056648586 -0.030658763
0002b0 e3 d3 c0 bd 9c 5a af 3d bc 19 31 3d 13 1e 7b bd
       -0.09415414 0.08562204 0.043237433 -0.061307978
0002c0 ca 4d aa 3d ad a4 ce bc 3d ec 97 3d d3 78 66 bd
       0.08315618 -0.025225008 0.07418106 -0.05626757
0002d0 86 1f ad 3d 4e aa 37 3d 2f 93 90 bd 56 21 9a 3d
       0.08453278 0.04484015 -0.07059323 0.075258896
0002e0 fc 8b f3 bd f3 b2 6c bc 03 9b 0d 3d 27 87 ca 3d
       -0.11891934 -0.014446962 0.03457166 0.098890595
0002f0 e4 fd c7 3b 62 33 cf 3d 4c 2d b0 3d 81 54 86 3d
       0.006103264 0.10117222 0.0860239 0.065590866
000300 00 21 c5 bd dd 23 8b 3b 79 b9 d2 bd 5b ef cc 3d
       -0.09625435 0.0042462186 -0.10289282 0.10006591
000310 13 73 8a 3c ed 2b ad 3d bf 48 b3 bc 5e ce 0d bb
       0.016900575 0.08455644 -0.021885274 -0.0021637897
000320 a1 b3 73 3d 7b 80 46 bd 3f 6f 8b bd 7a 32 8c bd
       0.05949748 -0.048462372 -0.06808328 -0.06845565
000330 cd b9 9c bc ab dd ab 3d 04 ac 0e 3d f1 fc 5e bd
       -0.019131565 0.08391889 0.034832016 -0.054440442
000340 04 98 94 bc e0 89 6a 3c 3c 73 d7 3b 03 d3 51 3c
       -0.018138893 0.0143150985 0.0065750163 0.012806657
000350 69 05 28 3c 03 c1 4b 3c 2a 2b 49 bd 9a 1b 5f 3d
       0.010255196 0.012436154 -0.04911343 0.054469682
000360 78 7c 46 bd 1f 43 0d bd ff 42 5b bd 69 51 91 3c
       -0.048458546 -0.03448784 -0.05353069 0.017739015
000370 a6 56 3d bd 07 6a e8 3c 6c 19 25 bd d8 bf be bd
       -0.046225213 0.02837087 -0.040307447 -0.09313935
000380 0c 07 2f bd b2 ee e2 bc e2 27 9c 3d d5 97 9e bd
       -0.04273133 -0.02770171 0.076247945 -0.077438034
000390 f9 2a 32 3d c1 df 83 3d 3a c0 82 3c 13 ee 19 bd
       0.043498013 0.06439162 0.015960801 -0.03758056
0003a0 a9 bf aa 3d 1c ab 56 bd 47 ff 4a 3d 7a 06 95 3c
       0.083373375 -0.052409276 0.049559858 0.018191565
0003b0 f3 7a 80 3d 07 d5 e9 bb e1 02 73 bc c6 8a ce 3d
       0.06273451 -0.0071359905 -0.014832229 0.10085063
0003c0 f6 f9 1c bd 71 36 44 3d 30 2b 73 3d 60 c9 32 bd
       -0.03832432 0.047903482 0.05936736 -0.043649077
0003d0 c4 7e 67 bd 25 a7 b6 3d e9 db f6 3c cd f8 c1 3b
       -0.056517377 0.08918599 0.030134158 0.005919552
0003e0 71 27 b5 bd 37 f3 d2 bd ae 73 e6 bd a0 dd 43 3d
       -0.088454135 -0.10300296 -0.11252533 0.04781878
0003f0 dd cd af 3c bd 78 ad 3b 38 95 d5 3d 9e 62 e5 3c
       0.021460468 0.005293934 0.10428852 0.028001126

weight f4 [32]
000000 19 05 82 3f 26 d9 82 3f f4 8c 80 3f 66 7c 79 3f
       1.0157806 1.0222518 1.0043015 0.9745544
000010 44 a6 78 3f 1f 67 81 3f 76 b3 7d 3f ee 14 80 3f
       0.971287 1.0109595 0.9910196 1.0006387
000020 e4 8d 80 3f 06 15 7c 3f b5 b2 7d 3f 1e b7 80 3f
       1.0043302 0.9846958 0.9910081 1.0055883
000030 a3 99 7d 3f 10 90 7a 3f 49 83 7b 3f 4b 43 83 3f
       0.99062556 0.9787607 0.982472 1.0254911
000040 b5 ce 7e 3f f7 79 81 3f ac 03 81 3f e7 04 7b 3f
       0.9953416 1.0115346 1.0079246 0.98054355
000050 ca 65 82 3f d0 3e 81 3f 21 14 83 3f f0 69 7c 3f
       1.0187314 1.0097294 1.0240518 0.9859915
000060 24 11 7b 3f 4d 2a 7a 3f 54 1a 7f 3f 5d 8c 7f 3f
       0.9807303 0.97720796 0.9964955 0.9982355
000070 bb 8a 82 3f ef b1 80 3f b9 c4 81 3f ec fd 7f 3f
       1.0198587 1.0054301 1.013816 0.9999683

bias f4 [32]
000000 08 fc 0d 3d 2f 0f c7 bb 95 18 05 bb 64 28 0a bc
       0.034664184 -0.006074808 -0.0020308841 -0.008432481
000010 41 8e 78 bc c9 d5 f5 bb 96 8d 2b bc b3 fc fe 3c
       -0.015170635 -0.007502292 -0.010470768 0.031126356
000020 6e f9 3e bb 4d 36 3c ba 4f ba 7c bc 59 7d 2a 36
       -0.002914037 -0.00071797223 -0.015425279 2.5404936e-06
000030 06 af 4d bd 78 bf 43 bc b5 a3 d2 3a f8 74 9c 3c
       -0.050215743 -0.011947505 0.0016070517 0.019098744
000040 ad e3 81 3b 66 c1 1f bc 84 10 29 3b 48 40 70 bc
       0.0039639086 -0.0097507 0.0025797198 -0.014663763
000050 f5 f7 d3 3c 1f bb 27 bc 8a ad f9 bb 9d 2d 42 3b
       0.025875071 -0.010237484 -0.0076195644 0.0029629238
000060 86 bd a0 bc 06 66 41 bd 28 7f a4 3b 5b 49 af 3b
       -0.019621622 -0.047216438 0.005020041 0.005349321
000070 4f 1a e6 3c 5b 87 d4 3b 54 01 eb bb 83 63 22 bb
       0.028088717 0.006485862 -0.007171789 -0.0024778552

running_mean f4 [32]
000000 75 29 d1 3d db 80 1b 3e 07 fe bf 3a 27 f5 a3 3d
       0.102129854 0.15185873 0.001464785 0.080057435
000010 b7 e1 d8 3d 7a 3f c5 3d ec 41 5d bc 1f 64 09 3d
       0.10589927 0.09631248 -0.0135044865 0.03354275
000020 74 8b 39 3d bf ea 12 bd a3 14 ec bd 7b cf 41 bd
       0.04529901 -0.035868403 -0.11527374 -0.04731701
000030 a7 77 bc bd 8c 92 d5 bc 1c a1 ca 3d c3 e5 19 be
       -0.092025094 -0.026070856 0.098940104 -0.15029053
000040 32 6b 02 be ad b9 17 3d 21 a1 0f 3e 2f b4 af bc
       -0.12736204 0.03704231 0.1402631 -0.021448223
000050 ae 5b 6b 3d 37 aa 32 3c 81 cb 6e 3d a6 61 93 bd
       0.05746048 0.01090484 0.058299545 -0.07196359
000060 e0 f0 a5 bd 02 b2 9b 3d 24 36 a7 3d f3 68 44 3d
       -0.08102584 0.07602312 0.081646234 0.04795165
000070 e0 43 84 3e a8 45 72 3d c3 1d a8 3d e1 ee 93 bd
       0.25833035 0.05914846 0.082088016 -0.07223297

running_var f4 [32]
000000 03 60 c7 3e 9b ed 5c 3e 5e 10 55 3e c3 a7 3b 3e
       0.3894044 0.21575014 0.20807025 0.18325715
000010 00 cb da 3d c2 33 88 3e 02 ec 28 3e 5f 84 52 3e
       0.106832504 0.26601988 0.1649628 0.20558308
000020 96 5f 94 3e 67 e0 25 3e 7f 19 58 3e 3d 5a 6a 3e
       0.28979176 0.16198884 0.21103476 0.22885986
000030 4e 38 73 3e 55 f4 23 3e a8 a6 64 3e fb 1f 03 3f
       0.23751947 0.16011174 0.223292 0.51220673
000040 d2 38 1f 3e e6 64 3c 3e 7d 25 7b 3e 5f 88 22 3e
       0.15549019 0.18397865 0.2452602 0.15872334
000050 b5 07 89 3e a4 67 41 3e 7f 93 65 3e 58 25 5d 3e
       0.26763692 0.18887192 0.22419547 0.21596277
000060 02 1c e1 3d dc f5 2d 3e 04 c6 45 3e c2 ed 3d 3e
       0.1099167 0.16988319 0.19313818 0.18547729
000070 07 26 18 3f 7f 82 83 3e cc 1d 74 3e a0 c2 44 3e
       0.59433025 0.25685498 0.23839492 0.19214869

weight f4 [32, 32, 3]
000000 56 8b 13 3c 04 4c 0e 3d 07 9e 09 3d b6 fa b7 ba
       0.009005388 0.034740463 0.033597972 -0.001403651
000010 ed 8f 30 bd 9e a8 3c 3c fd 5b 7c bc 22 e5 98 3c
       -0.04310601 0.011514811 -0.015402791 0.018663947
000020 03 19 18 bd 4f db 8e bd 4f c0 16 bd 19 3c 8b 3d
       -0.037133228 -0.069754235 -0.036804494 0.06798572
000030 1a 84 2f bd f9 f3 23 bc d2 c4 70 bd cf 97 d0 3c
       -0.04285059 -0.010006898 -0.058781452 0.025463013
000040 1c ed 9f bd d0 1d b2 3d 75 e1 9c 3d 02 87 19 3d
       -0.07808897 0.086970925 0.0766019 0.03748227
000050 3f 26 34 bc 85 ed 49 bd 69 f6 17 3c 1a 8f 33 bd
       -0.010995447 -0.049298782 0.009275057 -0.043837644
000060 ac c9 73 bc a7 03 14 bd 48 72 73 3c 02 d4 c3 3b
       -0.014879625 -0.036136296 0.01485879 0.005976201
000070 bb ac 36 3c 1d 60 74 bd be e2 9b 3c 84 c3 29 bd
       0.011149581 -0.059661973 0.019029018 -0.041446224
000080 96 0b d1 3c 76 f0 1b bd 82 46 4c 3a d5 cb 9d 3d
       0.02551822 -0.03807112 0.0007792489 0.077048935
000090 2e fe c6 3d c9 e8 7f bd 7c f7 46 3d a6 fd ae bd
       0.0971645 -0.06247786 0.048575863 -0.08544473
0000a0 e3 d7 a7 3d fc 9b ce 3c 0e 8a 13 3c 87 8b c2 3d
       0.08195474 0.025220864 0.009005083 0.09499269
0000b0 de 62 48 bd c0 c2 b0 3d a6 b4 5c 3d 39 82 35 bd
       -0.048922412 0.086308956 0.053883217 -0.044313643
0000c0 fa b4 d4 bd 98 bd 64 3d 87 14 9f 3c 20 b5 04 bd
       -0.10386081 0.055844873 0.019418968 -0.032399297
0000d0 cc a8 38 3d e6 26 b3 3d e6 dd a3 3b 5f 81 0f bd
       0.045082852 0.08747654 0.0050008176 -0.035035487
0000e0 39 74 8f bd 0f ed d5 bc 62 96 3e bc 68 21 6b bd
       -0.070045896 -0.026114015 -0.011632534 -0.057404906
0000f0 2a 62 4b 3d 23 50 fe bc 44 e5 a0 bd 19 a9 a8 3d
       0.049654163 -0.031044072 -0.07856229 0.08235378
000100 21 e9 8b 3c 23 d4 5d 3c 8b e5 49 3d f8 a3 e5 bd
       0.017078938 0.013539347 0.049291175 -0.11212915
000110 33 c2 38 bd c8 e9 d3 bd 25 34 86 bb 28 44 89 bd
       -0.045107078 -0.103473246 -0.0040955716 -0.06702453
000120 a9 fa 83 3d b1 98 2e 3d 2a 96 0f bd 23 1d 03 3d
       0.06444294 0.042626087 -0.035055317 0.03201021
000130 71 2c 1e 3d 73 8b 2d 3d 59 8e 76 bd be 36 0e bd
       0.0386166 0.042369317 -0.060194347 -0.034720175
000140 5b 22 26 bc fc 24 b8 bd 1f 93 b1 3d bb 62 7b bc
       -0.010140027 -0.08991429 0.08670639 -0.015343363
000150 22 de e9 bd d6 a4 6f bc 04 f7 7e 3d 90 e6 3b bd
       -0.114193216 -0.014626702 0.06224729 -0.04587418
000160 81 ee 09 bd 8a a6 a2 bd ab 9f 94 bc 62 0e ea bc
       -0.03367472 -0.07941921 -0.018142542 -0.028571311
000170 bb 3f 91 bc 05 73 47 bd 80 1d 8b bd 11 92 64 bd
       -0.017730584 -0.048693676 -0.06792736 -0.055803362
000180 62 d5 95 bd 71 87 fa bc 3b 94 af 3d f5 94 00 be
       -0.0731609 -0.030582162 0.085731946 -0.12556823
000190 b7 9d 8f 3d c1 97 20 bd c5 29 be bd 8d ac 82 bc
       0.070125036 -0.039207224 -0.09285311 -0.01595142
0001a0 c0 18 b5 3d ef 97 61 3d cd 47 09 bd 0d 62 0a bd
       0.08842611 0.055076536 -0.03351574 -0.033784915
0001b0 48 0f 97 3d 7a ed 83 bc bc 2c 2b 3d 18 6c 84 3d
       0.073759615 -0.016104449 0.04179071 0.0646593
0001c0 de 18 ca bd 56 d8 03 3d 9f 0e 80 bd 52 77 6a bd
       -0.09868024 0.032188736 -0.06252789 -0.0572427
0001d0 e2 fb ab bb db 74 79 3d 37 e4 12 3d e0 26 8f bd
       -0.0052485326 0.060902458 0.035862174 -0.06989837
0001e0 96 19 c4 bb 5f 86 6f bd 41 91 4c 3d 4a af d3 bb
       -0.0059844954 -0.058477756 0.049943212 -0.006460105
0001f0 9e 72 70 ba 84 c3 ca 3a 7d 41 81 bd 29 d9 6e 3d
       -0.0009172353 0.0015469645 -0.06311319 0.05831257
000200 f4 8b 07 bd a8 07 4e 3d ef dd e9 bc 93 c4 e3 3c
       -0.033092454 0.05030027 -0.028548209 0.027803695
000210 4c 8e 2e 3c 06 c6 82 3c b8 79 49 ba 7f 39 7e 3d
       0.010654043 0.015963566 -0.0007685679 0.06206655
000220 3b cd 11 3d 52 88 6e bd 9e 17 6b 3d 7d 32 ae bd
       0.035596114 -0.058235474 0.05739557 -0.085057236
000230 ad 7a 2b 3d 33 1d 2d 3d b4 a7 b3 3d d4 6e 14 3c
       0.04186504 0.042264175 0.08772221 0.009059627
000240 46 f9 c3 3d d4 1b 8b 3c b2 97 72 3d 23 0e a2 3d
       0.095690295 0.016981043 0.0592267 0.079128526
000250 1b 14 c0 bc 86 84 62 3c 40 a8 ce bd 7b 44 82 bd
       -0.023447087 0.013825541 -0.10090685 -0.06360718
000260 3c 3a 2f bc c1 12 db bd ab c8 82 bd 0f 5c 69 3d
       -0.0106950365 -0.106969364 -0.06385931 0.05697256
000270 7e 68 a2 3a c1 e7 1c bc a7 cf bd bd f0 01 0d bb
       0.001239076 -0.009576739 -0.09268122 -0.0021516047
000280 b2 69 f7 bd f8 e0 4a 3d 82 e4 38 3d 0c 0a bb 3d
       -0.12080707 0.049530953 0.045139797 0.09132776
000290 e5 1e 49 bb 36 ff b6 bc 7f ca 84 bd d4 0d 61 bd
       -0.003068858 -0.022338491 -0.064839356 -0.05494483
0002a0 ad e7 40 3a b1 e4 a7 3d 62 58 d4 bd 5d 94 21 3c
       0.0007358741 0.08197916 -0.1036842 0.009862033
0002b0 9b 4d 93 3d 27 5a e4 bc 5a 08 2b 3d 11 3e d6 bd
       0.071925364 -0.02787502 0.04175601 -0.10461057
0002c0 6f 03 8b 3d 19 9e 28 bd 19 3c 9f bd 8e 51 c5 bd
       0.06787764 -0.0411664 -0.077751346 -0.09634696
0002d0 64 e3 0d 3d 85 05 cf bd 48 cc b2 bd e1 de 44 bd
       0.034640685 -0.10108475 -0.0873037 -0.048064116
0002e0 e6 0a 67 ba 7b 7f 96 bc ba 50 b6 bc 3c 0a c7 bc
       -0.00088135747 -0.018371334 -0.02225529 -0.024296872
0002f0 3f 68 09 3d 74 e1 2c 3d af 73 94 bd be c5 81 bd
       0.033546682 0.042207196 -0.072486274 -0.063365445
000300 05 ae 24 bd f7 e4 39 bc f2 73 04 3d 16 ac 40 bd
       -0.04020502 -0.011346093 0.032337137 -0.047039114
000310 de d2 c9 3b 1c 45 b4 bc 6c 43 01 bd d5 cd 14 bd
       0.0061591705 -0.02200561 -0.03155844 -0.03632911
000320 45 90 e2 bd f7 67 ca bd 0a 17 d6 3c c4 c7 9a bd
       -0.110626735 -0.09883111 0.026134033 -0.075576335
000330 a0 0a fb bc 86 b7 34 3c 2a 55 8e bd a5 5e 6e 3d
       -0.030644715 0.0110300835 -0.069498375 0.05819573
000340 aa 2c ca bd e2 dd 92 3d ab 68 02 bb 75 b2 43 bd
       -0.098718 0.07171227 -0.0019898813 -0.04777761
000350 6f f7 8f 3c a0 a8 d6 3c 86 e2 91 bd 35 9e a6 bd
       0.01757404 0.026203454 -0.07123284 -0.08135644
000360 0e 60 c8 bc 67 7e 92 3d dd 13 a6 3d 82 0e cf 3b
       -0.024459865 0.071530156 0.08109257 0.006318868
000370 a3 e0 b7 bd 86 e2 38 bd 51 da a3 bd 1d 7e 3f bc
       -0.08978393 -0.045137905 -0.08000625 -0.011687783
000380 0b 51 27 3c 6b 22 1b 3d 38 6b e1 3b c8 be 69 bd
       0.010212193 0.03787462 0.0068792365 -0.05706671
000390 59 7a 04 bd f1 f1 ae bd 74 03 ae bd 64 c9 4f bd
       -0.032343242 -0.085422404 -0.084967524 -0.05072917
0003a0 a2 92 ac 3d c2 29 da bd 9c 91 89 bd c1 bf b3 bd
       0.084264055 -0.10652496 -0.06717226 -0.087768085
0003b0 9e ad 49 bc bc db 67 3d 12 f4 82 3c ef ca 32 3d
       -0.01230946 0.05660604 0.015985522 0.043650564
0003c0 16 ff 05 3d 30 81 86 3d 4b ad a4 bd 6e 98 ef bd
       0.032713972 0.06567609 -0.080408655 -0.116989955
0003d0 64 48 e2 3c 1d 5f ac bd 9e f8 2d bc a6 83 ad bd
       0.02762241 -0.08416579 -0.010618357 -0.084723756
0003e0 db 63 d2 3c 47 22 08 bd 2e 43 f8 bc cc b6 3a 3d
       0.02568238 -0.033235814 -0.030305471 0.045584485
0003f0 05 17 cb bd d7 6b 41 3c e1 7f a6 3d da f6 95 3d
       -0.099165 0.011805496 0.0812986 0.07322474

weight f4 [32]
000000 5e e6 72 3f 6b a2 76 3f e8 81 7a 3f 0a 7c 74 3f
       0.9488276 0.9634158 0.9785447 0.9550177
000010 ed fb 76 3f 05 25 70 3f 80 7e 79 3f aa bf 6d 3f
       0.9647816 0.9380649 0.9745865 0.9287058
000020 f1 f8 76 3f 2e c0 77 3f dd 27 78 3f e7 7c 6d 3f
       0.96473604 0.9677762 0.96935827 0.9276871
000030 b9 f0 6e 3f 87 ca 76 3f 5b c9 78 3f c8 c1 7a 3f
       0.93336064 0.9640278 0.97182244 0.97951937
000040 84 2b 77 3f 19 cf 78 3f 66 76 78 3f 2d fd 78 3f
       0.96550775 0.97191006 0.9705566 0.97261316
000050 21 5b 76 3f c0 06 75 3f 2d 9f 72 3f e9 72 75 3f
       0.962328 0.95713425 0.9477413 0.95878464
000060 7f 6d 77 3f 9c 23 75 3f 8d a4 7b 3f 30 6f 78 3f
       0.9665145 0.9575746 0.9829796 0.9704466
000070 f6 2e 73 3f 0c da 7a 3f fb 4d 6f 3f 2f b8 76 3f
       0.9499353 0.97988963 0.93478364 0.9637479

bias f4 [32]
000000 70 0a 58 bc f8 68 90 bc 63 6d cf ba 25 5a cb bc
       -0.013186082 -0.017628178 -0.0015825446 -0.024823258
000010 95 76 ec bb 08 8c 06 bc 3b 76 56 bc 3d 2b ed bc
       -0.0072162845 -0.008212097 -0.013089712 -0.028951282
000020 00 4a d2 bc 1c 42 85 bc b4 54 99 bc e2 76 b7 bc
       -0.025670052 -0.016266875 -0.018717147 -0.022395555
000030 9a 05 95 bc 61 ff 82 bb c0 56 96 bc cc 82 f0 bb
       -0.018191148 -0.0039977287 -0.018351912 -0.007339811
000040 62 30 bb bc cc c8 62 bc 30 65 4e bc 73 81 20 bc
       -0.02285022 -0.013841819 -0.012597367 -0.009796488
000050 19 1f ab bc 45 6f 84 bc c8 70 d8 bb ca 5e 9d bc
       -0.020888852 -0.016166339 -0.0066052414 -0.019210238
000060 ea 5a 4f bc ad e7 1a bc 8a ef 47 bc 9c fc c6 bb
       -0.012655953 -0.00945465 -0.012203107 -0.006072594
000070 4e 7d 89 bc db b5 2a bc 2b a0 74 bc 80 43 54 bc
       -0.016783383 -0.010419334 -0.014930765 -0.012955546

running_mean f4 [32]
000000 6f 1d 95 be ea 49 93 be f7 28 36 bf c7 29 ea be
       -0.2912402 -0.2876733 -0.7115626 -0.45735
000010 3d 08 d7 3e fc b6 4f 3f 17 f2 00 bf 3e ef ea be
       0.41998473 0.81138587 -0.503694 -0.45885652
000020 62 6f 12 bf 34 48 8e bd cd e3 9b be c1 94 4f 3f
       -0.57201207 -0.069473654 -0.30447236 0.81086355
000030 1d 19 2b bf 1e 79 8c 3e d3 99 ad be 34 36 f2 be
       -0.66835195 0.27436155 -0.3390642 -0.4730698
000040 ec 9d c3 be 4b ce 44 3c a6 cf d3 be cc 30 15 bf
       -0.38206422 0.012012075 -0.4136936 -0.58277583
000050 62 69 2b bf c1 de 1a 3f 29 bc 97 3e a4 75 15 be
       -0.66957676 0.60496145 0.29635742 -0.14595658
000060 7a 15 c2 be 0a ee c0 3e 3e 98 b7 be d8 fb 2f 3f
       -0.3790701 0.3768161 -0.3585834 0.6874366
000070 d1 94 0b bf c6 3b fa be cb a2 32 3f 65 26 c5 be
       -0.5452395 -0.4887373 0.6977965 -0.38505855

running_var f4 [32]
000000 91 8a 11 3f b3 c0 24 3f b1 c5 c0 3f 75 fa 40 3f
       0.5685206 0.64356536 1.5060331 0.7538217
000010 45 c9 69 3f 0d c4 56 40 ab 34 0b 40 2a a1 cb 3e
       0.9132274 3.355716 2.1750896 0.39771396
000020 b4 e1 aa 3f 76 51 7b 3e df 8c 8e 3f c5 23 15 40
       1.3350129 0.24542794 1.113674 2.3303082
000030 51 a2 05 40 fa 1e 76 3f 87 5b 3d 3f 23 3e e0 3e
       2.088032 0.96141016 0.73967785 0.43797407
000040 f0 c4 80 3f 97 cb 55 3f 11 6b 75 3f 43 7c c2 3f
       1.00601 0.8351378 0.95866495 1.5194172
000050 66 79 ce 3f a2 f7 c6 3f 48 c0 b0 3f 85 14 c4 3e
       1.6130798 1.5544322 1.380868 0.38296905
000060 a1 1d 00 3f db 3e 39 3f d6 e1 7b 3f c9 5d 22 40
       0.5004521 0.72361535 0.98391473 2.5369742
000070 54 a8 9e 3f f0 1b 43 3f e5 e4 08 40 96 7c a1 3f
       1.239512 0.76214504 2.1389706 1.2616146

weight f4 [128, 160]
000000 e7 a7 f0 bc c9 78 86 3a 10 52 17 3d 65 b4 39 bd
       -0.029376937 0.0010259385 0.036943495 -0.045338053
000010 9d 06 65 3d 6a df 10 ba 90 49 7c 3d 9b 8b a7 3b
       0.05591451 -0.00055264554 0.061593592 0.005113078
000020 54 95 1b 3d c1 65 f5 3c 04 fb 24 bd 3f c1 2a 3c
       0.037984207 0.029955747 -0.04027845 0.01042205
000030 40 5b 8e bd c2 34 2f 3b 06 42 58 bd 30 a8 85 3d
       -0.06950998 0.0026734327 -0.05279734 0.0652622
000040 c6 6c c5 3c 6f 25 3c b8 3b 1a 49 3d de b2 d9 3c
       0.024099719 -4.4857556e-05 0.04909728 0.026574548
000050 33 d4 a4 3c f6 c5 95 3d 6d 2e 98 3d 85 0b 87 3d
       0.020120716 0.07313149 0.0743073 0.06593994
000060 ce bb cb bc 96 d4 20 bd 51 5c a3 bd 87 fa 57 3b
       -0.024869826 -0.039265238 -0.07976592 0.0032955722
000070 89 58 64 bc cb 9c 14 3d 4f d9 47 3d 51 0a 9d 3a
       -0.013937124 0.036282342 0.048791226 0.0011981224
000080 7f 50 b7 bc 75 04 ba bc 59 7d cc 3c 0c d4 28 3d
       -0.02237725 -0.022707203 0.024962114 0.04121785
000090 58 ca 06 3d 67 55 f0 bc fe 23 36 3c 70 bd 31 bd
       0.032907814 -0.029337598 0.01111698 -0.043393552
0000a0 c2 b9 14 3d 30 19 8f bd 79 96 0b 3d 3b f1 16 bb
       0.036309965 -0.06987226 0.03407905 -0.0023031968
0000b0 b0 09 ae bd 0a 38 91 3c c6 91 7c bd 2e 7f 9e bc
       -0.084979415 0.017726917 -0.061662458 -0.019347753
0000c0 e1 42 8f 3d 5f 42 9d 3d 34 e0 8d bd 51 3f a9 3d
       0.06995178 0.07678675 -0.06927529 0.0826403
0000d0 4f 44 a4 bc 62 b7 fc 3b 24 c6 f1 3c 1d a7 51 3d
       -0.020052103 0.0077122906 0.029513426 0.051184762
0000e0 b1 d1 80 bd 00 39 87 bd db 29 0d bc 3e 3e cc bc
       -0.062899955 -0.06602669 -0.008615936 -0.024932023
0000f0 6f 1c 9a 3d c1 fc 92 3d fb 0a 7a 3c 0d 81 9c bd
       0.075249545 0.07177115 0.015261407 -0.07641802
000100 35 5a 5a 3d 72 a5 a0 3c 38 7a 32 3d 13 ae 07 3d
       0.053308684 0.01961014 0.043573588 0.033124994
000110 fe 4e d5 3c f5 10 39 3d b3 c0 48 bd 39 da 2e bd
       0.026038643 0.045182187 -0.049011897 -0.042688582
000120 b9 aa 7e 3d 6a 3e 80 3d 52 77 8c bd 46 aa e6 3c
       0.062174533 0.062619045 -0.06858696 0.028157365
000130 96 13 ab bc 8a 90 e0 bc 85 f3 6d 3c 03 e1 3c bd
       -0.020883363 -0.027412672 0.014523392 -0.046113025
000140 34 2e 1a bc cc bc 30 3b a9 70 2e 3d ea 5e 21 3d
       -0.00941043 0.0026968 0.04258791 0.039397158
000150 1d 7a 86 bd c6 40 4f 3d 39 a2 da bb 19 29 d7 bc
       -0.0656626 0.050598882 -0.0066721705 -0.026264714
000160 cb 2e 15 bd 4d c6 16 3d de f8 0d 3c cb 70 8a bd
       -0.03642158 0.036810208 0.008665292 -0.06759795
000170 76 69 2c bc 8e 6a 05 bd f5 d0 70 bd f9 d0 c2 3b
       -0.010523191 -0.03257232 -0.058793027 0.0059453216
000180 48 61 a5 ba 98 1a 99 bd 4e c8 5e 3c b0 a9 aa bb
       -0.0012617493 -0.074757755 0.013597561 -0.0052082166
000190 c3 8c 8d bc f7 a3 88 3d 24 5b 4a bc a8 3d f3 3c
       -0.017279034 0.06671899 -0.012350831 0.029692486
0001a0 be 92 2c 3d 81 3a b6 3c 60 e5 e0 bc 4c fe 4b bd
       0.04213213 0.022244694 -0.027453125 -0.049803063
0001b0 cf d3 29 3c 14 54 94 3d 49 d9 bc bc 7d 03 42 3d
       0.0103654405 0.07242599 -0.023052828 0.047366608
0001c0 04 84 82 bd d8 5f 6b 3d 0c e6 7f bd 70 04 95 3c
       -0.06372836 0.05746445 -0.06247525 0.018190593
0001d0 f3 4b 55 3d 12 57 a6 3d a5 53 22 3d 62 58 2b ba
       0.052074384 0.08122076 0.03963055 -0.00065363024
0001e0 de 3f d4 bc 81 d0 5f 3d bc 93 6e bd ce 50 90 3d
       -0.02590936 0.054642204 -0.05824636 0.07046662
0001f0 eb c6 23 bd 2c d9 7b 3d 5d 71 1f 3d e8 97 93 3d
       -0.039984625 0.061486408 0.03892647 0.07206708
000200 3a 03 06 bd c2 c2 97 bd d9 e7 ba 3c c9 ee 12 bd
       -0.03271792 -0.07410194 0.022815632 -0.035872255
000210 af fb 30 3d a3 06 7f bb a4 83 66 bd 89 8e 71 3c
       0.043208774 -0.0038913868 -0.056277886 0.014743456
000220 b7 5c 73 3d 5f 7d 8e bd 9d a8 05 3d c3 78 1b 3d
       0.05941459 -0.069575064 0.032631505 0.037956964
000230 c8 fa 89 bd de 4c 3f 3b dd 8f f4 3b 88 7a 9f bd
       -0.06737286 0.0029190104 0.007463439 -0.07787043
000240 67 f6 98 3d d8 69 02 3d e8 26 7a bd d8 bf 28 3d
       0.074688725 0.03183922 -0.06107226 0.04119858
000250 d9 f6 0e 3c 4e b6 38 bd 08 ec 94 bd 64 42 57 3d
       0.008725845 -0.045095734 -0.07271582 0.05255355
000260 64 77 28 bc 90 e7 68 bd 59 33 af 3c 6b d1 3d bd
       -0.010282371 -0.05686146 0.02138679 -0.046342295
000270 5b 8c 0c 3d e8 4b a2 bc 61 f9 47 3d 8f 9c 65 bd
       0.03431354 -0.019811586 0.04882181 -0.05605751
000280 da 86 aa 3d 79 97 5f bd cc b1 00 3b 92 7d 5d bd
       0.08326502 -0.054587815 0.0019637225 -0.05407483
000290 68 96 43 bd f4 8f 0a 3d cb a6 d1 bc ba e4 c5 3b
       -0.04775086 0.03382869 -0.025592228 0.006039229
0002a0 46 1e 2c bd 00 c5 30 3c 32 b1 79 bd aa 7e 57 3d
       -0.04202106 0.010789156 -0.060960002 0.05261103
0002b0 42 c4 25 3d 87 5d 84 3d 19 05 16 bc 09 f3 d0 bc
       0.04047037 0.064631514 -0.009156489 -0.025506513
0002c0 2c f6 4d bd e0 f9 02 bc 2d 76 0f bd 34 af 60 3d
       -0.050283596 -0.007994145 -0.03502481 0.054854587
0002d0 d0 b3 a3 bd 54 21 a0 bd c7 a7 42 3b fd c5 e1 bc
       -0.07993281 -0.07818857 0.0029702054 -0.027560228
0002e0 08 3c a3 3c c2 5c f5 b9 bc 48 fa bc 84 1a 4c bd
       0.019926086 -0.00046799151 -0.03055226 -0.049829975
0002f0 66 46 b1 bd 40 39 a3 bd bb b7 bd bc 9a 03 73 bd
       -0.086560056 -0.07969904 -0.023158899 -0.059329607
000300 d2 55 cd bc 63 e0 88 3d ab f5 6e 3d 7d c4 27 3d
       -0.025065336 0.06683423 0.058339756 0.04095887
000310 27 9b ce bc 52 95 48 bc 58 6d 47 bd 73 bc d5 bc
       -0.025220467 -0.012242632 -0.048688263 -0.026090836
000320 7f fc 1a bd e0 1c 83 3d d4 6d 97 3c 46 47 51 bd
       -0.037838455 0.06401992 0.018484987 -0.051093362
000330 fe 7a 53 3d 85 35 8c bd b3 d2 15 3d e9 57 36 3d
       0.051630966 -0.068461455 0.03657789 0.04451743
000340 6f 49 4b bd b4 e6 90 3c 29 1d 4f bd 8a c4 e2 bc
       -0.04963058 0.017688133 -0.05056492 -0.027681608
000350 87 bc 94 3d 30 fa 47 3d e0 f1 9d bd 58 e0 fa 3c
       0.07262521 0.04882258 -0.077121496 0.030624554
000360 2e 74 1e 39 3b 28 00 3c 74 b0 21 3d 60 8e 21 3d
       0.00015111335 0.007822092 0.03947492 0.03944242
000370 69 43 33 3c d5 6a 57 3c 58 6b c0 3d d5 5c eb bc
       0.010941365 0.013148029 0.09395474 -0.02873079
000380 c6 bd 96 bd 8a a3 96 bc 11 19 91 bc 9f 0e 05 bd
       -0.07360415 -0.018388528 -0.017712148 -0.032484647
000390 dd d5 3f 3d c0 78 3a 3d 58 ce 86 3d 19 69 22 bd
       0.046834815 0.045525312 0.06582326 -0.03965101
0003a0 01 6c a0 3b ad 29 af bc 95 5b 6a bd 24 e0 a5 3c
       0.0048956876 -0.021382177 -0.057216246 0.02024848
0003b0 e2 65 d9 3c e7 6e 0c 3d 70 36 9b 3d 01 cf 51 3d
       0.02653784 0.034285452 0.075787425 0.051222805
0003c0 81 7a 65 3d 45 e7 5b bd 92 76 fc bc ee 94 59 b9
       0.056025032 -0.053687353 -0.030818257 -0.00020750213
0003d0 6d 3d 89 3d f2 ac a3 3d 05 5c 30 bd 2a 02 2f 3d
       0.06701169 0.07991971 -0.043056507 0.042726673
0003e0 95 f2 85 3d df ec d4 3c 96 d2 6b bd 4b 01 cf bb
       0.065404095 0.025991855 -0.057573877 -0.006317293
0003f0 ba 1b 0d 3d 22 09 57 bd 9f fe 3a 3d 3f c7 ae bc
       0.03445027 -0.052498944 0.04565298 -0.021335242

bias f4 [128]
000000 34 e9 d0 bc 3b e3 3c 3d 9a 57 d1 bc 27 33 4a bd
       -0.025501825 0.04611514 -0.025554467 -0.04936519
000010 53 a0 90 3c 52 50 67 3d a3 67 f1 bb ab dd 18 bc
       0.017654574 0.056473084 -0.007367091 -0.0093301935
000020 b1 ff 55 bc ed d9 86 bd 0f 27 de 3c ae d5 07 3c
       -0.01306145 -0.06584535 0.027118234 0.008290691
000030 56 ca a9 3c 92 db 60 bc 5c e2 4c 3c 8f 3f c6 bc
       0.020726364 -0.013724225 0.01250514 -0.024200229
000040 07 d6 8a bc 80 e9 42 3a 94 9f 64 3d e9 ae 5d bd
       -0.01694776 0.0007435307 0.055816248 -0.054121885
000050 20 a1 84 ba e0 6c 5c 3c 89 36 75 bd 16 0f 38 bd
       -0.001011882 0.013453692 -0.059866462 -0.044936262
000060 0d 45 84 bd 74 cc 4c bd 64 10 2f bd d2 d9 38 bc
       -0.06458483 -0.04999967 -0.04274024 -0.011282401
000070 ee 59 47 3c 3a 4b 19 3d 53 44 78 3d 27 49 7a bd
       0.012167437 0.037425257 0.060612034 -0.06110492
000080 fa 31 a1 bc 83 19 2a bd 34 69 92 bd 6a 36 01 bd
       -0.019677151 -0.041528236 -0.07148972 -0.031546034
000090 7b 60 70 bd 83 b1 eb 3c 6a 10 41 bd eb e5 50 3b
       -0.05868576 0.028771168 -0.047134794 0.0031875323
0000a0 d5 c4 80 bd 13 ed 4a 3d 68 9f 9a 3d de 3b 08 bd
       -0.06287543 0.049542498 0.075499356 -0.03326022
0000b0 fe 03 82 bd 69 b2 b3 b9 d7 5f 0d 3c c0 26 73 3d
       -0.06348418 -0.00034274466 0.008628807 0.059363127
0000c0 3f 39 57 3d 99 a4 c6 bc c8 50 38 bc aa df 8b 3d
       0.05254483 -0.024248408 -0.0112497285 0.0682977
0000d0 dd af 61 3d c2 b3 45 3d 88 d3 2d 3d 60 4e 7a 3a
       0.055099357 0.048267134 0.04243806 0.0009548422
0000e0 ee c5 8f bb e5 a6 95 3c a7 6d 99 bc 79 84 80 3c
       -0.0043876087 0.018268058 -0.018729044 0.015688168
0000f0 05 b7 90 3d ae 43 48 bd 19 25 96 bc 18 37 17 3d
       0.07066158 -0.04889267 -0.018328236 0.036917776
000100 39 27 8e 3d 82 57 ab 3c 9a ac da bc af 22 36 3d
       0.06941075 0.02091575 -0.026693631 0.04446667
000110 db 29 77 3d 3a 06 2f 3d c5 53 9c 3d 14 56 86 3d
       0.06034265 0.042730547 0.07633165 0.06559387
000120 3d 7f 0f bd 0d 28 94 3d b3 69 f2 bb b3 6a 84 bd
       -0.035033453 0.072342016 -0.0073978542 -0.06465664
000130 e1 ba 34 bd 90 10 b3 3c 58 0c 12 bd 01 d0 aa 3c
       -0.044123534 0.021858484 -0.035656303 0.020851137
000140 df 6a 6e 3d d4 18 54 3d a1 d6 61 bc c3 4f 8a 3b
       0.05820739 0.05178149 -0.013784082 0.004220934
000150 f7 b6 0d bd 0f 46 3d bd f6 e1 85 3a 28 c8 05 bd
       -0.034598317 -0.04620939 0.0010214436 -0.032661587
000160 a8 15 8e 3d b4 93 dd bc ea f5 d8 bc 71 13 89 3d
       0.06937724 -0.02704797 -0.026484448 0.06693161
000170 b8 fe 0e bd ce fb 1c bc 31 4f 28 3b 5f 9e 85 bd
       -0.034910887 -0.009581519 0.0025681967 -0.065243475
000180 23 cb 19 3d 00 27 9d ba 74 32 08 bd 58 28 eb bc
       0.037547242 -0.0011989772 -0.03325124 -0.02870576
000190 3b e6 14 3d d7 43 69 bb d6 74 90 3d fa 58 d3 bc
       0.036352377 -0.0035593414 0.07053535 -0.025799263
0001a0 54 56 78 3d 8d ea 09 bd b5 97 5b 3d ca 40 3a bd
       0.060629204 -0.03367095 0.053611476 -0.045471944
0001b0 ab 54 fe bc 53 35 20 3d 68 a8 04 bb e0 aa e1 bc
       -0.031046232 0.039113354 -0.002024198 -0.0275473
0001c0 39 08 ab bc ea 6a 0f bc 51 54 44 bc c1 74 ee 3c
       -0.020877944 -0.008753518 -0.011982993 0.029108407
0001d0 51 51 d8 bb c5 88 d6 3c bc 6d 7e 3d fa 21 6b 3d
       -0.0066014905 0.026188264 0.06211637 0.05740545
0001e0 d2 6c 9a bd 9b bc 83 bd 28 b6 85 3c c0 1d b5 39
       -0.07540287 -0.06432458 0.01632221 0.00034545176
0001f0 07 ef 7b bc 69 75 de 3c 69 52 90 3b 95 af a1 bc
       -0.015376813 0.027155595 0.0044043553 -0.019737044

weight f4 [128, 128]
000000 6a b1 c1 3c 28 e8 d0 3c e9 6d 9d bd 50 74 66 bd
       0.023644168 0.025501326 -0.07686979 -0.056263268
000010 05 f9 fa 3c f6 fc 6e bd 53 c2 9c 3c 85 84 54 3d
       0.03063632 -0.05834671 0.01913563 0.051884193
000020 ca 06 5f bc fd c1 09 bd f3 18 0c bd 4c 4b ba bd
       -0.0136124585 -0.033632267 -0.03420348 -0.09096393
000030 4b d3 42 bd 26 ec 37 bd e7 8b 7a bd b7 7e 9a 3d
       -0.047564786 -0.044902943 -0.061168578 0.075437
000040 3d 64 91 3d cb f3 29 bd 9a 9e 68 3d fc a9 98 3a
       0.07099197 -0.041492265 0.05679188 0.0011647339
000050 09 5f aa 3d 00 01 e5 bc 32 09 6a 3d 8b eb 95 bd
       0.08318908 -0.027954578 0.057137676 -0.07320317
000060 d4 3f 09 bd ba b9 44 3d d4 76 52 3d 37 6f 7e 3c
       -0.033508137 0.048028685 0.051382855 0.015529445
000070 cf 40 36 bd 87 9f 01 3d 29 b6 31 3d 0e e0 d7 bc
       -0.0444954 0.031646278 0.043386612 -0.026351955
000080 e2 ac 7e 3c 8a 8f 1f b9 a0 7d 3f 3c c4 65 db bc
       0.015544148 -0.00015216894 0.011687666 -0.026781924
000090 92 12 97 bd 31 17 9d bc da d9 0d bc c1 7e 97 bd
       -0.07376589 -0.019176098 -0.008657897 -0.07397223
0000a0 fc bd fa bc d7 65 9b bd 66 8b a8 3c d8 65 10 bd
       -0.03060817 -0.07587784 0.020574283 -0.035253376
0000b0 ad e8 a6 bc 6b 27 62 3d 98 c5 b6 bd 2f d3 23 3d
       -0.02037462 0.055213373 -0.08924407 0.039996322
0000c0 b4 f5 61 3d 57 e3 a3 bd 09 c3 e4 ba 4b 1a 71 bb
       0.05516596 -0.08002346 -0.0017453145 -0.0036789353
0000d0 8c bb fe 3b da 72 1f 3d c9 e7 b4 bc 1c 08 19 3d
       0.007773822 0.03892789 -0.02208318 0.03736125
0000e0 9f 6a 2d 3c c3 2c 81 3c 1e 78 63 3c a5 19 12 bd
       0.0105845025 0.015768414 0.013883619 -0.035668988
0000f0 39 d9 8e 3c b4 dd ed 3b 91 71 fe 3b a1 02 2a 3d
       0.017437564 0.007259095 0.007765003 0.041506413
000100 9f 52 b1 3c 7a 17 ab b9 b9 23 83 3d 0b ee 42 bd
       0.021645842 -0.00032633153 0.06403298 -0.047590297
000110 23 5d 23 3d 51 5b 33 bd 3d 6e bb 3c 93 e3 89 3d
       0.039883744 -0.043788258 0.022879714 0.067328595
000120 1e 7a 96 bc be f3 ab bc 8b d8 96 bb 9e 8d 52 3b
       -0.018368777 -0.020990249 -0.0046034507 0.0032127867
000130 7d 38 69 bd 2e 78 6d 3d 91 7a 78 3c ea 3c 8b 3d
       -0.056938637 0.05797594 0.015165941 0.06798728
000140 0a 66 86 3c 9f 60 7c bd 57 bb c1 3d 02 c3 26 3b
       0.016406078 -0.061615583 0.0945956 0.0025445824
000150 e8 57 28 3d ef 2a 1c bd 02 d9 43 3c 66 f9 00 bd
       0.04109946 -0.038126882 0.011953594 -0.031487845
000160 c8 b2 5e bd 0e 86 27 bc f7 cf 38 bb c5 4d e0 3a
       -0.054369718 -0.010224832 -0.0028200129 0.0017113021
000170 38 ae be bd 08 2d 98 bd 00 74 28 bd c4 ce 5e 3d
       -0.09310573 -0.07430464 -0.04112625 0.054396406
000180 32 1d 41 bd 38 c0 6f bc f3 b4 0e 3d 0f b6 c1 3c
       -0.047146983 -0.014633231 0.034840535 0.023646383
000190 54 15 b6 3d 9a 71 f8 bc 60 08 78 bc 3d 33 26 3d
       0.08890787 -0.030327607 -0.0151387155 0.04057621
0001a0 4d 8b 8f bd 50 53 b7 3b e7 bf 32 3d 24 63 4e bd
       -0.070089914 0.0055946484 0.043640044 -0.050387517
0001b0 33 b3 b5 bc 1c 4e 60 3d 63 3e 77 3d fd c1 7a bb
       -0.022180175 0.05476199 0.06036223 -0.0038262599
0001c0 98 76 83 bd f6 7d 41 3d 19 34 ea bc c9 ce 94 bb
       -0.06419104 0.047239266 -0.028589295 -0.0045412523
0001d0 93 74 8f 3d fd 21 95 bd 62 22 1c 3c c9 e4 4a 3d
       0.07004657 -0.072818734 0.009529682 0.049534593
0001e0 ce f4 fd 3b 2b 01 1b bd 59 ba a1 3c 4c d5 c5 3a
       0.0077501303 -0.03784291 0.019742178 0.0015093475
0001f0 f9 60 b2 3d 61 90 30 3d 9f 54 9e bd e2 f7 ad 3d
       0.08709902 0.04310644 -0.07730984 0.084945455
000200 39 b2 72 3c 0b 8b 81 3d b3 5d c8 bc 8c 0c 32 bd
       0.014812999 0.063253485 -0.024458742 -0.043468997
000210 f0 9f 23 bd a0 6b ca 3d 1d 4c 15 bd e6 38 93 3c
       -0.03994745 0.09883809 -0.03644954 0.017971467
000220 16 64 91 3c 46 59 99 bd 44 dd b7 3c 54 d3 14 bc
       0.01774792 -0.07487731 0.022444375 -0.009083588
000230 42 2e 9f bd 39 6f 3f 3d 80 15 87 3d db 3e 0a 3d
       -0.07772495 0.04673693 0.06595898 0.03375135
000240 e7 d1 72 bc 65 c1 53 3d 95 f3 8a 3d dc ac 17 3c
       -0.014820552 0.051698107 0.06784741 0.0092575215
000250 f8 37 1f bd 65 2a 03 3d 79 ac 42 3d bf 3d b2 bd
       -0.038871735 0.032022852 0.047527764 -0.087031834
000260 a1 c3 0c bd 84 6b 5f 3c 06 0b 6f 3c 98 f5 de 3c
       -0.034366254 0.013636474 0.014590031 0.027216718
000270 f3 e4 15 bd 97 8c 1b bd 90 fe a6 bd 1b fa 42 3c
       -0.036595296 -0.037975874 -0.08154023 0.01190045
000280 fe 3d 91 3b 41 8e b9 bd 2f 3c 63 3b cb 08 1d 3b
       0.004432439 -0.09060336 0.0034673323 0.002396154
000290 78 43 9a bd ac 15 57 3d 3a e3 b9 bd b9 ea 8a bd
       -0.075324 0.052510902 -0.09076543 -0.06783051
0002a0 24 68 a6 bc 6e 36 96 bd a4 42 ac bd 3a 53 80 bc
       -0.02031333 -0.073346004 -0.08411148 -0.015664686
0002b0 11 85 86 bd b6 c0 da bc ea a8 8f 3d 5c 24 84 3d
       -0.06568349 -0.02670322 0.0701464 0.064522475
0002c0 ff ce 95 3d 2e 6a 13 3d 48 f4 58 bd 3d 88 b3 3c
       0.07314872 0.035989933 -0.05296734 0.02191555
0002d0 78 8f 3f 3c 45 c8 1a bc cb c1 ce bb 86 23 bf bc
       0.01169192 -0.009447162 -0.006309723 -0.023332369
0002e0 17 2e 0c bd 8d a6 3b bd bd 5b 9f 3b bd 20 95 bd
       -0.034223642 -0.045813132 0.004863231 -0.07281635
0002f0 4f 40 30 3d 31 03 1d 3d 1b 1b 29 3d 79 9e a2 bd
       0.04303008 0.03833312 0.041285615 -0.079403825
000300 db bd ca 3d 23 83 80 bd e8 e2 24 3d 27 9b c0 3c
       0.09899493 -0.06275012 0.040255457 0.023511482
000310 57 bd de bb 08 82 b7 3d 75 ed 35 bd 52 4a 32 3b
       -0.0067974734 0.08960348 -0.04441591 0.0027204943
000320 8a 17 b4 3d fa df 19 3c 82 38 23 bd 4c 15 8c 3d
       0.08793552 0.009391779 -0.039848812 0.068399996
000330 d5 ae e1 3c 95 4c d8 3c 75 72 5e bd 60 9f b9 bc
       0.027549187 0.026403705 -0.054308373 -0.022659004
000340 05 85 95 bd 78 23 8d 3d 91 71 b6 3c e5 cd b8 3a
       -0.07300762 0.06891531 0.02227095 0.0014099447
000350 d6 d5 80 bc 70 92 08 bb 36 bb 29 bd 95 c5 c4 3d
       -0.015726965 -0.0020839237 -0.041438304 0.09607998
000360 38 db 92 bd ab 9f 84 bd eb 89 92 3d cd 4e 15 bd
       -0.07170719 -0.06475767 0.07155212 -0.036452103
000370 b6 48 c9 bc c6 58 27 3c 02 8e 0a 3d 8b 46 87 3d
       -0.024570804 0.010214036 0.033826835 0.06605252
000380 13 7e 32 bc f2 65 50 3d ae fb 55 bd ae ac 3e bd
       -0.010894316 0.050878473 -0.052241974 -0.0465514
000390 ab d7 99 3d 34 9a 9e bd 5c 10 59 bd c5 cc a0 bc
       0.075118385 -0.07744256 -0.052994117 -0.019628892
0003a0 a9 8e c7 3c aa 9e 25 3d cb 50 3a 3d 67 d2 8d 3d
       0.024360018 0.040434517 0.045487206 0.06924897
0003b0 7d fa b4 3c 52 29 89 bd 3f ef 03 bd 27 dc 4b bd
       0.022092098 -0.06697334 -0.032210585 -0.0497705
0003c0 35 12 5c 3d 97 e6 4e 3d 68 0f 27 bc 72 f4 df bc
       0.0537283 0.050512876 -0.010196544 -0.02733824
0003d0 a5 f6 ad 3d 26 20 51 bd b3 a9 ae 3d 10 51 48 bd
       0.08494309 -0.05105605 0.08528461 -0.048905432
0003e0 5f f5 56 bc 2f 26 75 bd 6c db 99 bd a6 a5 41 bd
       -0.013120024 -0.059850868 -0.075125545 -0.047277115
0003f0 e8 2f 73 3d 7f 7e b2 bd 79 f5 5f 3d f8 89 1b bd
       0.05937186 -0.087155335 0.05467746 -0.037973374
