model/backups/charCNN-uniform.pt (torch, 526158 bytes, 20 tensors)

weight f4 [64, 27, 7]
0	0x3d71620e	0.058931403
1	0xbc8ed092	-0.017433438
2	0x3b802570	0.003910713
3	0xbcf24520	-0.029573977
4	0xbba2b810	-0.0049657896
5	0xbcc9e958	-0.0246474
6	0x3af19340	0.0018430725
7	0x3d156ea5	0.036482472
8	0x3c698ecb	0.014255236
9	0xbcfb5cf1	-0.030683966
10	0x3d8e4e29	0.069485016
11	0x3b002568	0.0019553546
12	0xbd6ce5e3	-0.057836425
13	0x3c7b384b	0.0153332455
14	0x3d35e19f	0.044404622
15	0xbcf39ca6	-0.029737782
16	0x3d396e09	0.045270953
17	0x3cdf1388	0.027230993
18	0x3d47da59	0.048792217
19	0xbd595520	-0.053059697
20	0xbd80b320	-0.062841654
21	0x3d79aafa	0.06095407
22	0x3c642901	0.013925792
23	0xbd90702d	-0.07052646
24	0xbd8681ab	-0.06567701
25	0x3d3170e7	0.043320563
26	0x3ce4bafc	0.027921192
27	0x3d49d1e4	0.049272433
28	0x3ae52a18	0.0017483858
29	0xbc958b89	-0.018255012
30	0x3cb378fa	0.021908272
31	0x3c9be04c	0.019027852
32	0x3d86f7b1	0.06590212
33	0xbd3af225	-0.045641083
34	0xbc63b854	-0.013898928
35	0x3d3d1479	0.046162102
36	0x3d8bf5df	0.068340056
37	0xbc587866	-0.013212299
38	0xbb59f238	-0.0033255946
39	0x3d8450b6	0.06460707
40	0xbd5c5dc8	-0.053800374
41	0xbc5ca61a	-0.013467336
42	0x3d52bf6c	0.051452085
43	0x3cc5019d	0.02404862
44	0xbce7f040	-0.028312802
45	0xbc126b25	-0.008936678
46	0x3d98e9f4	0.07466498
47	0xbd1be762	-0.03806246
48	0xbd47fad7	-0.048823204
49	0x3c8a4b6d	0.016881669
50	0xbd6fa494	-0.058506563
51	0x3beb60ae	0.007183156
52	0xbd1e6f22	-0.038680203
53	0x3afa76a3	0.0019108843
54	0x3be64f76	0.0070285155
55	0x3d470af8	0.048594445
56	0x3d961526	0.073282525
57	0xbd16cbe5	-0.036815543
58	0xbcb905da	-0.022585798
59	0xbd57dd98	-0.052701563
60	0x3ca4250a	0.020037193
61	0x3c6b743f	0.014370977
62	0x3c567a6e	0.013090713
63	0xbd5767e9	-0.05258933
64	0xbd69c316	-0.057070814
65	0x3d2da9d6	0.042398296
66	0xbd0e224e	-0.034700684
67	0x3d42eaef	0.04758733
68	0x3cc29cb4	0.023756362
69	0xbc2e0b13	-0.0106227575
70	0x3c428c82	0.01187432
71	0x3d7ba9ef	0.06144136
72	0xbd90a9b1	-0.07063616
73	0xbc571d08	-0.01312948
74	0x3d6cef8a	0.05784563
75	0xbd919459	-0.07108373
76	0x3d0b62bd	0.03402971
77	0xbb211a03	-0.0024582155
78	0x3b65d390	0.0035068728
79	0x3d78ddc7	0.06075838
80	0xbd7dd4f7	-0.061970677
81	0xbd2fe1b8	-0.04293987
82	0x3d00c8c2	0.031441458
83	0xbc9249e3	-0.017857498
84	0x3ceba059	0.028762983
85	0xbd8659f7	-0.06560128
86	0xbd3c313d	-0.045945395
87	0x3d0181d3	0.03161795
88	0x3d4c1ac3	0.04983021
89	0x3d4fc530	0.050725162
90	0x3d7e311d	0.062058557
91	0x3a4deb3f	0.0007855184
92	0xbc91625a	-0.017747093
93	0xbc53710f	-0.012905373
94	0xbd53abd9	-0.05167756
95	0xbb52a000	-0.0032138824
96	0x3d39a8a4	0.045326844
97	0x3cc7be17	0.024382634
98	0xbd4ebbb8	-0.05047199
99	0x3d0ce47f	0.0343976
100	0x3d30fcbb	0.043209773
101	0xbd833451	-0.06406463
102	0x3b3b6764	0.002859556
103	0xbd4c2711	-0.049841944
104	0x3c04d205	0.008106713
105	0xbd86c112	-0.06579794
106	0x3cafc602	0.021456722
107	0x3d55a2af	0.0521571
108	0xbd85ebf0	-0.06539142
109	0xbd853dbc	-0.065059155
110	0xbc9a2db2	-0.018820617
111	0x3d51b49c	0.051197633
112	0xbd1ad2e5	-0.03779878
113	0x3d4e309b	0.050339323
114	0x3d633e78	0.055479497
115	0xbc466f34	-0.012111474
116	0x3d662b8b	0.05619387
117	0x3d21aeff	0.03947353
118	0xbc1e6972	-0.009668695
119	0x3d03c580	0.032170773
120	0x3d12017a	0.03564594
121	0xbd7674be	-0.060169928
122	0x3acbad9e	0.0015539413
123	0x3c8dfc05	0.017332086
124	0x3d5d0734	0.053961948
125	0xbb91e3d7	-0.0044522095
126	0x3cbaaeba	0.022788394
127	0x3ccd5a1f	0.025067387
128	0xbd33b735	-0.04387589
129	0x3c9be0ee	0.019028153
130	0x3d03a8c2	0.032143362
131	0xbc7daae9	-0.015482643
132	0x3cd11196	0.025521081
133	0xbd7798c0	-0.060448408
134	0x3bf9e2bc	0.007625906
135	0xbc9818b7	-0.018566472
136	0xbc5c3624	-0.0134406425
137	0xbc997a33	-0.018735027
138	0x3d613f1c	0.054991826
139	0xbd960f86	-0.073271796
140	0x3d5b9577	0.053609338
141	0x3d82de21	0.06390024
142	0x3c2b5320	0.01045683
143	0x3d7fcd06	0.062451385
144	0x3d9a4ae0	0.075338125
145	0x3da3566a	0.079754665
146	0xbc99a719	-0.018756436
147	0xbd590ab1	-0.05298871
148	0x3cd50a98	0.026006028
149	0x3b1b6526	0.0023711412
150	0xbd4a35fb	-0.049367886
151	0xbd7377f0	-0.059440553
152	0xbc9e5ab4	-0.01933036
153	0xbd61a9fa	-0.055093743
154	0xbd2d814a	-0.042359628
155	0xbd1bc35b	-0.038028102
156	0xbd741a82	-0.059595592
157	0xbd55ccdf	-0.052197333
158	0xbd563b31	-0.052302543
159	0xbd3bf2c7	-0.045885827
160	0x3cee3b8d	0.02908113
161	0x3d3455ff	0.044027325
162	0xbd67a3c5	-0.056552667
163	0x3cead1a8	0.028664425
164	0x3b8bbb05	0.004264238
165	0x3d287123	0.04112352
166	0x3d4f1a97	0.050562467
167	0xbd897155	-0.067110695
168	0x3d25cc27	0.040477898
169	0xbca6d10c	-0.020363353
170	0xbcb19fa3	-0.021682566
171	0xbd670992	-0.05640561
172	0xbcb288e7	-0.021793796
173	0x3d81d3b8	0.0633921
174	0xbd649afe	-0.055811875
175	0xbd3de5f0	-0.046361864
176	0x3be8bfb5	0.0071029314
177	0xbd5b891a	-0.053597547
178	0x3c81a7dc	0.015827112
179	0x3ce380c8	0.027771369
180	0x3d4bd60e	0.049764685
181	0xbd6775cc	-0.056508824
182	0x3ba88e4e	0.005143917
183	0xbd535481	-0.05159426
184	0xbb9a1ef6	-0.004703398
185	0xbc84636c	-0.01616069
186	0xbc8a8afb	-0.016911974
187	0xbcf0a2a1	-0.029374423
188	0x3c999bfe	0.01875114
189	0x3d0e711e	0.034775846
190	0x3d03e21a	0.03219805
191	0xbcd0683c	-0.025440328
192	0xbcc77a88	-0.02435042
193	0x3d188382	0.03723479
194	0x3ce0ebec	0.027456246
195	0xbd600102	-0.05468846
196	0xbd96c933	-0.073625945
197	0x3cad7b97	0.021177096
198	0x3d82c623	0.06385448
199	0xbd1502c0	-0.036379576
200	0x3d3c990b	0.04604439
201	0xbd28f56d	-0.04124968
202	0xbd8d9df0	-0.0691489
203	0xbcf49168	-0.029854491
204	0x3d8edebf	0.06976079
205	0x3d5a888e	0.053352885
206	0xbd4bfad8	-0.04979977
207	0x3bd5cd1a	0.006524694
208	0x3cbc654c	0.02299752
209	0xbd77b1c6	-0.060472272
210	0x3b769554	0.0037625628
211	0x3cc9a783	0.024616009
212	0xbc9c5cfd	-0.019087309
213	0x3d193a29	0.03740898
214	0x3d83c610	0.06434262
215	0x3d8b7b58	0.06810635
216	0xbd0d4e41	-0.034498457
217	0x3c844591	0.016146453
218	0x3c7e9e78	0.015540712
219	0x3d091c38	0.033474177
220	0xbd58eddc	-0.052961215
221	0x3d532d41	0.05155683
222	0x3d58b6bd	0.052908648
223	0x3d82af81	0.06381131
224	0x3d8d7552	0.06907143
225	0xbd89c7bd	-0.0672755
226	0xbcc4930e	-0.023995902
227	0xbbc353d7	-0.005960922
228	0x3ccbc52b	0.02487429
229	0xbd715fca	-0.058929242
230	0xbd82e27e	-0.06390856
231	0x3ba5934e	0.0050529605
232	0xbd888875	-0.06666652
233	0x3d1d73ae	0.0384404
234	0x3ba54e7b	0.005044756
235	0x3d927c66	0.07152633
236	0x3d9534ab	0.07285436
237	0xbd0b773b	-0.034049254
238	0xbca65e66	-0.020308685
239	0x3d6a6fc0	0.05723548
240	0x3c97407d	0.018463368
241	0xbd213ff5	-0.039367635
242	0x3d1f8456	0.038944565
243	0xbc20e177	-0.00981938
244	0xbc6cf0bb	-0.0144616915
245	0x3d007f94	0.031371668
246	0x3d8d9405	0.06912998
247	0x3c772448	0.015084334
248	0x3d3b64c0	0.04575038
249	0xbc729c30	-0.014807746
250	0x3d8e0fca	0.06936605
251	0xbbd9d0c8	-0.006647203
252	0xbd753386	-0.05986359
253	0xbcc389aa	-0.023869354
254	0x3d43b297	0.04777774
255	0x3bb52919	0.005528581

weight f4 [64]
0	0x3f8012fb	1.0005792
1	0x3f7f3196	0.9968504
2	0x3f7ef72b	0.995959
3	0x3f7f86b7	0.99814934
4	0x3f7e8607	0.9942326
5	0x3f80ce6a	1.0062993
6	0x3f7ecc33	0.99530333
7	0x3f7efdd0	0.9960604
8	0x3f7ff048	0.99976015
9	0x3f807abd	1.0037457
10	0x3f805ba4	1.0027966
11	0x3f8031f6	1.0015247
12	0x3f805d0c	1.0028396
13	0x3f7e8d84	0.99434686
14	0x3f7f7a11	0.99795634
15	0x3f807723	1.0036358
16	0x3f7f2f2e	0.99681365
17	0x3f7f944a	0.99835646
18	0x3f7ecd62	0.9953214
19	0x3f7f76b2	0.9979049
20	0x3f7f5c90	0.99750614
21	0x3f7ecfa8	0.9953561
22	0x3f7fa444	0.99860024
23	0x3f7fc5ad	0.99911004
24	0x3f80dfec	1.0068336
25	0x3f7ed864	0.99548936
26	0x3f803a72	1.0017836
27	0x3f7fa792	0.99865067
28	0x3f8003d0	1.0001163
29	0x3f7fc04a	0.99902785
30	0x3f7e9130	0.9944029
31	0x3f8026c0	1.0011826
32	0x3f811006	1.0083015
33	0x3f8056b1	1.0026456
34	0x3f80293b	1.0012583
35	0x3f80ecee	1.0072305
36	0x3f80b985	1.0056616
37	0x3f7ef5e8	0.99593973
38	0x3f804bcb	1.002313
39	0x3f805026	1.0024459
40	0x3f7f5422	0.9973775
41	0x3f801741	1.0007097
42	0x3f807fe6	1.0039032
43	0x3f7e3d19	0.9931198
44	0x3f7e1030	0.9924345
45	0x3f8076e0	1.0036278
46	0x3f7f0dfa	0.996307
47	0x3f817ee0	1.0116844
48	0x3f801861	1.000744
49	0x3f7ecdd5	0.99532825
50	0x3f806afe	1.0032651
51	0x3f80b56c	1.0055366
52	0x3f7dfca0	0.992136
53	0x3f7faf7a	0.9987713
54	0x3f7fc657	0.9991202
55	0x3f7e80ff	0.9941558
56	0x3f804642	1.0021441
57	0x3f80b866	1.0056274
58	0x3f80f6af	1.0075282
59	0x3f80c1ef	1.0059184
60	0x3f80ca35	1.0061709
61	0x3f7ed05f	0.995367
62	0x3f805eee	1.002897
63	0x3f7ea8c3	0.9947626

bias f4 [64]
0	0x3c05392d	0.008131308
1	0xbb3bc1c9	-0.002864944
2	0xbbc2a6b7	-0.005940284
3	0xbb3a93c0	-0.0028469414
4	0xbbb76a43	-0.005597384
5	0x3b70a816	0.003672128
6	0xbba8b1dd	-0.005148156
7	0xba2abf1b	-0.0006513462
8	0x3b7ef230	0.003890168
9	0x3b53a81a	0.0032296241
10	0x3b307f33	0.0026931285
11	0xbadbd463	-0.001677167
12	0xba5d61d4	-0.00084450585
13	0x3a8592f4	0.001019089
14	0xbb87a172	-0.004139119
15	0xba53cede	-0.0008079837
16	0xbb8d3e35	-0.004310394
17	0x3af0babf	0.0018366202
18	0x3b3c3337	0.002871705
19	0xbb973a4c	-0.004615104
20	0xb902e5f8	-0.00012483436
21	0xbad52d0b	-0.0016264034
22	0x3bfc454b	0.00769869
23	0x3ac640f1	0.0015125555
24	0x3b8e7ddf	0.004348501
25	0x3a0825e4	0.00051936344
26	0xb86b4834	-5.609561e-05
27	0x3beb49fe	0.0071804514
28	0xbb41d603	-0.0029577024
29	0x3b0273c8	0.0019905437
30	0xbb0ccbce	-0.0021483782
31	0x3a9d16f3	0.0011984989
32	0x3ab4d043	0.0013794977
33	0x3ab99043	0.0014157373
34	0x3a746c84	0.00093240314
35	0x3c2a63d1	0.010399775
36	0x3a403ead	0.0007333558
37	0xb8afba56	-8.379358e-05
38	0x3733852a	1.0700236e-05
39	0x3b155b9a	0.0022790194
40	0xbb129d4e	-0.0022371593
41	0x3ab9b45b	0.001416813
42	0xbb268373	-0.002540794
43	0xbbf4af0b	-0.007467156
44	0xb9883076	-0.00025976048
45	0xbbced26a	-0.0063117044
46	0xb9355765	-0.00017294062
47	0xbb90c4ed	-0.0044180066
48	0x3bb4f978	0.005522903
49	0xbaa3a7fc	-0.0012485976
50	0xbaa24a43	-0.0012381751
51	0x3c1158fc	0.008871313
52	0x3b14255b	0.0022605273
53	0x378bdc4f	1.667268e-05
54	0xb973a38f	-0.00023235216
55	0x3afbd5ed	0.0019213535
56	0xb891bbd6	-6.949126e-05
57	0x3ba5bb4d	0.0050577284
58	0x3c0fb90d	0.008772147
59	0x3b9a9fb5	0.0047187456
60	0x3b92af81	0.004476488
61	0x3b8ddd2d	0.0043293447
62	0x3a1077bd	0.00055110065
63	0xbb9d2ea4	-0.0047968198

running_mean f4 [64]
0	0x3c1004f7	0.008790246
1	0x3ba372a6	0.0049880324
2	0x3c958bfe	0.01825523
3	0x3b157630	0.002280604
4	0xb9652512	-0.00021852952
5	0x3ad04203	0.0015888814
6	0x3b84b3ba	0.0040497454
7	0xbc85358e	-0.016260888
8	0xbca22950	-0.01979509
9	0x3c079e21	0.008277447
10	0x3c1a2580	0.009408355
11	0x3bf10bee	0.0073561585
12	0xbbbb8ab4	-0.005723322
13	0x3cbbbade	0.022916254
14	0x3b4118a7	0.0029464157
15	0x3af71d55	0.0018853346
16	0x3c136fa1	0.008998782
17	0x3c0bcda7	0.008532918
18	0xbbd36346	-0.0064510433
19	0x3b9e4b43	0.0048307492
20	0x3c91898d	0.017765785
21	0xbc6e20cd	-0.0145341875
22	0xbc6e6b70	-0.014551982
23	0xbb11bc3d	-0.0022237443
24	0x3acddfd9	0.0015706971
25	0xbbde7f2b	-0.006790062
26	0x3af4ff1e	0.0018691754
27	0xbbf39621	-0.0074336682
28	0xbbe8de43	-0.007106574
29	0xbc858d96	-0.016302865
30	0xbc11fb2d	-0.008909983
31	0xba537e59	-0.00080678385
32	0xbc2283ec	-0.009919148
33	0x3b778b7a	0.0037772343
34	0xbb8c05de	-0.0042731604
35	0xbbe67431	-0.007032894
36	0x3cc18c6e	0.023626532
37	0xba9f47b8	-0.0012152111
38	0xbbee961f	-0.0072810794
39	0x3c201fc8	0.009773202
40	0xbbe7aee3	-0.0070704087
41	0x3c241758	0.010015331
42	0xbba15a89	-0.0049241227
43	0xbc6bb75c	-0.014386978
44	0xba87b412	-0.0010353348
45	0xbc6d2fe6	-0.014476752
46	0xbb0d2b09	-0.0021540544
47	0xbc386444	-0.011254374
48	0xbc946a99	-0.018117236
49	0x3b9d6bfb	0.004804132
50	0xbc2bb147	-0.010479278
51	0xbb851b1c	-0.0040620696
52	0x3b38c431	0.002819311
53	0xbb3af6ce	-0.0028528455
54	0x3c1bf1b8	0.009518079
55	0x3bbd913c	0.0057851356
56	0x3acabee0	0.0015468262
57	0x3b9dead9	0.004819256
58	0xbc193054	-0.009349901
59	0x3b30ff25	0.0027007547
60	0x3bca824b	0.006180083
61	0xbb0b7b37	-0.0021283159
62	0xbb7b21ed	-0.0038319782
63	0x3bc8b2dc	0.0061248373

running_var f4 [64]
0	0x3b8c92e1	0.0042899703
1	0x3b8cf1fa	0.004301307
2	0x3b90c2e8	0.004417766
3	0x3b6dd828	0.003629217
4	0x3b6e5534	0.0036366703
5	0x3b3e90dd	0.0029078044
6	0x3b78c391	0.0037958364
7	0x3ba7b562	0.005118058
8	0x3ba3c860	0.004998252
9	0x3b738ccf	0.0037162786
10	0x3b99fa9d	0.004699065
11	0x3b99f074	0.0046978537
12	0x3b7d811e	0.0038681696
13	0x3b862077	0.0040932256
14	0x3b8c4516	0.0042806966
15	0x3b83572e	0.0040081954
16	0x3b8ec165	0.0043565505
17	0x3b88990e	0.004168636
18	0x3b84a957	0.004048507
19	0x3b78908b	0.0037927951
20	0x3ba0b758	0.004904669
21	0x3b935bce	0.004497028
22	0x3b83e71f	0.0040253545
23	0x3b7e2c5e	0.003878377
24	0x3b8ba2bd	0.0042613433
25	0x3b800ef6	0.0039080335
26	0x3b53c5d6	0.0032313964
27	0x3b97d60a	0.0046336697
28	0x3b869a4e	0.00410775
29	0x3b86f56c	0.004118612
30	0x3b8631e2	0.004095302
31	0x3b93dac7	0.0045121643
32	0x3b908d16	0.00441135
33	0x3b7a83aa	0.003822545
34	0x3b9f9c15	0.0048709013
35	0x3b6ad665	0.0035833356
36	0x3b87fdef	0.0041501443
37	0x3b9369a8	0.004498679
38	0x3b73b530	0.0037186854
39	0x3bba775f	0.0056904997
40	0x3b83bd4f	0.00402037
41	0x3b88d53f	0.0041758115
42	0x3b8e27bd	0.0043382333
43	0x3b9bac4f	0.0047507654
44	0x3b822338	0.0039714836
45	0x3b7041b6	0.003666026
46	0x3b7a0a3d	0.0038153075
47	0x3b720ee7	0.0036935152
48	0x3ba314cf	0.004976846
49	0x3b888812	0.0041666115
50	0x3b8a74f8	0.0042253695
51	0x3b664f59	0.003514251
52	0x3b78bf58	0.0037955847
53	0x3b60705b	0.0034246657
54	0x3b668049	0.0035171679
55	0x3b7fe26e	0.0039044875
56	0x3b8044e0	0.0039144605
57	0x3b82b8e6	0.003989327
58	0x3ba18d5e	0.0049301824
59	0x3b7569e0	0.003744714
60	0x3b8df2f2	0.00433194
61	0x3b75e524	0.0037520612
62	0x3b7e99f9	0.00388491
63	0x3b66c529	0.0035212731

weight f4 [64, 64, 5]
0	0x3c9e8699	0.01935129
1	0x3d3c0589	0.045903716
2	0xbcd2aed3	-0.025718128
3	0xbd3ce395	-0.046115477
4	0xbd3e13b8	-0.046405524
5	0x3d66c227	0.0563375
6	0x3cc34bd1	0.023839863
7	0x3b7dcc3d	0.0038726472
8	0x3d039d3f	0.032132383
9	0xbd38032e	-0.044924907
10	0x3d01e073	0.031708192
11	0x3ccad3ab	0.024759134
12	0x3d348409	0.04407123
13	0x3d459a6d	0.048242975
14	0x3ca36dab	0.019949755
15	0x3d47f195	0.048814375
16	0x3a96fca6	0.0011519387
17	0xbd1519e6	-0.03640165
18	0x3d33a521	0.04385865
19	0xbd2e982c	-0.04262559
20	0x3cd616b8	0.02613388
21	0xbc62ffa6	-0.013854897
22	0xbbe9d525	-0.0071360045
23	0xbd0ce4f7	-0.034398045
24	0xbd2792e3	-0.040911566
25	0xbd2d5039	-0.042312834
26	0x3c1d8fa7	0.009616769
27	0xbd0256f3	-0.031821202
28	0x39d82c60	0.00041231792
29	0x3ca430cb	0.020042798
30	0x3c93a60f	0.018023519
31	0x3d19fc63	0.03759421
32	0x3ccc6473	0.024950242
33	0x3d206dc1	0.03916717
34	0xbcba3e65	-0.02273483
35	0xbbbd4358	-0.0057758503
36	0x3d34eb5b	0.044169765
37	0x3d2bdb38	0.04195711
38	0xbc7774ed	-0.015103561
39	0xbc90bb17	-0.017667336
40	0xbd2e12b0	-0.04249829
41	0x3d0b2538	0.03397104
42	0xbd514b99	-0.051097486
43	0x3d05ce1d	0.032667268
44	0xbd32f4a2	-0.04369033
45	0xbcc874d2	-0.024469767
46	0x3d77f884	0.060539737
47	0x3d0f4e51	0.034986798
48	0x3cc05718	0.02347903
49	0xbd1ed69d	-0.03877889
50	0xbcd0f9e4	-0.025509782
51	0x3c80bc4a	0.015714783
52	0x3cb3c910	0.02194646
53	0x3c2cbdbc	0.010543283
54	0xbaf67aee	-0.0018804946
55	0xbd27bde6	-0.040952586
56	0xbd54563b	-0.05184005
57	0x3d3f2c75	0.046673257
58	0x3af841f9	0.001894056
59	0xbb02c5e2	-0.0019954373
60	0x3c97b411	0.01851848
61	0x3c86b975	0.016445855
62	0x3d353803	0.04424287
63	0x3d39ea74	0.045389608
64	0x3ce9ae73	0.028525567
65	0x3d049753	0.032370877
66	0xba07ee1b	-0.0005185322
67	0xbd0686d5	-0.03284343
68	0xbd04c847	-0.03241756
69	0xbd49b226	-0.04924216
70	0xbd03c001	-0.03216553
71	0x3d1f6eb5	0.038923938
72	0x3c82634a	0.015916485
73	0x3bf01080	0.0073261857
74	0x3ce82146	0.028336179
75	0xbbf87e75	-0.007583434
76	0xbcbf1bc1	-0.023328664
77	0xbd2991af	-0.0413987
78	0xbd03e08e	-0.032196574
79	0x3c2e54ab	0.010640304
80	0x3c8b1628	0.016978338
81	0xbd40316a	-0.046922125
82	0xbcb04e39	-0.021521674
83	0x3d70daef	0.05880254
84	0x3d2c3eb0	0.04205197
85	0x3cf1c5ea	0.029513318
86	0x3c7a1fc7	0.015266365
87	0x3d4dc10d	0.050232936
88	0x3ca54cfb	0.020178309
89	0xbd2646a1	-0.0405947
90	0x3d1e4ea2	0.03864921
91	0x3cd0196d	0.025402749
92	0x3d357618	0.044302076
93	0x3cb62cfc	0.022238247
94	0xbd3ad218	-0.045610517
95	0x3d2bdc98	0.04195842
96	0x3d6cc24e	0.05780249
97	0xbd39201a	-0.04519663
98	0x3acba43b	0.0015536615
99	0x3d01b4fb	0.031666737
100	0xbcfd60cf	-0.030929951
101	0x3b8b1a4e	0.004245079
102	0x3d52814c	0.05139284
103	0x3d455617	0.048177805
104	0xbc5c4920	-0.013445169
105	0x3c7d06a5	0.015443479
106	0xbd323cd8	-0.043515056
107	0xbc025fb2	-0.007957386
108	0xbc4d1265	-0.012516593
109	0xbc05cce2	-0.008166524
110	0xbd15e854	-0.03659852
111	0x3d389698	0.045065492
112	0xbd03e64b	-0.032202046
113	0xbc871ad1	-0.01649228
114	0x3d4495f7	0.04799458
115	0x3c81ffd1	0.015869053
116	0x3c5904e1	0.013245792
117	0x3d4fa4e9	0.05069438
118	0x3d3f604e	0.046722703
119	0x3d5bd3ff	0.053668972
120	0xbd73d58c	-0.059529826
121	0xbd0c3549	-0.034230504
122	0xbc843dc8	-0.01614274
123	0xbbbd5b20	-0.005778685
124	0x3d41722b	0.04722802
125	0xbc71d536	-0.014760306
126	0xbcdd4ad7	-0.027013225
127	0xbd36a654	-0.044592217
128	0x3c767102	0.015041592
129	0xbb8dc62c	-0.0043266024
130	0x3c799e3d	0.015235481
131	0x3d64b668	0.05583802
132	0xbbf46241	-0.007458002
133	0x3d5ceb8e	0.05393558
134	0x3d5a52d3	0.053301644
135	0x3d1406a3	0.03613914
136	0xbc04f20f	-0.008114352
137	0xbc8ec257	-0.017426653
138	0x3cc8c6a8	0.02450879
139	0x3d010c51	0.031505886
140	0x3c15bd62	0.009139391
141	0xbcb62174	-0.022232749
142	0xbd567cc8	-0.052365094
143	0x3d734ec8	0.059401304
144	0xbc72bed5	-0.014816006
145	0xbc4751b3	-0.012165475
146	0x3cc56b98	0.024099156
147	0xbcbccc74	-0.02304671
148	0x3c26dfc8	0.01018519
149	0xbc0831e9	-0.008312681
150	0x3d1f126a	0.03883592
151	0xbd135909	-0.035973582
152	0xbcdcfe30	-0.026976675
153	0xbd0bc1db	-0.03412042
154	0x3d062fcc	0.032760426
155	0xbcb0c66f	-0.021578996
156	0xbc84c0fb	-0.016205302
157	0x3b73ff0c	0.0037230877
158	0xbbfa3ff9	-0.0076370207
159	0xbd1d59cb	-0.03841571
160	0x3d789a25	0.06069388
161	0xbcc963ad	-0.024583662
162	0x3cf83b98	0.030301854
163	0x3d3542c6	0.044253133
164	0x3c0af961	0.008482308
165	0x3cfa0c29	0.030523377
166	0xbc6718d3	-0.01410504
167	0x3cabd0c5	0.020973573
168	0x3c4b7c51	0.012419776
169	0xbd4520a6	-0.04812684
170	0x3d24009d	0.040039647
171	0xbd211952	-0.039330788
172	0xbd1435fc	-0.036184296
173	0x3d5c33b0	0.05376023
174	0xbccd1e80	-0.025038958
175	0xbd2a52ac	-0.04158275
176	0xbcf42719	-0.0298038
177	0x3bf54d54	0.007486025
178	0x3d06b964	0.032891646
179	0x3cf36708	0.029712215
180	0x3cc50946	0.024052273
181	0x3d425356	0.047442757
182	0x3cb833fa	0.022485722
183	0x3d2e51e0	0.04255855
184	0x3cb834b4	0.022486068
185	0x3cf4a9bd	0.029866094
186	0x3cc47492	0.023981366
187	0xbd0008b9	-0.03125832
188	0xbc8772c3	-0.016534215
189	0x3d1cee88	0.03831342
190	0xbcecfaa2	-0.028928105
191	0x3c666788	0.01406277
192	0xbcff3ae7	-0.031156017
193	0x3baf7529	0.0053545428
194	0xbc2e8e52	-0.010654049
195	0xbd1c3ea3	-0.038145673
196	0x3c9e8bbb	0.019353738
197	0xbd0c4412	-0.034244604
198	0xbc943cba	-0.018095363
199	0x3d106e9e	0.035261743
200	0x3d52460b	0.05133633
201	0xbc8cb3c4	-0.017175563
202	0x3c178b2b	0.009249489
203	0x3d664ae9	0.056223784
204	0x3d7218c0	0.059105635
205	0x3c3caee9	0.011516311
206	0xbc1f2042	-0.009712281
207	0xbca05c28	-0.019575194
208	0xbd21bc3c	-0.039486155
209	0x3cd5d62f	0.026103107
210	0xbc45c9b3	-0.012072015
211	0x3bc61e84	0.006046118
212	0x3d5b64fd	0.053563107
213	0xbca63d1b	-0.02029281
214	0xbcc2559c	-0.023722462
215	0x3d2cdd5f	0.042203303
216	0x3d59da0b	0.053186458
217	0x3c913514	0.017725505
218	0x3d4e0f0c	0.05030732
219	0x3c06ff0f	0.008239522
220	0x3d2491c5	0.04017808
221	0xbd0b7c44	-0.034054056
222	0xbcf95e75	-0.030440548
223	0xbd450009	-0.048095737
224	0xbcd42321	-0.025895657
225	0x3d0558c4	0.032555357
226	0x3ad554fa	0.0016275935
227	0x3cf57d9e	0.029967126
228	0x3d213f10	0.03936678
229	0x3cdea049	0.02717604
230	0xbd06bc57	-0.03289446
231	0xbd02b588	-0.031911403
232	0xbd268cca	-0.04066161
233	0x3d350bfe	0.04420089
234	0x3b430a56	0.00297608
235	0xbc9e3443	-0.01931203
236	0x3ca69d61	0.020338716
237	0x3cc5b87e	0.024135824
238	0x3b1f7138	0.0024328958
239	0xbd599ab5	-0.053126056
240	0x3c59efb7	0.013301781
241	0xbd4e54e8	-0.05037394
242	0xbcbfb272	-0.023400519
243	0xbd3774ac	-0.044789
244	0x3cdc4d65	0.026892373
245	0x3d604f6e	0.05476325
246	0xbd4a3536	-0.049367152
247	0x3c3cff00	0.011535406
248	0xbd4b5bf0	-0.049648225
249	0x3ac22f6d	0.0014815159
250	0xbb53b9e0	-0.0032306835
251	0x3937e5fa	0.00017537913
252	0xbc95eac7	-0.018300427
253	0xbd6f8c6d	-0.05848353
254	0x3cca34c9	0.024683373
255	0xbcdf7955	-0.027279535

weight f4 [64]
0	0x3f80327c	1.0015407
1	0x3f80739c	1.0035281
2	0x3f7e614c	0.99367213
3	0x3f7f1f79	0.996574
4	0x3f801dfb	1.0009149
5	0x3f8012c4	1.0005727
6	0x3f7fcdd9	0.99923474
7	0x3f801689	1.0006877
8	0x3f80af06	1.0053413
9	0x3f7e2f92	0.99291337
10	0x3f805f0d	1.0029007
11	0x3f7f9377	0.9983439
12	0x3f7f07ed	0.9962147
13	0x3f7ecb15	0.9952863
14	0x3f814490	1.0099049
15	0x3f806cfc	1.0033259
16	0x3f7e11ff	0.9924621
17	0x3f802dd8	1.001399
18	0x3f8077be	1.0036542
19	0x3f80999f	1.0046881
20	0x3f7f441e	0.99713314
21	0x3f7f9053	0.99829596
22	0x3f7f0536	0.99617326
23	0x3f7f352d	0.99690515
24	0x3f80f3fd	1.0074459
25	0x3f7fba4a	0.9989363
26	0x3f7f0f03	0.9963228
27	0x3f7ffaf1	0.9999228
28	0x3f8082f9	1.003997
29	0x3f7fbc1e	0.9989642
30	0x3f80f987	1.007615
31	0x3f7fedda	0.9997231
32	0x3f7f053f	0.9961738
33	0x3f7ef5f8	0.9959407
34	0x3f805a4f	1.002756
35	0x3f80fac7	1.0076531
36	0x3f800835	1.0002505
37	0x3f7fbcf8	0.9989772
38	0x3f801f45	1.0009543
39	0x3f810881	1.008072
40	0x3f7f1ec7	0.9965634
41	0x3f7f2e65	0.9968017
42	0x3f801bc2	1.0008471
43	0x3f7e91a0	0.99440956
44	0x3f80ba6f	1.0056895
45	0x3f7fddfc	0.99948096
46	0x3f80b95a	1.0056565
47	0x3f808619	1.0040923
48	0x3f7e927c	0.9944227
49	0x3f8096a5	1.0045973
50	0x3f7e992d	0.9945248
51	0x3f7d591d	0.989641
52	0x3f813b2c	1.0096183
53	0x3f808870	1.0041637
54	0x3f7ee982	0.99575055
55	0x3f7ef3b6	0.99590623
56	0x3f807f1f	1.0038794
57	0x3f7fdee8	0.999495
58	0x3f81602f	1.0107478
59	0x3f7f23a8	0.9966378
60	0x3f813b87	1.0096291
61	0x3f809abc	1.0047221
62	0x3f7ecf52	0.99535096
63	0x3f7c6cc5	0.9860347

bias f4 [64]
0	0x3bc9e169	0.006160904
1	0x3c10e5e1	0.00884387
2	0xbbf7ec1c	-0.007565988
3	0xba3e81df	-0.0007267277
4	0x3b59cd72	0.0033234027
5	0xba7b3f19	-0.00095842924
6	0x39cdd957	0.00039262578
7	0xbab9647b	-0.0014144325
8	0x3c035620	0.008016139
9	0xbba3b9eb	-0.0049965284
10	0x3b724663	0.0036968223
11	0x3adc9e33	0.0016831815
12	0xbb94d1f6	-0.004541631
13	0xbb3f08f5	-0.0029149626
14	0x3bd5c09f	0.0065232064
15	0xb93944b8	-0.00017668575
16	0xbc48b079	-0.012249106
17	0xbb19de1d	-0.0023478337
18	0xba60a0e9	-0.00085688994
19	0x3b20731c	0.0024482673
20	0x3b093a36	0.0020939237
21	0x3b607c6c	0.0034253849
22	0xbadeced5	-0.0016998897
23	0x3b1e0628	0.0024112556
24	0x3c2ba09c	0.010475304
25	0xb9b9322c	-0.0003532333
26	0xbaf15cab	-0.0018414458
27	0xbba47de2	-0.005019889
28	0x3bfc0331	0.00769081
29	0x3b24a8eb	0.0025125097
30	0x3c019594	0.007909197
31	0x3b06842f	0.0020525565
32	0xbb1d8b57	-0.0024039352
33	0x3b12b589	0.0022386035
34	0xba1b67a5	-0.0005928225
35	0x3b0b2fd7	0.0021238232
36	0x3c0aec47	0.0084791845
37	0xbb9ca196	-0.0047800047
38	0xb9a3f08c	-0.00031269004
39	0x3b95dd3f	0.0045734937
40	0x3ba6c5dd	0.005089505
41	0xb971b506	-0.00023050988
42	0x3b36d129	0.0027895665
43	0xbbd89f43	-0.0066107824
44	0x3b4a6f91	0.0030889253
45	0x3a21b74e	0.0006168977
46	0x3bd7ba79	0.0065835086
47	0xbb1a2bba	-0.0023524598
48	0xbae89cbe	-0.0017746908
49	0x3b6a10c9	0.003571557
50	0x3b1af6ea	0.0023645707
51	0xbc3a76e8	-0.0113808885
52	0x3bea6797	0.007153462
53	0x3ac59c5f	0.001507651
54	0xbaf1bc2d	-0.0018442922
55	0xbba64e2d	-0.0050752372
56	0xbb732d86	-0.0037105992
57	0xbaceb6a3	-0.0015770983
58	0xbaa0d464	-0.0012270329
59	0xbb7a6c62	-0.0038211574
60	0x3b3ecaa6	0.0029112487
61	0x3b9a0549	0.004700337
62	0x3afec70e	0.0019437985
63	0xbbebdf2a	-0.007198234

running_mean f4 [64]
0	0x3e80f2a2	0.25185114
1	0x3d8c763d	0.0685849
2	0xbee01446	-0.43765467
3	0xbdd98c92	-0.10622515
4	0xbecb5c3d	-0.3971881
5	0x3e2e18d6	0.17001662
6	0x3d09c95b	0.033639293
7	0x3da8da44	0.08244756
8	0x3e043832	0.12912062
9	0x3cb069da	0.021534849
10	0x3d3ac929	0.045601998
11	0xbd961e85	-0.0733004
12	0x3e520877	0.20511042
13	0xbe6bac3e	-0.23014924
14	0xbefc255e	-0.4924726
15	0x3db5ec12	0.088829175
16	0xbd69cae7	-0.05707827
17	0xbe685b78	-0.22691143
18	0x3e807f58	0.25097156
19	0x3e1f3519	0.15547599
20	0xbd8fdaec	-0.07024178
21	0x3f04675a	0.517202
22	0xbdaf146e	-0.085488185
23	0x3e91bc61	0.28464034
24	0x3d88c2f4	0.06677809
25	0xbe2d3a77	-0.16916834
26	0x3dbf87ce	0.093520746
27	0x3e48f6d3	0.19625406
28	0x3dd551d5	0.10415999
29	0x3da1f606	0.07908253
30	0x3e2ebc67	0.17064057
31	0x3d97b053	0.07406678
32	0x3d81ec15	0.06343857
33	0xbe45fa38	-0.19333732
34	0x3e3f3dc8	0.18675911
35	0xbecb03ef	-0.3965144
36	0x3d866793	0.06562724
37	0x3da758c2	0.08171226
38	0x3c718490	0.014741078
39	0xbe425cd7	-0.18980728
40	0xbd528364	-0.051394835
41	0xbcb59843	-0.02216733
42	0x3e40559c	0.18782657
43	0x3eb9b52d	0.3627104
44	0x3d9a59ea	0.07536681
45	0xbb612c9c	-0.0034358865
46	0xbe3a9fde	-0.18225047
47	0xbe56a5e6	-0.20961723
48	0x3e0c9bec	0.13731354
49	0xbd10a719	-0.035315607
50	0xbe8276d9	-0.254813
51	0xbd91036f	-0.07080733
52	0xbe95bdfe	-0.29246515
53	0x3e030d28	0.12797987
54	0xbe56b460	-0.20967245
55	0xbe167886	-0.14694414
56	0xbcf42199	-0.029801177
57	0xbe55848f	-0.20851348
58	0x3cab3d38	0.020903215
59	0x3d01c935	0.031686027
60	0x3e1fae05	0.15593727
61	0x3d868fac	0.06570372
62	0xbe485a56	-0.1956571
63	0x3bd8de3f	0.0066182907

running_var f4 [64]
0	0x3e2341ed	0.15943117
1	0x3dea2ccf	0.11434328
2	0x3e53f83b	0.20700161
3	0x3df8fcf5	0.12157623
4	0x3e3d0f27	0.18462811
5	0x3e00c7f2	0.12576273
6	0x3dcdf570	0.10056579
7	0x3df7034c	0.12061176
8	0x3df642cc	0.12024459
9	0x3da3965a	0.07987662
10	0x3ddb008d	0.106934644
11	0x3db0e7f4	0.086379915
12	0x3e012890	0.1261313
13	0x3dbb7461	0.09153057
14	0x3e6f2849	0.23355211
15	0x3ddec01e	0.10876487
16	0x3de757c5	0.112960376
17	0x3e1315bd	0.14363761
18	0x3e1a3d94	0.15062553
19	0x3df253c4	0.11832383
20	0x3ddf41ea	0.10901244
21	0x3e8c209c	0.2736863
22	0x3e00a119	0.12561454
23	0x3e1547fe	0.14578244
24	0x3dc9c37c	0.09851739
25	0x3dde6f9d	0.10861132
26	0x3df208f3	0.11818113
27	0x3dfc27e9	0.123123
28	0x3e061ab6	0.13096127
29	0x3dc96d80	0.098353386
30	0x3e0c214b	0.13684575
31	0x3ddacafc	0.106832474
32	0x3de00125	0.10937718
33	0x3dc64b69	0.09682352
34	0x3e1a0db3	0.15044288
35	0x3e5343da	0.20631352
36	0x3dfe1df3	0.12408056
37	0x3e22914a	0.15875736
38	0x3e026af9	0.1273612
39	0x3de2d618	0.110759914
40	0x3de15afd	0.11003683
41	0x3ddb5d3c	0.107111424
42	0x3e032548	0.1280719
43	0x3e4014d1	0.18757941
44	0x3e07586f	0.13217328
45	0x3dca0430	0.0986408
46	0x3e0948e9	0.1340672
47	0x3dd68a39	0.10475583
48	0x3dc4b71d	0.096052386
49	0x3dbc730b	0.0920163
50	0x3dfeab50	0.12435019
51	0x3dbdad8f	0.09261619
52	0x3e231f6a	0.15929952
53	0x3ddafb89	0.10692508
54	0x3e14fe0c	0.14550036
55	0x3dc952ad	0.09830222
56	0x3d9f094c	0.07765445
57	0x3e03e6da	0.12881032
58	0x3da7165d	0.08158562
59	0x3dc26c6a	0.094933346
60	0x3dedd711	0.11613286
61	0x3dd60fe9	0.10452253
62	0x3def3cbd	0.11681507
63	0x3dfd54df	0.123697035

weight f4 [64, 64, 3]
0	0xbd0852cd	-0.03328209
1	0x397bdcb8	0.0002401945
2	0xbc378e56	-0.011203369
3	0x3d20b438	0.03923437
4	0xbd677ccb	-0.056515496
5	0x3d2e58a4	0.042565003
6	0x3d83d383	0.06436827
7	0x3b95ca08	0.004571203
8	0xbd4f5fb3	-0.050628375
9	0xbcdf325b	-0.027245691
10	0x3d2fbc67	0.042904284
11	0xbc3c8243	-0.011505666
12	0xbcb46e2a	-0.022025187
13	0xbd2594bb	-0.040425044
14	0xbcaff0a3	-0.02147705
15	0xbc2a017c	-0.01037633
16	0x3d759344	0.059954897
17	0x3d58f1d5	0.052965004
18	0x3cf8ead2	0.030385409
19	0x3cf0ac25	0.02937896
20	0x3c3b16b2	0.011418985
21	0x3d6e6290	0.058199465
22	0x3d00ecc9	0.031475816
23	0xbd908cae	-0.070580825
24	0xbd6f127b	-0.058367234
25	0xbd6be795	-0.0575939
26	0xbc0e1a96	-0.008673331
27	0xbd6429e7	-0.055704024
28	0x3c88b06b	0.016685685
29	0xbcdce6d4	-0.026965536
30	0xbd1d8dfa	-0.038465478
31	0x3ce04113	0.02737478
32	0x3d605ffc	0.054779038
33	0x3d830ace	0.06398545
34	0xbd58e416	-0.052951895
35	0x3ade8127	0.0016975746
36	0xbc037924	-0.008024488
37	0x3c00ed21	0.007869036
38	0x3d4567ea	0.048194803
39	0xbd34f584	-0.044179454
40	0x3cc9bf6e	0.024627414
41	0x3d90fac4	0.0707908
42	0x3c428e29	0.011874714
43	0x3d1bcb03	0.038035404
44	0x3d1ca5af	0.038243946
45	0xbba5dd13	-0.0050617545
46	0x3d842d65	0.06453971
47	0xbd8ba3e7	-0.06818371
48	0x3d66b09c	0.05632077
49	0xbc12c03d	-0.008956966
50	0xbd4a6b4d	-0.049418736
51	0xbd8d4c01	-0.06899262
52	0x3d025502	0.03181935
53	0x3d0a7073	0.033798646
54	0xbd5e6446	-0.054294847
55	0xbd54026c	-0.051760122
56	0x3d0a9fa5	0.033843655
57	0xbd809b5d	-0.06279633
58	0xbd28180f	-0.04103857
59	0xbc55d3f6	-0.013051024
60	0x3d63b5aa	0.05559317
61	0x3cb8d14e	0.022560742
62	0x3d4e0019	0.050293062
63	0x3c4f69ae	0.012659473
64	0xbb643b6b	-0.0034825455
65	0xbcad5cf8	-0.021162495
66	0xbc930475	-0.017946461
67	0x3d58dc0e	0.052944236
68	0x3d04d727	0.032431748
69	0xba7e52af	-0.0009701652
70	0x3d82d484	0.063881904
71	0xbd3e026f	-0.04638904
72	0xbd41725c	-0.047228202
73	0xbb6cb406	-0.0036118045
74	0xba94bbab	-0.0011347433
75	0x3d878ad6	0.06618278
76	0xbce1836f	-0.027528493
77	0x3d43edc9	0.04783419
78	0xbc094684	-0.008378629
79	0x3d20a836	0.03922292
80	0xbd8b5717	-0.068037204
81	0x3c634c31	0.013873146
82	0x3ae4fa72	0.0017469658
83	0xbcc20b5c	-0.023687057
84	0x3d363701	0.04448605
85	0xbd89bb12	-0.06725134
86	0xbd03aa45	-0.032144804
87	0xbd8b0333	-0.067877196
88	0xbcf56d91	-0.029959472
89	0x3bdaa20e	0.0066721505
90	0x3cd6da4a	0.026227135
91	0xbd8956f2	-0.067060366
92	0xbd842cd1	-0.064538606
93	0x3c2916db	0.010320391
94	0x3d026b8b	0.031840842
95	0xbc827bb0	-0.01592812
96	0xbd83b120	-0.06430268
97	0x3c0532a2	0.008129748
98	0x3c7adc59	0.015311324
99	0xbd0ec511	-0.034855906
100	0xbd6aa3f8	-0.05728528
101	0x3d4aa593	0.04947431
102	0x3c7b48a9	0.015337148
103	0xbd62c1fb	-0.055360775
104	0xbcf8d798	-0.03037624
105	0xbd1f3357	-0.03886732
106	0x3d208794	0.039191797
107	0xbb8047b3	-0.003914797
108	0x3c03d1a2	0.008045586
109	0xbd8cff1b	-0.06884595
110	0x3d34eb69	0.044169817
111	0xbc31c0cc	-0.010849189
112	0xbd157e1e	-0.036497228
113	0x3d7e395f	0.062066432
114	0xbd159a30	-0.036523998
115	0x3d1e34ad	0.038624454
116	0x3caa61d9	0.02079861
117	0x3d13502f	0.03596514
118	0xbd7cb838	-0.061699122
119	0xbd0d540c	-0.03450398
120	0x3d5eb87f	0.054375168
121	0xbba48ab2	-0.0050214166
122	0xbd8214ed	-0.063516475
123	0x3d828b92	0.06374277
124	0x3cc436ca	0.023951907
125	0xb90529ce	-0.00012699442
126	0x3d4804fd	0.048832882
127	0xbbeeb7fc	-0.0072851162
128	0xbc0fcce4	-0.008776877
129	0xbd7a3232	-0.061083026
130	0xbb5ba9e9	-0.0033518022
131	0xbc701f74	-0.0146559365
132	0xbd65da89	-0.056116614
133	0xbd9c6d3a	-0.07638021
134	0xbd4b4db8	-0.049634665
135	0x3d00912d	0.03138845
136	0x3d73d191	0.05952603
137	0xbd08e513	-0.033421587
138	0x3d6b9998	0.057519525
139	0xbc5cfcf1	-0.01348804
140	0xbceaa5b5	-0.028643468
141	0x3d1b65b6	0.037938796
142	0x3b7fc199	0.0039025305
143	0xbcae292d	-0.021259869
144	0x3c9ab457	0.01888482
145	0x3d4e530d	0.050372172
146	0x3c769f34	0.015052605
147	0x3c2688b7	0.010164431
148	0x3c674e36	0.014117768
149	0x3d787ad0	0.060663998
150	0x3d3b6248	0.045748025
151	0x3d86d263	0.06583097
152	0xbd195616	-0.037435614
153	0xbd3f65b0	-0.046727836
154	0x3cccdbe7	0.025007201
155	0x3ad6760d	0.0016362086
156	0xbd1ae2dd	-0.03781401
157	0xbd7ab309	-0.061205897
158	0x3c92a05c	0.017898731
159	0xbd8a3ce1	-0.06749893
160	0x3cfcc72e	0.030856695
161	0xbd0bd98a	-0.03414301
162	0x3d887619	0.0666315
163	0x3c677f05	0.014129405
164	0x3d5f3be8	0.05450049
165	0x3da25227	0.079258256
166	0xbd175cde	-0.0369538
167	0x3c6828af	0.014169856
168	0xbd112f7a	-0.035445668
169	0xbb58da5f	-0.0033089144
170	0x3d15c624	0.036565915
171	0xbceda9a8	-0.029011562
172	0xbd6b08fa	-0.057381608
173	0xbd723670	-0.059133947
174	0x3d225844	0.039634958
175	0xba5b74e0	-0.0008371603
176	0x3be9e03b	0.007137326
177	0x3d1cb53e	0.038258784
178	0x3d19ebc8	0.037578374
179	0xbcd798a7	-0.026317907
180	0xbd0b27d6	-0.033973537
181	0xbcf97e84	-0.030455835
182	0xbd98b87e	-0.07457064
183	0x3d469fa2	0.04849208
184	0x3cd8c82e	0.02646264
185	0x3c3e5e34	0.011619139
186	0xbcf73591	-0.03017691
187	0x3d11ae73	0.03556676
188	0x3c45a79d	0.012063888
189	0x3d13675f	0.035987254
190	0xbd35e5b8	-0.04440853
191	0x3a2ba5b3	0.00065478234
192	0x3d366445	0.04452922
193	0x3c570a5d	0.013125029
194	0xbc72600e	-0.014793409
195	0x3b96f506	0.004606846
196	0xbcc51227	-0.024056507
197	0x3bf64f4c	0.007516777
198	0x3d19a1d4	0.037507847
199	0xbd95a884	-0.073075324
200	0xbd1c06da	-0.03809247
201	0xbd972f4c	-0.07382068
202	0x3d2fb105	0.04289343
203	0x3c61c8be	0.013780771
204	0xbd98a5f1	-0.07453526
205	0x3a4b91e5	0.00077655754
206	0x3d039744	0.03212668
207	0xbd3233d4	-0.04350646
208	0xbc2fd408	-0.0107317045
209	0xbccfce9c	-0.025367074
210	0x3d69ca59	0.05707774
211	0xbbfd7e6a	-0.007736017
212	0xbc930e80	-0.01795125
213	0xbd7eaf0b	-0.062178653
214	0xbd5f0d88	-0.054456264
215	0x3d2e085d	0.042488445
216	0xbcfa68a8	-0.030567482
217	0x3c0c98d1	0.008581356
218	0x3d1563fa	0.0364723
219	0x3d076589	0.033055816
220	0x3c30c9d4	0.010790307
221	0xbca6c343	-0.02035678
222	0xbc9ccb84	-0.019140013
223	0xbc079fdb	-0.008277859
224	0xbc581cc5	-0.013190453
225	0xbd6c95df	-0.057760116
226	0x3c6be096	0.014396807
227	0xbd065f60	-0.0328058
228	0xbd125898	-0.03572902
229	0xbd33d305	-0.043902416
230	0x3d564395	0.052310545
231	0xbd8cb3be	-0.068702206
232	0x3ccfb4ca	0.025354762
233	0x3cba670a	0.022754211
234	0xbcc07ee0	-0.023497999
235	0xba72b06e	-0.00092578575
236	0xbd7688bb	-0.06018899
237	0x3d89bff2	0.06726064
238	0x3d3651b2	0.044511504
239	0x3d092897	0.033485975
240	0x3ccee01e	0.025253352
241	0xbd557c6a	-0.052120604
242	0x3c783d28	0.0151513
243	0x3cd60ac6	0.026128184
244	0x3d4c04a5	0.049809117
245	0x3cf67370	0.030084342
246	0xbac4c6f2	-0.0015012904
247	0x3d8b575a	0.0680377
248	0xbc15630f	-0.009117856
249	0xbd781b69	-0.060573015
250	0xbd44285e	-0.04789006
251	0xbc232762	-0.00995812
252	0x3d4c7a65	0.049921412
253	0xbc1aa12d	-0.009437841
254	0xbcf20f71	-0.029548379
255	0x3d63e8e4	0.055642024

weight f4 [64]
0	0x3f7dcc48	0.99139833
1	0x3f7ed460	0.9954281
2	0x3f7d9082	0.99048626
3	0x3f7c3d24	0.98530793
4	0x3f7ec7a3	0.9952337
5	0x3f7cbe22	0.9872762
6	0x3f7f54b6	0.99738634
7	0x3f7fa253	0.9985706
8	0x3f7e10dc	0.99244475
9	0x3f7f0a45	0.99625045
10	0x3f7f315a	0.9968468
11	0x3f7dfb3a	0.99211466
12	0x3f7d8091	0.990243
13	0x3f7f375c	0.99693847
14	0x3f7db121	0.990984
15	0x3f7e5a52	0.9935657
16	0x3f80faa6	1.0076492
17	0x3f7e792c	0.99403644
18	0x3f7ee2af	0.9956464
19	0x3f7c67da	0.98595965
20	0x3f7e7382	0.99395
21	0x3f7e5519	0.993486
22	0x3f80012b	1.0000356
23	0x3f7cec3c	0.98797965
24	0x3f7e8814	0.9942639
25	0x3f7d150e	0.9886025
26	0x3f7dd18a	0.99147856
27	0x3f7e3a09	0.99307305
28	0x3f7da30c	0.99076915
29	0x3f7c29cc	0.98501277
30	0x3f7d779a	0.9901062
31	0x3f7ff1b1	0.99978167
32	0x3f7f5177	0.9973368
33	0x3f7e80b9	0.99415165
34	0x3f7e2559	0.9927574
35	0x3f7d2bde	0.9889506
36	0x3f7d8d6b	0.9904391
37	0x3f7ec6cd	0.99522096
38	0x3f7e1f39	0.9926639
39	0x3f7cd9da	0.98769915
40	0x3f7faf3b	0.99876755
41	0x3f7e36d6	0.99302423
42	0x3f7da7e2	0.99084294
43	0x3f7eeeda	0.9958321
44	0x3f7d937f	0.99053186
45	0x3f7e14f9	0.9925075
46	0x3f7e9057	0.99438995
47	0x3f7da4cd	0.9907959
48	0x3f7e4460	0.9932308
49	0x3f7cb8bc	0.9871938
50	0x3f7e70cb	0.9939086
51	0x3f7e989c	0.99451613
52	0x3f7b6087	0.98194164
53	0x3f7f5ca5	0.9975074
54	0x3f7cdac0	0.98771286
55	0x3f7e98b4	0.99451756
56	0x3f7f51f0	0.997344
57	0x3f7e5f04	0.9936373
58	0x3f7fda24	0.9994223
59	0x3f7e0219	0.9922195
60	0x3f7d9d15	0.99067813
61	0x3f7e7d27	0.9940972
62	0x3f7bdfa2	0.9838811
63	0x3f7f19b7	0.9964861

bias f4 [64]
0	0xbc065199	-0.008198165
1	0xbafb03d6	-0.0019150923
2	0xbbf9043c	-0.0075993817
3	0xbc6cb474	-0.01444732
4	0xbb49e307	-0.0030805485
5	0xbc7d690c	-0.01546694
6	0x3a59ed2d	0.0008313235
7	0xba96bd82	-0.001150057
8	0xbba479d5	-0.0050194063
9	0xbb6f0781	-0.0036472979
10	0xbb2784e7	-0.0025561394
11	0xbbe223a7	-0.0069012227
12	0xbbf248fb	-0.007393954
13	0xbbbd5b5e	-0.005778714
14	0xbc1beb58	-0.00951656
15	0xbc1fe59e	-0.009759335
16	0x3bb96203	0.005657436
17	0xbaec2d4a	-0.0018018868
18	0xb9c90994	-0.00038344844
19	0xbc34c14f	-0.0110324165
20	0xbbadd2e7	-0.0053046825
21	0xbbe0dc9d	-0.0068622367
22	0x3ad52f78	0.0016264757
23	0xbc2daf22	-0.010600837
24	0xbb553f5c	-0.0032538986
25	0xbc14bef8	-0.009078734
26	0xbbd4509e	-0.006479337
27	0xbc24c922	-0.010057719
28	0xbc4c28a1	-0.012460859
29	0xbc2553e6	-0.010090804
30	0xbbfd75c8	-0.007734988
31	0x3a645f95	0.00087117526
32	0xb947a3ef	-0.00019039189
33	0xbbd65167	-0.0065404656
34	0xbbe5e729	-0.007016082
35	0xbbb5d13c	-0.0055486243
36	0xbb2007e0	-0.0024418756
37	0xba6202a2	-0.0008621608
38	0xbc0da3d1	-0.008645014
39	0xbc1667e6	-0.009180045
40	0x39871b29	0.00025769442
41	0xbbae2a1a	-0.0053150775
42	0xbbf4d2cf	-0.0074714194
43	0xbb3a4b4e	-0.0028426233
44	0xbb632314	-0.003465836
45	0xbbfbb4c2	-0.00768146
46	0xb95f1415	-0.00021274418
47	0xbb821f57	-0.003971021
48	0xbbb1314a	-0.005407487
49	0xbc0a7b0c	-0.008452188
50	0xbad799c0	-0.0016449019
51	0xbb82f055	-0.003995935
52	0xbb87b76d	-0.004141739
53	0x38124b64	3.4879326e-05
54	0xbc4ff3be	-0.01269239
55	0xbb843a2d	-0.0040352554
56	0xba8e8388	-0.001087294
57	0xbbb5a103	-0.0055428757
58	0xbbd60dc9	-0.006532405
59	0xbbafceeb	-0.0053652427
60	0xbbfa33f1	-0.0076355864
61	0xbbc49756	-0.005999486
62	0xbc509326	-0.012730395
63	0xbb0ad03d	-0.0021181249

running_mean f4 [64]
0	0xbe2df912	-0.16989544
1	0xbe7681f2	-0.24073008
2	0x3f52cda6	0.82345045
3	0xbe69eac1	-0.22843458
4	0xbd208112	-0.03918559
5	0x3dd2c51d	0.102915026
6	0x3f126ffb	0.5720212
7	0x3ed79b60	0.4211073
8	0xbec6fa55	-0.38862863
9	0xbef4d057	-0.478152
10	0x3e251186	0.16119966
11	0xbf1db5f6	-0.61605775
12	0x3dad71b0	0.0846895
13	0xbf0168b2	-0.5055038
14	0xbf01250d	-0.5044716
15	0xbe11e538	-0.14247596
16	0xbebaee51	-0.36509946
17	0x3f80949d	1.0045353
18	0x3f5aca7a	0.85465205
19	0x3f20e588	0.62850237
20	0xbe3850d6	-0.17999586
21	0xbeb0e02e	-0.34546036
22	0xbeedee9a	-0.464711
23	0x3ed3bbca	0.4135421
24	0xbeb226c8	-0.34795213
25	0x3dbedd3a	0.09319539
26	0xbda6230a	-0.08112152
27	0x3d374127	0.04473987
28	0xbe1edada	-0.15513173
29	0xbd52986e	-0.0514149
30	0x3e1ee766	0.15517959
31	0xbed242da	-0.4106663
32	0xbe2a029a	-0.16602555
33	0xbd8bfe4e	-0.06835614
34	0x3c35fe0e	0.011107935
35	0xbe6f4a5c	-0.2336821
36	0x3ef2c9e9	0.4741967
37	0xbe5cf9fb	-0.21579735
38	0xbdfd647e	-0.12372683
39	0xbe8c96b5	-0.2745873
40	0xbeae6e45	-0.34068504
41	0xbe9904bd	-0.29886428
42	0xbec0a129	-0.37622955
43	0x3eaa9376	0.3331563
44	0xbede8d08	-0.43466973
45	0x3d49f4cb	0.04930572
46	0x3f11159e	0.5667361
47	0xbedd367a	-0.43205625
48	0xbea5fd8e	-0.3242001
49	0xbdf20a17	-0.11818331
50	0x3ec4c52e	0.38431686
51	0x3f4f6896	0.8101896
52	0x3e3492f5	0.17634185
53	0x3f14f85f	0.58191484
54	0xbe94bb4b	-0.29049143
55	0xbee55463	-0.44790944
56	0xbecf4d97	-0.40488884
57	0xbe9012f4	-0.2813946
58	0x3dc39307	0.095495276
59	0x3f0863d4	0.53277326
60	0x3e59ce0a	0.21270004
61	0xbf035e1a	-0.5131546
62	0x3ecc2fe0	0.39880276
63	0x3f37e18e	0.71828544

running_var f4 [64]
0	0x3e57ae30	0.21062541
1	0x3e01760c	0.12642688
2	0x3e996f06	0.29967517
3	0x3e46b9fa	0.19406882
4	0x3dedee22	0.11617686
5	0x3e49a10d	0.19690342
6	0x3ecf435e	0.40481085
7	0x3e6816f5	0.22665007
8	0x3e7e7f55	0.24853261
9	0x3e5afec3	0.21386246
10	0x3e46eb94	0.19425803
11	0x3e99e1a0	0.3005495
12	0x3e496513	0.19667463
13	0x3eb88b2b	0.36043677
14	0x3eb606a4	0.3555194
15	0x3e29e473	0.16591053
16	0x3e9d5d2d	0.3073515
17	0x3f30cf43	0.69066256
18	0x3f35e951	0.7105914
19	0x3e88fc3f	0.26754948
20	0x3e81fc8e	0.25387996
21	0x3e4462c4	0.19178301
22	0x3e49058b	0.1963102
23	0x3e70266b	0.23452155
24	0x3e4b9bf8	0.19883716
25	0x3e817936	0.2528779
26	0x3e81aab3	0.25325546
27	0x3e0584bf	0.1303892
28	0x3e40279e	0.18765113
29	0x3e2cd29f	0.1687722
30	0x3e145613	0.1448596
31	0x3ebf576b	0.37371382
32	0x3e827268	0.2547791
33	0x3e225008	0.15850842
34	0x3ec9daec	0.39424837
35	0x3ea1ad8c	0.31577718
36	0x3e912410	0.28347826
37	0x3e1a4384	0.15064818
38	0x3e57703c	0.21038908
39	0x3e236c71	0.15959336
40	0x3e3eeae9	0.18644299
41	0x3e40dac9	0.1883346
42	0x3e451b49	0.1924869
43	0x3ea6bf53	0.32567844
44	0x3e68c22b	0.22730319
45	0x3e3f114e	0.18658945
46	0x3e196131	0.14978482
47	0x3e8d01c4	0.2754041
48	0x3ea91892	0.33026558
49	0x3e7543c8	0.23951638
50	0x3ea63e9f	0.3246965
51	0x3ec2209b	0.379155
52	0x3e042e83	0.12908368
53	0x3ecd4e3a	0.40098745
54	0x3e1b11dc	0.15143532
55	0x3e3229c6	0.17398748
56	0x3ecd2ab0	0.4007163
57	0x3e375f43	0.17907433
58	0x3de65445	0.11246542
59	0x3e9cd1bf	0.30628774
60	0x3e2ea3cd	0.17054673
61	0x3e9795da	0.29606515
62	0x3ed86b65	0.42269436
63	0x3f17f7d6	0.5936254

weight f4 [256, 192]
0	0xbd3dab64	-0.04630603
1	0x3d79df59	0.061004017
2	0xbcfc1044	-0.030769475
3	0xbd670cf3	-0.056408834
4	0xbd8fc3e4	-0.07019785
5	0x3d8b249d	0.06794093
6	0x3d161e54	0.036650017
7	0x3d6d2eca	0.05790595
8	0xbcb2fb11	-0.021848233
9	0x3ce01b18	0.02735667
10	0xbd53e47f	-0.051731583
11	0xbd88173b	-0.06645056
12	0xbd3eaaf4	-0.046549752
13	0xbcfd08f0	-0.03088805
14	0xbd88dea0	-0.06683087
15	0xbcdaa980	-0.026692152
16	0x3d03dd45	0.03219344
17	0x3c924368	0.017854407
18	0x39dd9e6f	0.00042270447
19	0x3bac4bce	0.00525806
20	0xbc85e06b	-0.016342362
21	0xbd0d7216	-0.03453263
22	0xbb8826e9	-0.004155029
23	0xbd6c16e6	-0.057639025
24	0x3d43d685	0.047812004
25	0x3c37a388	0.0112084225
26	0x3d5d1270	0.05397266
27	0xbbe37f40	-0.0069426596
28	0xbc32a0c9	-0.010902592
29	0x3be14a41	0.006875307
30	0x3d117b6f	0.035518106
31	0xbd7cb884	-0.061699405
32	0xbd5564fd	-0.052098263
33	0xbd5efe28	-0.0544416
34	0xbbff5f87	-0.00779337
35	0xba2f798c	-0.0006693832
36	0xbcf00639	-0.029299842
37	0xbd0d83ff	-0.03454971
38	0x3ce3950c	0.027781032
39	0xbc92664c	-0.017871045
40	0x3d21c1cb	0.039491456
41	0xbd74ad66	-0.059735678
42	0xbd125b5e	-0.035731666
43	0x3d09dad4	0.033655956
44	0xbd4b8621	-0.049688462
45	0x3bbc356a	0.005743672
46	0xbd12f4f1	-0.035878126
47	0x3c14662e	0.009057565
48	0x3ad4861c	0.0016214284
49	0xbbbdc0bd	-0.0057907985
50	0xbc9aaecf	-0.018882183
51	0x3ca9b7e4	0.020717569
52	0x3c70c95f	0.014696448
53	0xbc95f03e	-0.018303033
54	0x3cd081c2	0.025452498
55	0x3cd10255	0.025513807
56	0x3d4f67fb	0.050636273
57	0x3ceb3e3c	0.0287162
58	0x3ccef40b	0.025262853
59	0x3d615539	0.055012915
60	0x3d00297a	0.031289555
61	0x3bdb0ee3	0.0066851242
62	0xbd0d12f0	-0.03444189
63	0x3d6c02aa	0.05761973
64	0x3c104f8e	0.00880803
65	0xbd82c574	-0.063853174
66	0xbd2485a7	-0.040166523
67	0x3c56dac3	0.01311368
68	0x3c2cdf27	0.010551251
69	0xbd8ca438	-0.0686726
70	0xbcd57add	-0.026059562
71	0xbb5187de	-0.0031971852
72	0xbd110381	-0.035403732
73	0xbcd3e997	-0.02586822
74	0xbbbc1de5	-0.0057408684
75	0xbd360071	-0.044434015
76	0x3c3c6c20	0.011500388
77	0x3b3ec47c	0.0029108813
78	0xbd8f3e6b	-0.06994327
79	0xbd634723	-0.055487763
80	0xbd95457e	-0.07288645
81	0xbd7e211e	-0.0620433
82	0xbd973524	-0.07383183
83	0x3d805cbd	0.062676884
84	0x3d00ab19	0.03141317
85	0x3d3523d2	0.044223614
86	0x3c9c64e0	0.01909107
87	0x3cfff722	0.031245772
88	0xbd826807	-0.06367498
89	0xbd8d9a26	-0.06914167
90	0xbcb41053	-0.02198044
91	0xbd037b09	-0.032099757
92	0xbd864f32	-0.06558074
93	0x3c65a500	0.01401639
94	0xbd50bf24	-0.050963536
95	0xbb3143ab	-0.002704839
96	0x3d667351	0.056262318
97	0xbd6583f8	-0.05603406
98	0x3d3285b6	0.043584548
99	0x3ceeb679	0.029139744
100	0x3d18e336	0.03732606
101	0xbc271bf4	-0.010199536
102	0x3d24124f	0.040056523
103	0x3d4dee13	0.050275873
104	0x3d5bffb5	0.053710658
105	0x3cda8e9e	0.026679333
106	0xbce03e99	-0.027373599
107	0xbd6de144	-0.05807616
108	0x3d5b6122	0.05355943
109	0xbcedbff5	-0.029022196
110	0xbcfec5e8	-0.031100228
111	0x3d724c59	0.059154842
112	0x3d7f35e8	0.06230727
113	0x3d4143e2	0.04718388
114	0x3d8d13b5	0.068885244
115	0x3d75a25d	0.059969295
116	0x3d5b9454	0.053608254
117	0xbd00166e	-0.03127139
118	0x3d3198e3	0.043358695
119	0x3cb917ca	0.022594351
120	0x3d821afa	0.063528016
121	0xbd03494a	-0.032052316
122	0xbd945a7b	-0.0724382
123	0x3d0f127e	0.034929745
124	0xbc60ab74	-0.013712753
125	0x3d4a43b2	0.049380966
126	0x3b1798bc	0.0023131808
127	0x3abe61fc	0.0014525051
128	0xbd70b2fb	-0.05876444
129	0xbc0e060a	-0.008668432
130	0x3cb00aa3	0.021489447
131	0xbc3586ee	-0.011079533
132	0xbd46bae7	-0.048518088
133	0x3d87f014	0.06637588
134	0xbd569114	-0.05238445
135	0x3d657e19	0.05602846
136	0x3c99bfcf	0.01876822
137	0xbc3f701d	-0.011684445
138	0x3cc464a2	0.023973767
139	0xbc23be66	-0.009994125
140	0xbd18ee89	-0.03733686
141	0xbd31cb5b	-0.043406826
142	0x3d319152	0.04335148
143	0xbd91549e	-0.070962176
144	0x3d171bd4	0.036891773
145	0xbd0aefe5	-0.033920188
146	0x3c66982c	0.014074367
147	0xbd1091f2	-0.035295434
148	0x3c195605	0.009358888
149	0x3d6abd61	0.057309512
150	0x3d022733	0.031775665
151	0xbc159cb8	-0.009131603
152	0x3ccce8ff	0.025013445
153	0x3d24ba15	0.040216524
154	0xbcacff97	-0.021117968
155	0x3d898164	0.067141324
156	0xbd3afcb7	-0.045651164
157	0x3cbc771f	0.02300602
158	0x3bdd73bd	0.006758182
159	0x3cca6100	0.024704456
160	0xbd503ae0	-0.050837398
161	0x3d61d7e3	0.055137526
162	0x3d1c807b	0.038208466
163	0xba8d0d5f	-0.0010761431
164	0xbd13379d	-0.03594171
165	0xbc73618b	-0.014854799
166	0xbd909156	-0.07058971
167	0x3cf3805e	0.029724296
168	0x3d8cc073	0.06872644
169	0xbd496370	-0.049167097
170	0xbd4488ab	-0.0479819
171	0xbbbdc482	-0.005791248
172	0x3ce2164a	0.027598519
173	0x3d370dcd	0.044690896
174	0x3d01f105	0.031723995
175	0x3d50475b	0.0508493
176	0x3b232146	0.0024891659
177	0x3cd9d36e	0.026590075
178	0x3d51adc4	0.051191106
179	0xbd834d57	-0.06411236
180	0x3c7c0772	0.0153826345
181	0x3d043c8e	0.032284312
182	0xbd5045ee	-0.05084794
183	0xbd343da7	-0.04400411
184	0xbafd2024	-0.0019311947
185	0x3cdf8297	0.02728395
186	0x3d209d5c	0.03921257
187	0x3c6f1f92	0.014594929
188	0x3d58ec92	0.052959986
189	0x3d05f3f1	0.032703344
190	0x3c2ec0e0	0.010666102
191	0x3d23d0a7	0.03999391
192	0xbce35717	-0.027751489
193	0x3bee5a55	0.007273952
194	0xbd8ba72b	-0.06818994
195	0xbc5e6ac9	-0.013575264
196	0xbd867a81	-0.065663345
197	0xba87afeb	-0.001035211
198	0x3cf9b993	0.030483996
199	0x3baf70bd	0.0053540156
200	0xbd212dde	-0.039350383
201	0x3d761908	0.060082465
202	0xbc6164c4	-0.013756935
203	0x3d70b660	0.058767676
204	0xb9fdacbe	-0.00048384623
205	0x3cb672ac	0.022271477
206	0xbd1fba08	-0.038995773
207	0x3cf2b724	0.029628344
208	0xbd814591	-0.06312097
209	0x3c9a3098	0.018822
210	0xbd84fb98	-0.064933
211	0x3cfe59eb	0.031048736
212	0x3d1aa891	0.037758414
213	0xbd8243da	-0.06360598
214	0x3c8ddc10	0.017316848
215	0x3cc66ba1	0.024221243
216	0xbd5d9a8a	-0.054102458
217	0x3d8f5379	0.06998343
218	0xbcc6e2e1	-0.024278106
219	0x3d311243	0.043230306
220	0x3d4ed884	0.050499454
221	0xbd38dc4e	-0.045131974
222	0x3d73e59b	0.05954514
223	0xbd266f18	-0.04063329
224	0x3d424285	0.04742672
225	0x3d90011e	0.07031463
226	0xbbdea48e	-0.006794519
227	0x3cd7a43f	0.026323436
228	0x3ceded55	0.029043833
229	0xbd4a2d6c	-0.049359724
230	0xbd924a31	-0.07143057
231	0x3d2303b3	0.03979845
232	0xbd1b7f17	-0.037963
233	0x3d0bd1d0	0.03413564
234	0xbd5b6568	-0.053563505
235	0x3cb44785	0.02200676
236	0xbd60f86c	-0.054924414
237	0xbd113522	-0.035451062
238	0x3d6e2e86	0.058149837
239	0xbcabbec6	-0.020964991
240	0x3d8983b9	0.06714577
241	0xbd737787	-0.059440162
242	0x3d047151	0.03233463
243	0xbd21b86e	-0.039482526
244	0xbc0d0294	-0.008606572
245	0x3d667181	0.05626059
246	0x3ca9ab4f	0.02071157
247	0xbcbd2064	-0.023086734
248	0xbd705b43	-0.058680784
249	0x3ced122b	0.028939327
250	0x3d3f2549	0.046666417
251	0xbc6a5aac	-0.014303844
252	0xbd2434d5	-0.040089447
253	0xbd8b350f	-0.067972295
254	0xbc421779	-0.011846417
255	0xbc58f422	-0.0132418
