model/backups/charCNN-large-overfitted.pt (torch, 444376 bytes, 35 tensors)

weight f4 [32, 27, 3]
0	0x3d81729b	0.063206874
1	0xbd9ba59a	-0.07599945
2	0xbd300a80	-0.042978764
3	0xbdacd604	-0.08439258
4	0x3da4028f	0.080083005
5	0x3d657dcb	0.05602817
6	0xbe3ca374	-0.18421727
7	0x3e131373	0.14362888
8	0x3dbe0ecc	0.09280166
9	0x3df45f2c	0.11932215
10	0x3c39717c	0.011318561
11	0x3e42bb72	0.19016817
12	0xbdfa862a	-0.12232621
13	0xbd31fd57	-0.043454494
14	0x3d4d22d2	0.050082035
15	0x3de7e97b	0.1132383
16	0x3d53195c	0.051537856
17	0xbd532943	-0.051553022
18	0x3cf0b75f	0.029384313
19	0x3dcc35a5	0.099711694
20	0x3e01bb34	0.12669069
21	0xbdfdcd00	-0.12392616
22	0x3e082174	0.13294011
23	0x3decb467	0.115578465
24	0x3d249415	0.040180285
25	0x3ccb6b49	0.024831431
26	0xbce342e7	-0.027741862
27	0x3df609af	0.12013566
28	0xbe2002ce	-0.1562607
29	0x3cf46d2d	0.029837215
30	0xbdd79ce3	-0.10527971
31	0x3c9b066a	0.018923957
32	0xbb4c06bd	-0.0031131946
33	0x3cdbc1c3	0.026825791
34	0xbde697ab	-0.11259397
35	0x39f86199	0.00047374962
36	0xbd8ece96	-0.06972997
37	0x3ddfa120	0.10919404
38	0x3c984498	0.018587396
39	0xbdb1b88e	-0.08677779
40	0x3e039ab4	0.12851983
41	0xbcda5709	-0.02665283
42	0xbdfa7691	-0.12229646
43	0xbd84ddbb	-0.06487604
44	0xbdc92cb5	-0.0982298
45	0x3d63d7a2	0.055625565
46	0xbdd0acfb	-0.101892434
47	0xbdcb6e8e	-0.09933196
48	0xbe4ba82d	-0.19888373
49	0xbbe2868c	-0.006913012
50	0x3caec1d4	0.021332659
51	0xbc0a4cb4	-0.008441139
52	0xbd9bbf7d	-0.07604883
53	0xbdff51c5	-0.12466768
54	0x3d01664c	0.0315917
55	0xbd617d7c	-0.05505131
56	0xbd182aa7	-0.03715005
57	0xbde76e84	-0.11300376
58	0x3d471ba4	0.048610345
59	0x3dc5a7b5	0.09651128
60	0xbe449be6	-0.19200096
61	0xbce90c5e	-0.02844828
62	0x3da0b6fd	0.07847402
63	0xbde0d345	-0.109777965
64	0x3d92efc1	0.07174636
65	0xbda3bb62	-0.07994725
66	0x3c5f1fb1	0.013618396
67	0x3d850ed3	0.06496968
68	0xbddc2a64	-0.10750273
69	0xbd78d75c	-0.060752258
70	0x3d49741b	0.049182992
71	0x3ba17495	0.0049272277
72	0xbe45687c	-0.19278139
73	0xbe0c8e70	-0.1372621
74	0x3dd314c1	0.10306693
75	0x3d3c5165	0.04597606
76	0xbd88aa03	-0.06673052
77	0xbdcf9746	-0.10136275
78	0x3d81ee39	0.063442655
79	0xbd055375	-0.032550294
80	0xbc58c732	-0.013231086
81	0xbd3bf980	-0.04589224
82	0xbde34550	-0.11097205
83	0x3d7f0302	0.062258728
84	0x3cbbfb1e	0.02294689
85	0xbe4a392f	-0.19748376
86	0xbdc09589	-0.094035216
87	0xbc227841	-0.009916366
88	0xbe277159	-0.16351832
89	0x3dff21fe	0.12457655
90	0xbe6df07a	-0.23236266
91	0x3dbaa17d	0.09112833
92	0xbe129082	-0.14312938
93	0xbd8c8fc9	-0.06863362
94	0x3cd56129	0.026047306
95	0xbdae8b65	-0.08522681
96	0xbd94b308	-0.0726071
97	0xbdf754bb	-0.12076708
98	0x3e0208d8	0.12698686
99	0x3d19de3e	0.037565462
100	0xbdf56cd4	-0.11983648
101	0x3ddecf71	0.1087941
102	0x3cc30bc6	0.023809325
103	0x3c1f9ae1	0.009741516
104	0xbe0891d6	-0.13336882
105	0xbdb2e752	-0.08735527
106	0x3dea73b2	0.114478484
107	0xbd146679	-0.036230538
108	0xbd9d512a	-0.076814964
109	0x3cf64f59	0.030067133
110	0xbd7624d5	-0.06009372
111	0xbe2f6b74	-0.17130834
112	0xbe312481	-0.17299081
113	0xbd08c181	-0.033387665
114	0xbde15c9f	-0.11003994
115	0xbe0b8ce8	-0.1362797
116	0x3ceedb12	0.029157195
117	0x3e14c508	0.14528286
118	0xbc2c964d	-0.010533881
119	0xbd0b5511	-0.034016673
120	0xbd8fc29b	-0.0701954
121	0x3b55fef8	0.0032653194
122	0x3d48c196	0.049012743
123	0x3d2c0b2a	0.042002834
124	0xbd959d03	-0.07305338
125	0xbd64a7a9	-0.055823956
126	0xbd08c97d	-0.03339528
127	0x3d51aaaf	0.051188167
128	0xbd931229	-0.07181198
129	0x3d9cd9c4	0.07658723
130	0xbd6bfc1f	-0.05761349
131	0x3caa0d67	0.020758344
132	0xbdb64750	-0.089003205
133	0x3a9ee141	0.0012121574
134	0xbe32619b	-0.17420046
135	0xbe465d20	-0.19371462
136	0x3dc36313	0.09540381
137	0xbda8bb1e	-0.08238815
138	0xbc9ca89a	-0.019123364
139	0x3dd4e644	0.10395482
140	0x3d2d9b3c	0.04238437
141	0x3dc8525b	0.09781333
142	0x3d89e56b	0.06733211
143	0x3da984c8	0.08277279
144	0xbdc94526	-0.09827642
145	0x3c909b48	0.017652169
146	0x3d841dc8	0.06450993
147	0x3d8b45a4	0.06800392
148	0x3e13df53	0.1444066
149	0x3cc32cd5	0.023825089
150	0xbdf2ffe8	-0.118652165
151	0xbde68b53	-0.11257043
152	0x3c42cf65	0.011890267
153	0x3db7c68d	0.089734174
154	0x3ceb6ce1	0.028738441
155	0x3d89017a	0.06689735
156	0x3dd1945a	0.10233374
157	0xbcbb1a9c	-0.022839837
158	0x3cd7f791	0.026363166
159	0x3dec0055	0.11523501
160	0xbd7e9b1b	-0.06215964
161	0xbd031b89	-0.03200868
162	0x3de30573	0.11085024
163	0xbd12f06e	-0.035873823
164	0xbd9b0432	-0.075691596
165	0x3e08850d	0.13332005
166	0x3c854bd3	0.016271507
167	0x3d7d4b96	0.061839662
168	0x3e041ed6	0.12902388
169	0xbdaec677	-0.08533948
170	0xbb4fe042	-0.0031719361
171	0xbdb90972	-0.09035005
172	0xbdd021c8	-0.10162693
173	0x3d80484a	0.06263788
174	0x3ce2feb6	0.027709346
175	0x3d58c1f7	0.052919354
176	0x3deba9de	0.11507009
177	0xbd834123	-0.06408908
178	0x3da1c63a	0.07899137
179	0xbce9f9a0	-0.028561413
180	0xbe552e00	-0.20818329
181	0x3dad28fc	0.08455083
182	0x3d09a9ca	0.03360919
183	0x3d1181cf	0.035524186
184	0xbe7cc85f	-0.2468581
185	0x3bc7be3e	0.0060956767
186	0xbd82156f	-0.063517444
187	0x3d328d76	0.04359194
188	0x3d04ca5a	0.03241954
189	0xbdea52f6	-0.11441605
190	0xbd859322	-0.06522204
191	0xbe1c04a7	-0.1523615
192	0xbd664225	-0.056215424
193	0xbe01bbcf	-0.126693
194	0xbe72a7c0	-0.23696804
195	0x3e3b9fe3	0.1832271
196	0x3dbf4038	0.09338421
197	0xbdb83fd7	-0.089965515
198	0x3dc3f460	0.09568095
199	0xbd935bcd	-0.07195244
200	0x3dbfea47	0.09370857
201	0xbd0d2e0e	-0.03446775
202	0x39deb34c	0.00042476726
203	0xbe5d6bb7	-0.21623121
204	0xbd77f445	-0.060535688
205	0xbdc178bb	-0.09446856
206	0xbd60fe99	-0.054930303
207	0xbd338b06	-0.043833755
208	0xbd99931b	-0.07498761
209	0x3d16dc26	0.036831044
210	0xbd128051	-0.035766903
211	0xbd56f509	-0.052479777
212	0x3dc8a292	0.09796633
213	0xbdf5b0fe	-0.11996649
214	0xbd180143	-0.03711058
215	0x3dc1b7b7	0.09458869
216	0x3d76bec8	0.060240537
217	0x3dc1b721	0.09458757
218	0x3dca85b2	0.098887816
219	0xbe00c928	-0.12576735
220	0xbe0633ce	-0.131057
221	0xbda8d5e6	-0.08243923
222	0x3dde8932	0.10866012
223	0x3c21259a	0.009835625
224	0xbe1006e9	-0.14065136
225	0x3df2f869	0.11863787
226	0xbdb1a3c7	-0.08673816
227	0xbe095db7	-0.13414656
228	0xbd0300ad	-0.031983066
229	0x3d166739	0.036719535
230	0xbc159144	-0.009128872
231	0x3da6d9e9	0.08147032
232	0x3db03fa6	0.0860589
233	0xbdeaeeda	-0.114713386
234	0x3dfe179d	0.124068476
235	0xbddd98e3	-0.108201765
236	0xbcb80740	-0.022464395
237	0x3e152638	0.1456536
238	0xbe8fe434	-0.28103793
239	0x3cc898d4	0.024486937
240	0xbe67087c	-0.2256183
241	0xbe032b03	-0.12809376
242	0x3baeb368	0.0053314455
243	0xbce02164	-0.027359672
244	0xbd97aecc	-0.07406387
245	0xbc80cc24	-0.015722342
246	0xbe00e1d2	-0.12586144
247	0x3d5f723c	0.0545523
248	0xbdd25928	-0.102709115
249	0xba52c5d9	-0.0008040346
250	0xbd172341	-0.036898855
251	0x3de348bc	0.11097857
252	0xbdd276ce	-0.102765664
253	0x3dc7eb18	0.097616374
254	0x3db848e5	0.089982785
255	0xbd8782cc	-0.066167444

weight f4 [32]
0	0x3f841869	1.0319949
1	0x3f755c2b	0.9584376
2	0x3f71157a	0.94173396
3	0x3f7fdd29	0.9994684
4	0x3f7f222b	0.9966151
5	0x3f8a99a7	1.0828141
6	0x3f7d7950	0.99013233
7	0x3f85ff77	1.0468587
8	0x3f7823df	0.96929735
9	0x3f819e9e	1.0126531
10	0x3f8368a0	1.0266304
11	0x3f822ff0	1.0170879
12	0x3f7c04c4	0.9844477
13	0x3f8877d1	1.0661565
14	0x3f7c9c8b	0.98676366
15	0x3f736015	0.95068485
16	0x3f81d1e8	1.0142183
17	0x3f836e57	1.0268048
18	0x3f7f91ae	0.99831665
19	0x3f7efb4a	0.99602187
20	0x3f8335cf	1.0250796
21	0x3f828e38	1.0199652
22	0x3f7307aa	0.9493357
23	0x3f845918	1.0339689
24	0x3f7c1fab	0.9848582
25	0x3f7cce71	0.98752505
26	0x3f828f68	1.0200014
27	0x3f700d47	0.9377026
28	0x3f84a28a	1.0362103
29	0x3f84b775	1.0368487
30	0x3f78d045	0.97192794
31	0x3f778e6b	0.9670169

bias f4 [32]
0	0xba89d87d	-0.0010516789
1	0xbd199b06	-0.037501357
2	0x3d0cc5b4	0.034368232
3	0xbd36cbe2	-0.04462803
4	0xbcff2c62	-0.031149093
5	0x3d16a605	0.036779422
6	0xbcbfdae6	-0.023419809
7	0xbd4d53ab	-0.05012862
8	0x3ab50134	0.0013809563
9	0x3cd8e0be	0.026474353
10	0xbd90df66	-0.0707386
11	0xbc41f9e2	-0.011839362
12	0xbce42dab	-0.027853807
13	0xbdb361fc	-0.087589234
14	0x3c83afe0	0.016075075
15	0xbd43d645	-0.047811765
16	0xbd6e3743	-0.05815817
17	0xbcb2100b	-0.021736166
18	0x3cb229c5	0.021748433
19	0xbda15dbc	-0.078792065
20	0x3d886250	0.066593766
21	0xbd3e634e	-0.046481423
22	0x3d962f89	0.07333285
23	0xbca71022	-0.020393435
24	0x3db872eb	0.09006294
25	0x3c061a1a	0.008184934
26	0xbbe0c282	-0.0068591246
27	0xba3b390a	-0.00071419834
28	0xbd189057	-0.03724703
29	0xbd8495fb	-0.06473919
30	0x3cd7e7fd	0.026355738
31	0x3c8f65a4	0.01750452

running_mean f4 [32]
0	0xbc09bc4d	-0.008406711
1	0xbc921464	-0.017831989
2	0xbc9df117	-0.01928
3	0xbab1cd4d	-0.0013565213
4	0xbcc54992	-0.024082933
5	0xbbb5cd02	-0.0055481205
6	0x3bf89e18	0.0075872056
7	0xbd099e7e	-0.033598416
8	0xbc3d63a3	-0.0115594
9	0xbc535333	-0.012898254
10	0xbc3d905c	-0.0115700625
11	0xbcce8a6b	-0.025212487
12	0xbb813f1c	-0.003944291
13	0xbc4ee346	-0.012627428
14	0x3c38fb7a	0.011290425
15	0x3bad4d46	0.0052887527
16	0x3ba07ecf	0.0048979293
17	0x3c431c92	0.011908667
18	0xbc93545b	-0.01798456
19	0xbbee414d	-0.007270968
20	0xbd029913	-0.031884264
21	0xbb41db42	-0.002958015
22	0x3c1a51e4	0.009418938
23	0xbc133bc7	-0.00898642
24	0xbb933f49	-0.004493628
25	0xbcf366eb	-0.029712161
26	0xbc5f32ce	-0.013622953
27	0x3b8b6462	0.00425391
28	0xbccb9d9e	-0.024855431
29	0x3c815cfa	0.015791405
30	0xbb23c500	-0.0024989247
31	0x3c4041b9	0.0117344195

running_var f4 [32]
0	0x3c1ca827	0.009561575
1	0x3c22f5e1	0.009946317
2	0x3c2641f7	0.010147563
3	0x3c0cec5c	0.008601274
4	0x3c01a7a4	0.007913504
5	0x3c042b9d	0.008067039
6	0x3c0e7d24	0.008696828
7	0x3c2040eb	0.009781103
8	0x3be258f3	0.006907576
9	0x3c26a2c7	0.010170645
10	0x3c10546f	0.008809193
11	0x3c12f566	0.00896964
12	0x3bf210e4	0.0073872674
13	0x3beed651	0.007288732
14	0x3bf5ea86	0.007504764
15	0x3c0c89b7	0.008577756
16	0x3c00054b	0.007813762
17	0x3bfa4546	0.0076376526
18	0x3c0ebb44	0.00871164
19	0x3c085bfa	0.00832271
20	0x3c27ac9c	0.010234024
21	0x3c0ef518	0.008725427
22	0x3bde62fa	0.0067867013
23	0x3be48815	0.00697423
24	0x3c0a74af	0.008450671
25	0x3c2b96c7	0.01047296
26	0x3c0ef2a0	0.0087248385
27	0x3c03aa05	0.008036141
28	0x3c0dce19	0.008655095
29	0x3c06a276	0.008217445
30	0x3bbd6c6e	0.005780748
31	0x3c069efd	0.008216617

weight f4 [32, 32, 3]
0	0x3dd96711	0.106153615
1	0x3db824a8	0.089913666
2	0xbdc4b89e	-0.096055254
3	0x3df8b146	0.12143187
4	0x3c896dc9	0.016775982
5	0x3da0d5e8	0.078532994
6	0x3d801663	0.0625427
7	0xbd92c9bd	-0.07167385
8	0xbd00363e	-0.03130173
9	0xbdc1dd41	-0.09466029
10	0x3da11f85	0.0786734
11	0xbd93b952	-0.072130814
12	0x3d8464ce	0.064645395
13	0xbde7fc8a	-0.11327465
14	0x3d4821e0	0.04886043
15	0x3c8f5d29	0.017500477
16	0x3d9f7afa	0.07787128
17	0xbd9042e4	-0.070440084
18	0xbd7d2943	-0.06180693
19	0x3caee605	0.021349916
20	0x3d74ac1d	0.059734453
21	0xbd538ae4	-0.05164613
22	0xbdb6dfcb	-0.08929404
23	0xbc808cf0	-0.015692204
24	0xbd990124	-0.07470921
25	0x3dccd6da	0.10001917
26	0xbcb21090	-0.021736413
27	0x3d100540	0.035161257
28	0x3dcfb631	0.10142172
29	0xbcb9fec3	-0.022704488
30	0x3d1f2f7c	0.038863644
31	0x3d69351d	0.05693542
32	0xbda7a4ad	-0.08185706
33	0xbd0c3c47	-0.034237172
34	0xbe24e1f6	-0.16101822
35	0xbda1f5cb	-0.079082094
36	0xbcea3814	-0.028591193
37	0x3ccd58bf	0.025066731
38	0x3dcf9760	0.10136294
39	0xbc36e67d	-0.011163351
40	0x3dce0b4d	0.10060749
41	0xbd22363f	-0.039602514
42	0xbe01b305	-0.12665947
43	0x3e14b8d1	0.14523627
44	0x3e087cf4	0.13328916
45	0xbbfde25f	-0.007747933
46	0xbcaa4636	-0.020785432
47	0xbd738bc6	-0.05945947
48	0x3b94162c	0.0045192447
49	0x3d80b518	0.06284541
50	0xbdef9a25	-0.116993226
51	0xbe2c8d3e	-0.16850755
52	0x3e030089	0.12793173
53	0xbc73f911	-0.014890925
54	0x3e31641c	0.17323345
55	0x3b08ace5	0.0020855006
56	0x3df2d735	0.11857454
57	0x3d2dcd6a	0.042432226
58	0x3dc8d459	0.09806127
59	0xbdbb43b8	-0.09143776
60	0xbd599c4a	-0.053127564
61	0xbccf6873	-0.02531836
62	0xbdb2b05b	-0.087250434
63	0x3d683d04	0.056698814
64	0x3c5bde34	0.013419677
65	0xbd14038b	-0.03613619
66	0x3a34092b	0.0006867821
67	0x3da26fd1	0.079314835
68	0x3d92639e	0.07147907
69	0xbd8fcf3e	-0.0702195
70	0xbbf8b4b9	-0.007589903
71	0x3d02ab28	0.03190151
72	0x3e02eca0	0.12785578
73	0xbe064f60	-0.13116217
74	0xbc786ab0	-0.015162155
75	0xbdf7995f	-0.120898
76	0x3d0ca5fe	0.03433799
77	0x3d38526b	0.045000475
78	0xbd7e7435	-0.062122542
79	0x3b2327c7	0.0024895535
80	0x3d11f60e	0.035635047
81	0xbe042af3	-0.12907009
82	0x3acfe50c	0.0015861108
83	0x3e11b031	0.14227368
84	0x3df4b7d2	0.119491234
85	0xbda05941	-0.07829524
86	0x3e1684f6	0.14699158
87	0xbd89a329	-0.067205735
88	0x3a892cb8	0.0010465598
89	0xbc4446b3	-0.011979747
90	0xbcc9f151	-0.024651201
91	0x3c8fb9c7	0.01754464
92	0xbc905e84	-0.017623194
93	0xbdd4d6a2	-0.103925005
94	0x3e354219	0.17700996
95	0x3c854111	0.016266378
96	0xbc7b299c	-0.015329745
97	0xbd3dc975	-0.046334703
98	0x3e3b9fd0	0.18322682
99	0x3d68011f	0.056641694
100	0x3cf6b517	0.030115647
101	0xbbe4136b	-0.0069603226
102	0x3dc9d8bd	0.09855793
103	0x3de47785	0.11155609
104	0x3db3ac45	0.08773092
105	0x3c355a16	0.011068841
106	0x3d9a1edd	0.07525418
107	0x3d0fe394	0.035129145
108	0xbcde48d9	-0.027134346
109	0x3c50fc85	0.012755518
110	0xbe80e616	-0.25175542
111	0xb9a33b6f	-0.00031134064
112	0xbd88aa3c	-0.06673095
113	0xbd9d4bb7	-0.07680457
114	0xbb8f11d5	-0.0043661394
115	0xbdaceaf6	-0.08443253
116	0xbc931ab7	-0.017957075
117	0x3d9f340d	0.077736
118	0xbdca7328	-0.098852456
119	0xbd628f1c	-0.05531226
120	0xbe04fbc9	-0.12986673
121	0xbd9323ed	-0.07184587
122	0x3d10d40f	0.035358485
123	0xbd7c6b64	-0.061625853
124	0xbe049c8b	-0.12950341
125	0xbddd07ea	-0.10792525
126	0xbd38b76a	-0.045096792
127	0x3d8bee83	0.06832602
128	0x3dae1d5f	0.08501696
129	0xbda161fd	-0.07880018
130	0xbdb3fce1	-0.08788467
131	0xbe2359ba	-0.15952197
132	0x3df2e385	0.11859802
133	0xbddbde60	-0.10735774
134	0x3e110f41	0.14165975
135	0xbda70c50	-0.08156645
136	0x3df923f5	0.121650614
137	0xbd5089eb	-0.05091278
138	0xbd2ae62b	-0.04172341
139	0x3d2dfbbc	0.0424764
140	0x3cc8f237	0.02452956
141	0x3da52564	0.08063772
142	0xbcd76b74	-0.026296355
143	0x3d90428b	0.07043942
144	0xbd9ac61f	-0.0755732
145	0x3c960fcf	0.018318085
146	0x3c8b7b76	0.017026644
147	0x3d4fe291	0.05075318
148	0x3d1233fd	0.03569411
149	0x3d6d5dba	0.057950713
150	0x3d33ea20	0.04392445
151	0xbdb4ddf7	-0.08831399
152	0x3dd6410a	0.10461624
153	0x3deae8ce	0.11470185
154	0xbd5de945	-0.05417754
155	0x3d4b3923	0.049615037
156	0xbdfab809	-0.12242133
157	0x3dcfea51	0.10152114
158	0xbd5b2200	-0.05349922
159	0x3e176d80	0.14787865
160	0x3d7ab915	0.061211664
161	0x3d9d7751	0.076887734
162	0x3d4edd41	0.050503973
163	0xbe0a1a6c	-0.13486642
164	0x3d1ebfe6	0.038757227
165	0x3d0e83d8	0.034793705
166	0x3d3c7783	0.046012413
167	0x3c483e3b	0.012221868
168	0x3d6c40b1	0.057678882
169	0x3d13cf2a	0.03608624
170	0xbd176c1a	-0.036968328
171	0x3dfee7b6	0.12446539
172	0x3e3e064f	0.18557094
173	0xbdf57ec0	-0.11987066
174	0xbd94f73c	-0.07273719
175	0xbc4cf120	-0.012508661
176	0x3d962953	0.07332101
177	0x3e0cca4f	0.1374905
178	0xbe251ee5	-0.16125067
179	0xbcc7a51f	-0.024370728
180	0x3dece83c	0.11567733
181	0x3d185892	0.037193842
182	0xbce94f44	-0.02848018
183	0xbd0bec9f	-0.034161206
184	0x3c9c4209	0.019074457
185	0xbd50982d	-0.050926376
186	0xbe029d8e	-0.12755415
187	0x3c03f037	0.008052877
188	0x3db1e0c6	0.0868545
189	0x3d7f86d9	0.06238446
190	0x3dcdc805	0.10047916
191	0x3c5a7e1c	0.013335731
192	0x3db8c6b3	0.09022274
193	0xbd286a10	-0.041116774
194	0xbe1d5ab3	-0.1536663
195	0x3dc9c072	0.09851159
196	0x3c2f929a	0.010716105
197	0xbc7ec0f7	-0.015548936
198	0x3df1e887	0.11811929
199	0xbcfca06c	-0.030838214
200	0x3d04bbf9	0.032405827
201	0x3c9f6760	0.019458473
202	0xbd75bcf2	-0.059994645
203	0x3dc3534e	0.095373735
204	0x3e1d3e78	0.15355861
205	0xbc20e4c8	-0.009820171
206	0xbdb0621f	-0.08612465
207	0x3d5d0c74	0.053966954
208	0x3daf8f94	0.08572307
209	0x3cfbdf7d	0.030746216
210	0xbce0dfdf	-0.0274505
211	0xbdc670fc	-0.09689519
212	0x3db181a3	0.08667304
213	0x3bc97e0a	0.006149058
214	0x3dfaf7af	0.12254273
215	0xbce478df	-0.027889667
216	0x3df9ab7f	0.121909134
217	0x3ca5a691	0.020221027
218	0x3bc2f590	0.0059496835
219	0xbd0fbd37	-0.03509256
220	0xbdfb02d0	-0.12256396
221	0xbdba5401	-0.09098054
222	0x3d69e7b4	0.057105735
223	0xbdfb1a75	-0.12260906
224	0xbd611711	-0.05495364
225	0xbd137cca	-0.03600768
226	0x3e086a15	0.13321717
227	0xbe1452c9	-0.14484705
228	0x3bcf3c25	0.0063243085
229	0x3c069506	0.008214241
230	0x3dffbf25	0.1248763
231	0x3dcdbea3	0.10046127
232	0xbd3b7ed2	-0.045775242
233	0xbc369159	-0.011143052
234	0x3e0a2e51	0.13494231
235	0x3da07148	0.07834107
236	0xbdd84cfd	-0.10561559
237	0x3d2f8e66	0.04286041
238	0xbe1ed426	-0.15510616
239	0x3c55e1a3	0.013054284
240	0xbded1de3	-0.11577966
241	0xbaececdd	-0.0018075962
242	0x3d8e5299	0.06949348
243	0x3c4fe0cb	0.012687872
244	0x3e1a7a29	0.15085663
245	0xbb4d0b4a	-0.0031287246
246	0x3d26154c	0.040547654
247	0xbd65d46b	-0.05611078
248	0x3c84746d	0.016168797
249	0xbcbf3c95	-0.023344317
250	0x3dbfc27f	0.09363269
251	0xbb08120d	-0.0020762712
252	0x3e1494d9	0.14509906
253	0x3b91c415	0.0044484236
254	0xbba290c8	-0.004961107
255	0x3d9b0b93	0.07570567

weight f4 [32]
0	0x3f8410fe	1.0317686
1	0x3f8387f9	1.027587
2	0x3f825aea	1.0183995
3	0x3f72a377	0.9478068
4	0x3f735e3f	0.95065683
5	0x3f814cea	1.0101597
6	0x3f747d20	0.95503426
7	0x3f860767	1.0471009
8	0x3f79d77f	0.97594446
9	0x3f74d275	0.9563363
10	0x3f874858	1.0568953
11	0x3f828351	1.0196325
12	0x3f7e759b	0.993982
13	0x3f80f9b1	1.00762
14	0x3f81ce33	1.0141052
15	0x3f870ef5	1.055144
16	0x3f831a19	1.0242339
17	0x3f785b1f	0.9701404
18	0x3f854482	1.0411532
19	0x3f8196dd	1.0124165
20	0x3f8051f4	1.002501
21	0x3f8c7176	1.0972126
22	0x3f74a1e8	0.9555955
23	0x3f7b8e2e	0.98263824
24	0x3f816cd3	1.0111336
25	0x3f812e5b	1.0092272
26	0x3f767a75	0.96280605
27	0x3f801ea6	1.0009353
28	0x3f848d72	1.0355666
29	0x3f82610f	1.018587
30	0x3f821f6f	1.0165843
31	0x3f7437cf	0.9539766

bias f4 [32]
0	0xbd1a685e	-0.03769719
1	0xbc4aa99c	-0.01236954
2	0xbd9283b4	-0.07154027
3	0x3ccd6132	0.02507076
4	0x3a9dc429	0.001203661
5	0xbd45965c	-0.048239097
6	0xbb56901d	-0.0032739707
7	0xbdc7e2f6	-0.09760086
8	0xbe0cd0c3	-0.13751511
9	0xbd8cab76	-0.06868641
10	0x3d0c147f	0.034199234
11	0xbc7b1d10	-0.015326753
12	0xbd2d8f73	-0.042373132
13	0xbdbe1097	-0.09280508
14	0xbd368717	-0.044562425
15	0xbc53a4db	-0.012917723
16	0x3c8e3331	0.017358394
17	0x3c0ab848	0.008466788
18	0xbd893834	-0.06700173
19	0xbbb8e427	-0.0056424323
20	0xbd8d4529	-0.06897957
21	0xbbcbf37e	-0.006224095
22	0xb9a4741e	-0.00031367032
23	0xbdd3ae06	-0.10335927
24	0xbbd2d003	-0.0064334883
25	0xbd8a8dd8	-0.06765336
26	0xbd18aac1	-0.03727222
27	0xbc55e304	-0.013054613
28	0xbe316170	-0.17322326
29	0xbca25295	-0.019814769
30	0xbdc6c063	-0.097046636
31	0xbc946579	-0.018114792

running_mean f4 [32]
0	0x3dbf50ec	0.093416065
1	0x3dd85765	0.10563544
2	0x3e1d77f2	0.15377787
3	0x3e974453	0.29544315
4	0x3e85f118	0.26160502
5	0xbed2d799	-0.41180113
6	0xbc4e4abf	-0.012591063
7	0xbe5f7db8	-0.21825302
8	0x3e57dfe3	0.210815
9	0xbdb881f6	-0.09009163
10	0xbedacad7	-0.4273288
11	0xbe6ae6ff	-0.2293968
12	0x3e9e29d1	0.30891278
13	0x3b9a83e3	0.004715429
14	0x3cb95c9a	0.022627164
15	0xbefe611d	-0.49683467
16	0xbe413293	-0.18866949
17	0xbe87d862	-0.26532274
18	0x3e893600	0.2679901
19	0xbd16609b	-0.036713224
20	0x3cf2cac5	0.029637704
21	0xbed4ec79	-0.41586664
22	0x3e9ceda1	0.30650046
23	0xbe9ea2dd	-0.3098363
24	0x3da98731	0.08277739
25	0x3e1af639	0.15132989
26	0x3e54500f	0.20733665
27	0xbe489526	-0.19588146
28	0x3e0e593b	0.13901226
29	0xbe99838a	-0.2998317
30	0x3d837489	0.06418712
31	0x3ea6470d	0.32476082

running_var f4 [32]
0	0x3e62b220	0.22138262
1	0x3e548c5b	0.20756666
2	0x3e699124	0.22809273
3	0x3e9afc60	0.30270672
4	0x3eab20cc	0.3342346
5	0x3ebacf3b	0.3648623
6	0x3e5a5eee	0.21325275
7	0x3e76b2d5	0.24091657
8	0x3e74a430	0.23890758
9	0x3e4756af	0.19466661
10	0x3e80dc3e	0.2516803
11	0x3e6821f0	0.22669196
12	0x3e5d5061	0.21612693
13	0x3e48b07e	0.19598576
14	0x3e313156	0.17303976
15	0x3e9b9603	0.30387887
16	0x3e7866b3	0.24257927
17	0x3e58eacc	0.21183318
18	0x3e655cfd	0.22398753
19	0x3e6b8366	0.22999343
20	0x3e174ef8	0.14776218
21	0x3eb2b83d	0.34906188
22	0x3e72eb4e	0.23722574
23	0x3e621a7e	0.22080418
24	0x3e535e1e	0.20641372
25	0x3e7c3c3c	0.24632353
26	0x3e4a767e	0.19771764
27	0x3e76a191	0.2408507
28	0x3e723453	0.23652773
29	0x3e4ac156	0.19800314
30	0x3e3d043a	0.18458644
31	0x3e5014be	0.20320413

weight f4 [32, 32, 2]
0	0xbddd286a	-0.10798724
1	0xbd9709f8	-0.07374948
2	0x3cef30ca	0.02919807
3	0x3d7607f0	0.060066164
4	0xbd318ab9	-0.043345187
5	0xbe03b964	-0.1286369
6	0x3d9b3951	0.075792916
7	0x3e054bb5	0.13017161
8	0x3d325226	0.043535374
9	0xbd87aaff	-0.06624412
10	0x3ba3aa91	0.0049946983
11	0xbe31e4f1	-0.1737249
12	0x3d7a148b	0.061054748
13	0x3dc80aae	0.09767662
14	0x3ddef447	0.10886436
15	0x3c809b44	0.015699036
16	0x3d5871e4	0.05284299
17	0x3d23079e	0.039802186
18	0xbe02e68f	-0.12783264
19	0xbc7130e3	-0.014721128
20	0xbd37f352	-0.044909783
21	0xbd25ec59	-0.0405086
22	0xbd90b9a2	-0.07066657
23	0x3c3d94a3	0.011571082
24	0x3d9c272a	0.076246575
25	0x3da5aa80	0.08089161
26	0xbc6b268e	-0.014352454
27	0xbe2b675d	-0.16738649
28	0x3dd2e8e6	0.10298328
29	0xbdcb1f02	-0.09918024
30	0x3dd69796	0.104781315
31	0x3ca72669	0.020404058
32	0x3e046650	0.12929654
33	0x3dc68dfb	0.096950494
34	0xbc482041	-0.012214721
35	0xbd993e5c	-0.07482597
36	0x3cca5596	0.024699014
37	0x3d1f9acd	0.03896599
38	0xbd9ad81c	-0.07560751
39	0x3dfcfc9c	0.12352869
40	0x3e2b2447	0.16713057
41	0xbd3ff403	-0.046863567
42	0xbe0ae4f6	-0.13563904
43	0xbe32c2a3	-0.1745706
44	0x3da1e361	0.07904697
45	0x3df86e1f	0.12130379
46	0xbd271268	-0.040789038
47	0x3d9f3d0f	0.07775318
48	0xbc40c2ed	-0.011765224
49	0x3cfc650e	0.030809905
50	0x3cd698c2	0.026195887
51	0x3bb7fb28	0.005614657
52	0x3e218c54	0.15776187
53	0x3da91d40	0.08257532
54	0xbe10b6e4	-0.14132267
55	0x3dd193a7	0.102332406
56	0x3d1c9cca	0.038235463
57	0xbdc2b1a3	-0.09506538
58	0xbdff8e39	-0.12478299
59	0xbe03538c	-0.1282484
60	0xbe452bb7	-0.19254957
61	0xbd887a89	-0.06663997
62	0xbdb51b0f	-0.08843052
63	0x3dacba98	0.084340274
64	0x3d7bda47	0.061487462
65	0x3e1bfcb1	0.15233113
66	0x3d921ed0	0.07134783
67	0x3e1768f8	0.14786136
68	0x3d94a2d5	0.0725762
69	0xbdeccccb	-0.11562499
70	0x3d03a16b	0.032136362
71	0x3d24b9c9	0.04021624
72	0x3c2e0533	0.010621357
73	0x3c7e7179	0.015529984
74	0xbd68a796	-0.056800447
75	0xbe04d6de	-0.1297259
76	0xbd19e1f0	-0.037568986
77	0xbdb7c39b	-0.08972856
78	0x3dbfd108	0.093660414
79	0x3d54f9f7	0.051996198
80	0x3dd61824	0.10453823
81	0xbdaa3fe6	-0.08312969
82	0xbd9d73a1	-0.0768807
83	0x3e31a972	0.17349795
84	0x3da297ac	0.07939085
85	0xbe2eb6e1	-0.1706195
86	0xbd81581a	-0.06315632
87	0x3d80c9c5	0.062884845
88	0xbd365287	-0.044512298
89	0x3e14a923	0.14517646
90	0x3d636ef5	0.05552574
91	0x3d780ebb	0.060560923
92	0x3de80fed	0.113311626
93	0x3e2f1a41	0.17099859
94	0xbdb9e7cd	-0.090774156
95	0x3dab2a23	0.08357646
96	0xbde2071e	-0.11036514
97	0xbb241214	-0.002503519
98	0x3d9a37da	0.07530184
99	0x3dac2b31	0.084066756
100	0x3d6b4beb	0.057445448
101	0xbc97b451	-0.018518599
102	0x3daf9869	0.08573992
103	0xbe204823	-0.15652518
104	0x3d6d7d8f	0.05798107
105	0xbbc4836b	-0.0059971116
106	0xbd20d7c2	-0.039268263
107	0xbca85dd5	-0.020552555
108	0xbd140022	-0.03613294
109	0xbddadf55	-0.106871285
110	0x3dda550f	0.10660755
111	0xbe040c5a	-0.12895337
112	0xbe21af32	-0.15789488
113	0xbe185502	-0.14876178
114	0x3c6d118b	0.014469515
115	0xbd139c0c	-0.03603749
116	0x3ccfae18	0.025351569
117	0x3cd670af	0.026176779
118	0xbdc3e67f	-0.09565448
119	0x3d909f89	0.07061679
120	0xbe1e0936	-0.15433201
121	0xbdcfeca6	-0.10152559
122	0xbe1eb60f	-0.15499137
123	0xbc519781	-0.012792469
124	0xbdc08786	-0.09400849
125	0x3d88a5dc	0.0667226
126	0x3d943be4	0.07237986
127	0x3d1f74cd	0.03892975
128	0xbde57ec4	-0.11205819
129	0x3e2db785	0.16964538
130	0x3bfccf02	0.007715107
131	0x3e0694a5	0.13142641
132	0x3d530423	0.051517617
133	0x3b7e6c3b	0.0038821835
134	0xbe374b88	-0.17899907
135	0x3debf4e5	0.11521319
136	0x3da311b1	0.07962359
137	0xbb2505cb	-0.0025180455
138	0xbd723592	-0.05913312
139	0xbb9b0b81	-0.004731596
140	0x3dd72562	0.10505177
141	0xbe0476cb	-0.12935941
142	0x3e2e546f	0.17024396
143	0xbd4e307f	-0.05033922
144	0xbd299721	-0.041403893
145	0x3d362c14	0.04447563
146	0xbd0fbde1	-0.035093192
147	0x3e0c25f0	0.13686347
148	0x3d3ed5de	0.04659068
149	0x3d9600a4	0.07324341
150	0x3daab475	0.08335201
151	0xbc79ae41	-0.015239299
152	0x3dfa0112	0.122072354
153	0xbc5359ad	-0.012899798
154	0x3d59c55c	0.053166732
155	0x3c5e22cf	0.013558104
156	0x3d6efe60	0.05834806
157	0xbdaa4ea8	-0.08315784
158	0x3dbfba62	0.093617216
159	0x3cda2900	0.026630878
160	0xbd95e718	-0.07319468
161	0xbc49c4a0	-0.012314945
162	0xbd843754	-0.064558655
163	0xbd37585c	-0.044762
164	0x3dde03e8	0.10840589
165	0x3d3b5e0b	0.045743983
166	0xbdd3ab01	-0.10335351
167	0xbe01c6e9	-0.12673534
168	0xbe067139	-0.13129129
169	0x3d9a0c3f	0.07521867
170	0x3c85045d	0.016237432
171	0xbc92971b	-0.017894318
172	0x3dddb5ac	0.10825667
173	0xbd84bfa4	-0.06481865
174	0xbdecaf35	-0.115568556
175	0x3e3085cf	0.17238544
176	0xbd738333	-0.059451293
177	0x3e2a89cf	0.16654132
178	0xbe000fb6	-0.12505993
179	0x3d51f926	0.051262997
180	0xbc8abae0	-0.016934812
181	0x3d92e53a	0.07172628
182	0xbd39bc90	-0.045345843
183	0xbd99d51d	-0.07511351
184	0x3bed7a65	0.0072472566
185	0x3daa30a8	0.08310062
186	0x3deb376e	0.11485182
187	0xbdf1c9ea	-0.1180609
188	0x3ce8ce0a	0.02841856
189	0xbc927afd	-0.017880911
190	0x3d38d280	0.045122623
191	0xb7374038	-1.0922602e-05
192	0x3dae0f29	0.08498985
193	0x3dfd4a98	0.12367743
194	0xbbe55240	-0.0069983304
195	0xbce28bf0	-0.027654618
196	0x3b54c5bf	0.0032466499
197	0x3d0bf055	0.034164745
198	0xbd0189ce	-0.03162556
199	0x3c4e8d38	0.012606911
200	0x3d2f9efe	0.042876236
201	0x3d81cab9	0.063374944
202	0xbd8fcc76	-0.0702142
203	0x3d0b316e	0.033982687
204	0xbc7b2935	-0.015329649
205	0x3d6c593d	0.05770229
206	0x3d04ca73	0.032419633
207	0xbd40f2a8	-0.047106415
208	0x3d88465a	0.066540435
209	0x3d85e40a	0.065376356
210	0x3df88252	0.121342316
211	0x3d904abf	0.07045507
212	0x3dc3ef67	0.09567147
213	0xbe4d9890	-0.20077729
214	0xbe285e9d	-0.16442342
215	0xbe2e5333	-0.17023925
216	0x3e4d8dad	0.20073576
217	0xbe137d65	-0.14403303
218	0xbd3d2988	-0.046182185
219	0xbcf1815b	-0.029480627
220	0x3d81d25f	0.06338953
221	0x3de2bf60	0.11071658
222	0xbe4a9152	-0.19781998
223	0xbcc213b6	-0.02369104
224	0x3d2784a0	0.040897965
225	0x3d5b554e	0.05354815
226	0x3d9f4a95	0.07777897
227	0xba6940f0	-0.0008897921
228	0xbdd88f96	-0.10574262
229	0xbce4ecb7	-0.027944906
230	0xbdfbb11f	-0.122896425
231	0x3d9ae5e1	0.07563377
232	0xbd05d1ab	-0.032670658
233	0x3d697ea4	0.05700554
234	0xbdbd4ece	-0.092435464
235	0x3e35e688	0.17763722
236	0xbd57d306	-0.052691482
237	0xbe316193	-0.17322378
238	0xbdc74019	-0.097290225
239	0x3cf28018	0.029602095
240	0x3dd8395c	0.105578154
241	0x3dd9468a	0.106091574
242	0xbe087c6c	-0.13328713
243	0xbd80cb19	-0.06288738
244	0x3d43176b	0.047629755
245	0x3ccec6d7	0.025241299
246	0xbc2f625c	-0.010704603
247	0x3c9cd2fb	0.019143572
248	0xbcee9604	-0.029124267
249	0x3dcd3167	0.100191884
250	0x3d2ccc36	0.04218694
251	0x3d1f252b	0.038853806
252	0x3dde83c7	0.10864978
253	0xbe072bac	-0.13200253
254	0x3d77571b	0.060385805
255	0xbdb369c0	-0.087604046

weight f4 [32]
0	0x3f70d0d6	0.9406866
1	0x3f747051	0.9548388
2	0x3f7cfbdc	0.98821807
3	0x3f76a6c0	0.9634819
4	0x3f88e14c	1.0693755
5	0x3f84a611	1.036318
6	0x3f85ae1d	1.044376
7	0x3f81b59e	1.013355
8	0x3f7dd210	0.99148655
9	0x3f76359d	0.9617556
10	0x3f8d5f83	1.1044773
11	0x3f74da96	0.95646036
12	0x3f789819	0.9710708
13	0x3f7a0b83	0.97673815
14	0x3f80ddce	1.006769
15	0x3f7a69a2	0.9781743
16	0x3f79f68e	0.9764184
17	0x3f8690df	1.0512961
18	0x3f86fe08	1.0546274
19	0x3f77e146	0.96828115
20	0x3f7b1801	0.980835
21	0x3f803b19	1.0018035
22	0x3f84f3c5	1.0386893
23	0x3f6eefe6	0.93334806
24	0x3f829515	1.0201746
25	0x3f84c970	1.0373974
26	0x3f813865	1.0095335
27	0x3f86912e	1.0513055
28	0x3f7be7bf	0.9840049
29	0x3f7f7be1	0.997984
30	0x3f89dbad	1.0770165
31	0x3f8891d8	1.0669508

bias f4 [32]
0	0xbd262cb8	-0.04056999
1	0x3a2824b2	0.00064141594
2	0xbda077d1	-0.07835353
3	0xbda08d47	-0.078394465
4	0x3d4aa552	0.049474068
5	0xbd50ae51	-0.05094749
6	0xbd0e020b	-0.034669917
7	0xbd2c7ad8	-0.04210934
8	0xbb54ecbb	-0.0032489735
9	0xbdf6fcfc	-0.12059972
10	0x3cfc5dd6	0.030806463
11	0xbe24b8eb	-0.16086166
12	0xbdcc8e9b	-0.09988137
13	0xbd68aaae	-0.056803398
14	0xbcc2af00	-0.023765087
15	0xbd9ab3b0	-0.07553804
16	0x3d9f9142	0.077913776
17	0x3dafe765	0.08589057
18	0x3b843bc0	0.004035443
19	0xbd4b6edf	-0.04966628
20	0xbd4ced85	-0.050031204
21	0xbd956ca2	-0.07296111
22	0xbdd21750	-0.10258353
23	0xbda7fdc2	-0.08202697
24	0xbd7c9dae	-0.061673813
25	0xbe2abf4e	-0.1667454
26	0xbe0ba6a8	-0.13637793
27	0xbc05c2e2	-0.008164139
28	0xbd8524fd	-0.065011956
29	0xbda4d304	-0.080480605
30	0x3d29388c	0.041313693
31	0xbdbad6f4	-0.0912303

running_mean f4 [32]
0	0xbc25d542	-0.010121645
1	0x3d7990e2	0.060929187
2	0x3ebfbc61	0.3744841
3	0x3d5a9f5d	0.053374637
4	0xbeaa458b	-0.33256182
5	0x3d43782d	0.04772203
6	0xbe87820a	-0.264664
7	0xbed97a1d	-0.42475978
8	0x3f058ea2	0.52170765
9	0x3e3c5553	0.18391924
10	0xbeb06d8e	-0.34458584
11	0xbe636aba	-0.22208682
12	0x3d529445	0.051410932
13	0x3ea9db80	0.33175278
14	0xbd9e1cea	-0.07720359
15	0x3e50d3d7	0.2039331
16	0x3f2cbfb1	0.6748
17	0xbe673820	-0.22580004
18	0xbe8f4b06	-0.27986926
19	0x3e298d6d	0.16557856
20	0x3da3311d	0.07968352
21	0x3e6c9a90	0.23105836
22	0xbe67bd7d	-0.22630878
23	0x3e72bac4	0.23704058
24	0x3d1ecd5a	0.038770057
25	0xbe08b7b1	-0.13351323
26	0xbf25609d	-0.64600545
27	0xbeeb21a2	-0.45924097
28	0x3d3b7635	0.045767028
29	0xbe765f5d	-0.24059816
30	0xbef2dd61	-0.47434524
31	0xbea06e8f	-0.3133435

running_var f4 [32]
0	0x3e67ded3	0.22643594
1	0x3e72c5f9	0.23708333
2	0x3ead9e57	0.33909866
3	0x3e21db11	0.15806223
4	0x3eafb01c	0.34314048
5	0x3e52e766	0.20596084
6	0x3e9bb39d	0.30410472
7	0x3e8cb2ba	0.27480108
8	0x3eca34e5	0.3949348
9	0x3e978f46	0.29601496
10	0x3ed70e50	0.42003107
11	0x3e93c038	0.2885759
12	0x3e4ba19f	0.19885872
13	0x3e5668be	0.20938393
14	0x3e474cb8	0.1946286
15	0x3e6aac03	0.2291718
16	0x3eecc94c	0.46247327
17	0x3e505829	0.2034613
18	0x3e9ac97d	0.30231848
19	0x3e863074	0.26208842
20	0x3e34dcc1	0.17662336
21	0x3e556083	0.20837598
22	0x3e85f412	0.26162773
23	0x3f01c339	0.5068851
24	0x3e671432	0.22566298
25	0x3e5ce5e8	0.21572077
26	0x3ecea6b2	0.40361553
27	0x3f17f19d	0.5935305
28	0x3e7b6f31	0.24554135
29	0x3f033d57	0.5126547
30	0x3ec4b9bd	0.38422957
31	0x3eeda53f	0.46415135

weight f4 [32, 32, 2]
0	0x3c868ded	0.016425097
1	0x3bf6b3e7	0.0075287702
2	0x3cfd1cf5	0.030897597
3	0x3cfc7e3a	0.030821908
4	0x3dd84ba2	0.10561301
5	0x3d966a3e	0.07344483
6	0x3d5dfa73	0.054193925
7	0x3e08f82f	0.13375925
8	0x3e31919c	0.17340702
9	0x3e11aaae	0.14225265
10	0x3df59aa8	0.11992389
11	0x3e063ae4	0.13108402
12	0x3d551bba	0.052028395
13	0xbe0afa37	-0.13572012
14	0xbc8fe24f	-0.017563967
15	0xbc447384	-0.011990432
16	0x3ca5cffd	0.020240778
17	0xbdbc881f	-0.092056505
18	0x3d43123c	0.04762481
19	0xbe0896bf	-0.13338755
20	0x3d4e105c	0.05030857
21	0x3e0a9fe7	0.1353756
22	0xbdd58c4e	-0.104271516
23	0x3ddf561c	0.10905096
24	0x3db26bb4	0.08711949
25	0xbcccd55f	-0.025004087
26	0x3d980b6e	0.07424055
27	0x3dd58edd	0.1042764
28	0x3c716e61	0.014735789
29	0x3d47fdf7	0.048826184
30	0x3dbf641c	0.09345266
31	0x3d3f2a10	0.046670973
32	0xbd813f12	-0.06310858
33	0xbdbc9362	-0.092077985
34	0x3ccae525	0.024767468
35	0x3cf71f51	0.0301663
36	0xbbae90a3	-0.0053273006
37	0xbe51f0bc	-0.20501989
38	0xbb011960	-0.0019698963
39	0xbe1e7a64	-0.15476376
40	0x3d857873	0.065171145
41	0xbdf01b02	-0.11723901
42	0xbd24d1c2	-0.040239103
43	0x3dd9197a	0.106005624
44	0xbe621a3e	-0.22080323
45	0xbddf0b14	-0.10890785
46	0xbe1607df	-0.1465144
47	0x3dc715c5	0.09720949
48	0x3c06aea2	0.008220347
49	0x3d097089	0.033554588
50	0x3cd04667	0.025424195
51	0x3e39c31c	0.18140835
52	0xbd93b819	-0.07212848
53	0x3d2f58a7	0.042809155
54	0xbe1c1df2	-0.15245798
55	0xbd847431	-0.06467474
56	0xbd517312	-0.05113513
57	0xbd153c70	-0.03643459
58	0xbe0fbb5e	-0.14036319
59	0x3ca95487	0.020670189
60	0x3db859a3	0.09001472
61	0x3e4c4fdf	0.19952343
62	0x3d8fca3b	0.07020994
63	0xbd291a43	-0.04128481
64	0x3e17d157	0.1482595
65	0x3c82de11	0.01597503
66	0xbdcbe953	-0.099566124
67	0x3ca82c0c	0.020528816
68	0xbdd6fa1b	-0.104969226
69	0x3e008996	0.12552485
70	0xbdab7948	-0.08372742
71	0xbd3e6612	-0.04648406
72	0x3df7fb40	0.12108469
73	0x3deee70c	0.116651624
74	0x3e1c8e46	0.15288648
75	0xbe40f806	-0.18844613
76	0x3d5181f1	0.051149312
77	0x3bda4a01	0.006661654
78	0xbd77b089	-0.06047109
79	0xbdad52c9	-0.08463056
80	0xbdc954e4	-0.09830645
81	0x3d04e8ec	0.032448694
82	0x39a7a5b5	0.00031976184
83	0xbd9ced0c	-0.076624006
84	0xbd95cb65	-0.07314185
85	0xbbf7fae5	-0.0075677508
86	0xbddf060d	-0.10889826
87	0x3df39b26	0.118948266
88	0xbd44e546	-0.048070215
89	0x3df08963	0.117449544
90	0xbd19a7ca	-0.03751353
91	0xbd21f603	-0.039541256
92	0xbe3452b2	-0.17609671
93	0xbe298b1b	-0.16556971
94	0x3c2f69af	0.010706349
95	0xbd83f8a9	-0.064439125
96	0x3dc83ce2	0.097772375
97	0x3d5a1b2d	0.053248573
98	0xbc832020	-0.01600653
99	0xbde730e8	-0.11288625
100	0xbde273f8	-0.110572755
101	0xbc26eb39	-0.010187917
102	0xbd1f1c6e	-0.038845472
103	0x3d0e7dc1	0.034787897
104	0x3d3e1013	0.04640205
105	0xbd84bd49	-0.06481416
106	0xbe2e3a0d	-0.17014332
107	0x3d2f6b16	0.042826734
108	0xbdeab41a	-0.11460133
109	0xbd9b1a1d	-0.0757334
110	0xbda94f94	-0.082671314
111	0x3d00dee8	0.03146258
112	0xbd9324da	-0.07184763
113	0xbc8e4876	-0.017368536
114	0x3c41cf44	0.011829201
115	0xbd5fa406	-0.054599784
116	0xbcd8f343	-0.026483184
117	0xbe12f620	-0.14351702
118	0x3d0de24d	0.034639645
119	0x3e0a2dd2	0.13494042
120	0x3d7a0389	0.061038528
121	0x3e073981	0.1320553
122	0xbd98fbee	-0.07469927
123	0x3e765539	0.24055947
124	0x3e15805a	0.14599743
125	0x3d32ab46	0.04362037
126	0x3ce58e53	0.028021967
127	0xbd8a7837	-0.067612104
128	0x3de7d098	0.11319083
129	0x3da2d5e6	0.07950954
130	0xbd97b9d2	-0.07408489
131	0x3ca6c9cd	0.020359898
132	0x3dbc5931	0.091966994
133	0x3d4885e4	0.048955813
134	0xb92d99f3	-0.00016555916
135	0xbd370863	-0.044685733
136	0x3cd03dd8	0.025420114
137	0x3daed47d	0.08536623
138	0xbc38b290	-0.011273041
139	0xbde4e72b	-0.11176904
140	0x3e55a475	0.20863517
141	0xbcb4b635	-0.02205954
142	0x3dfe8810	0.124282956
143	0x3dd1ed8c	0.102503866
144	0x3d881d68	0.06646234
145	0x3dd80069	0.10546953
146	0xbcb29b9d	-0.021802718
147	0x3d9afba6	0.075675294
148	0xbdbebd5f	-0.093134634
149	0x3d475216	0.048662268
150	0x3dd67f2b	0.10473474
151	0x3d7107dd	0.05884539
152	0x3c8333da	0.016015936
153	0xbd7654b0	-0.060139358
154	0x3c0081df	0.007843464
155	0x3dfc9abe	0.12334202
156	0xbd173376	-0.03691431
157	0xbdb15695	-0.08659092
158	0xbce40edf	-0.027839122
159	0xbe0211ec	-0.12702149
160	0x3dee7b3b	0.11644598
161	0x3cd8e995	0.026478568
162	0xbe2039c5	-0.15647037
163	0x3de92872	0.113846675
164	0xbe3121b0	-0.17298007
165	0xbd8f410d	-0.06994829
166	0xbd8e68a1	-0.0695355
167	0x3dded179	0.108797975
168	0xbdbc36ba	-0.09190126
169	0x3decfbdd	0.115714766
170	0x3b5382ee	0.0032274085
171	0x3d9ea65a	0.07746573
172	0x3de775f7	0.11301797
173	0x3d0489ab	0.032357853
174	0x3d4cfa5c	0.05004345
175	0x3e0dce82	0.13848308
176	0x3e2a7125	0.16644724
177	0xbc687e14	-0.014190216
178	0x3d5168fa	0.051125504
179	0xbe309473	-0.17244129
180	0xbd4e6ae6	-0.050394915
181	0xbd918d9f	-0.0710709
182	0xbcb1b367	-0.021691991
183	0x3c909dc6	0.017653357
184	0xbd80bf09	-0.06286437
185	0xbc50746d	-0.012723071
186	0xbc3bd630	-0.0114646405
187	0xbdbbe21b	-0.091739856
188	0xbd220d31	-0.03956336
189	0x3e5e5d24	0.21715218
190	0x3d8555b5	0.06510488
191	0xbe3bcd19	-0.18339957
192	0xbe031699	-0.12801589
193	0x3d6b4f40	0.057448626
194	0xbbbab544	-0.005697878
195	0xbd301e0b	-0.0429974
196	0x3ba9b6e9	0.0051792753
197	0x3e073573	0.13203983
198	0x3dc2de75	0.095150866
199	0x3d19997a	0.037499882
200	0xbdd0ef47	-0.102018885
201	0x3d35288a	0.044228114
202	0xbd9e189a	-0.07719536
203	0x3dc4e52d	0.09614024
204	0x3d34e676	0.044165097
205	0xbd85e237	-0.06537288
206	0xbc345f20	-0.011009008
207	0xbc537e61	-0.012908549
208	0x3daf2d57	0.0855357
209	0x3d2b804c	0.0418704
210	0xbd8480d8	-0.064698875
211	0x3ded3ecc	0.11584243
212	0xb963bdc1	-0.00021719096
213	0x3d764207	0.060121562
214	0x3c14f766	0.0090921875
215	0xbdfaac77	-0.12239926
216	0xbe0abbc5	-0.13548191
217	0x3d7c71ea	0.061632074
218	0x3dd06210	0.10174954
219	0x3d28e859	0.04123721
220	0xbdef2941	-0.116777904
221	0xbd92677e	-0.07148646
222	0x3df70e40	0.12063265
223	0xbe2cdeb8	-0.16881835
224	0x3d24c99b	0.04023133
225	0xbd8e05e2	-0.06934716
226	0x3e1694bc	0.14705175
227	0x3dce25c5	0.10065798
228	0x3daafd7c	0.083491296
229	0x3da5269e	0.08064006
230	0x3d44bd60	0.048032165
231	0x3dadcd41	0.08486415
232	0x3da862a9	0.08221943
233	0x3c534d35	0.012896826
234	0x3c161db6	0.009162357
235	0x3e1fb8a9	0.15597786
236	0xbd2873fc	-0.041126236
237	0xbd80b7ff	-0.062850945
238	0x3dcb11f6	0.09915535
239	0x3d7a0c63	0.06104697
240	0xbd470d10	-0.04859644
241	0x3d438c1a	0.047741033
242	0xbe0ce3e4	-0.13758808
243	0x3dba8f26	0.09109335
244	0xbada2007	-0.0016641625
245	0x3c43bbbb	0.011946614
246	0xbcef3530	-0.029200166
247	0x3d512e4e	0.05106955
248	0xbde393ea	-0.11112197
249	0xbe7bde42	-0.24596503
250	0xbcc2e506	-0.023790848
251	0xbd89a9d7	-0.067218475
252	0xbd95af67	-0.07308846
253	0xbdda7350	-0.10666525
254	0xbc89c7f5	-0.01681898
255	0x3d78543a	0.0606272

weight f4 [32]
0	0x3f8169be	1.0110395
1	0x3f813bcb	1.0096372
2	0x3f65df38	0.8979373
3	0x3f7360f3	0.9506981
4	0x3f8695a0	1.0514412
5	0x3f810ae5	1.008145
6	0x3f854607	1.0411996
7	0x3f8282d3	1.0196174
8	0x3f82b326	1.0210922
9	0x3f7544d4	0.9580815
10	0x3f7d3b3b	0.98918504
11	0x3f80cb7b	1.0062097
12	0x3f882425	1.063603
13	0x3f885e1d	1.0653721
14	0x3f80406c	1.001966
15	0x3f80ca79	1.006179
16	0x3f82623f	1.0186232
17	0x3f6de53d	0.92927915
18	0x3f88921e	1.0669591
19	0x3f7bfb59	0.984304
20	0x3f739a6d	0.9515751
21	0x3f7fea12	0.9996654
22	0x3f8b5fb9	1.0888587
23	0x3f8b715a	1.0893967
24	0x3f7e112d	0.9924496
25	0x3f8433c9	1.0328304
26	0x3f782b58	0.9694114
27	0x3f8174c4	1.0113759
28	0x3f831fbb	1.0244058
29	0x3f80e17d	1.0068814
30	0x3f8b7e30	1.0897884
31	0x3f75c5c3	0.96004885

bias f4 [32]
0	0xbda4256b	-0.080149494
1	0x3d00e748	0.031470567
2	0xbe08342d	-0.13301153
3	0xbda5200c	-0.08062753
4	0xbccf3afc	-0.02529668
5	0xbdaddb5f	-0.08489107
6	0xbd9c00cc	-0.076173395
7	0xbd8ea635	-0.06965295
8	0xbd52934e	-0.051410012
9	0xbc99648e	-0.018724706
10	0xbd18c8ad	-0.037300754
11	0xbda32f2b	-0.07967981
12	0xbdb36c97	-0.08760946
13	0x3b56526d	0.0032702938
14	0x3d228fdc	0.039687976
15	0xbd896d82	-0.0671034
16	0xbc8d3f9d	-0.017242247
17	0xbddad129	-0.106844254
18	0xbdb3f7bb	-0.08787485
19	0x3d5ad082	0.053421505
20	0xbe0b8250	-0.13623929
21	0xbd689387	-0.056781318
22	0xbd2c6c6b	-0.042095583
23	0x3b8a620a	0.004223113
24	0xbe056e73	-0.13030414
25	0xbd26f67f	-0.04076242
26	0xbc16e771	-0.009210453
27	0xbcacefcb	-0.021110436
28	0xbc4a07bd	-0.0123309465
29	0x3beced10	0.0072304085
30	0xbd42d517	-0.0475665
31	0x3c3e4507	0.011613137

running_mean f4 [32]
0	0x3e6cac58	0.23112619
1	0xbe185e00	-0.14879608
2	0x3ea24ec1	0.3170071
3	0x3e004c24	0.12529045
4	0xbd60d059	-0.054886196
5	0xbe49dd09	-0.19713224
6	0xbd2c8554	-0.04211934
7	0xbe5615b9	-0.20906724
8	0xbe5e7535	-0.21724398
9	0xbd0fb7cc	-0.03508739
10	0xbe795296	-0.2434791
11	0xbecf8b56	-0.40535992
12	0xbf076bb1	-0.528987
13	0x3d768f7c	0.06019543
14	0x3c701e7f	0.014655708
15	0xbd252441	-0.040317778
16	0xbdb5437d	-0.08850763
17	0x3d785cd1	0.06063539
18	0xbeb50023	-0.35351667
19	0xbe012632	-0.12612227
20	0x3ceb7c67	0.028745843
21	0xbe5cfcd5	-0.21580823
22	0xbe7773d4	-0.24165279
23	0xbebb8cf4	-0.36630976
24	0xbdc7be9f	-0.09753155
25	0xbf311442	-0.69171536
26	0xbe2f3918	-0.17111623
27	0xbd1dc347	-0.03851631
28	0xbec24070	-0.37939787
29	0xbe2545d5	-0.1613992
30	0xbeccaf20	-0.3997736
31	0xbe043868	-0.12912142

running_var f4 [32]
0	0x3e2fb629	0.17159332
1	0x3e8db2a3	0.27675352
2	0x3e9e0449	0.30862644
3	0x3e53b1b7	0.20673262
4	0x3e8e5461	0.2779875
5	0x3e0f70c1	0.14007856
6	0x3e0d5705	0.13802727
7	0x3e7fc48e	0.24977323
8	0x3e158584	0.14601713
9	0x3e0df8f3	0.13864498
10	0x3dfa066e	0.122082576
11	0x3e500ac4	0.20316607
12	0x3eb1d804	0.3473512
13	0x3e25e5fe	0.16201016
14	0x3e177964	0.147924
15	0x3df4f5c6	0.1196094
16	0x3e13bba4	0.14427048
17	0x3e6cdd9d	0.23131414
18	0x3e99b69a	0.30022126
19	0x3e5fe55b	0.21864836
20	0x3e0879a3	0.1332765
21	0x3e19e726	0.15029582
22	0x3e823a3c	0.25435054
23	0x3e747685	0.23873337
24	0x3e182443	0.14857583
25	0x3eb6c3ce	0.35696262
26	0x3e48b7ca	0.1960136
27	0x3e717ea2	0.23583463
28	0x3e02d6ac	0.12777203
29	0x3df4c6d2	0.119519845
30	0x3e711c2c	0.23545903
31	0x3e0ae70a	0.13564697

weight f4 [32, 32, 2]
0	0xbdc54ccd	-0.09633789
1	0x3e00cb45	0.12577541
2	0xbe2683e8	-0.16261256
3	0x3d34fc1f	0.044185754
4	0x3b420387	0.0029604153
5	0xbdc9928a	-0.09842403
6	0xbd8df910	-0.069322705
7	0x3bbd8908	0.0057841577
8	0xbe6008fd	-0.21878429
9	0xbc453c80	-0.01203835
10	0x3d03a67d	0.032141197
11	0x3d22ed18	0.03977689
12	0x3de017f2	0.10942067
13	0x3d3e964e	0.04653006
14	0xbd95f623	-0.073223375
15	0xbdcf537e	-0.10123347
16	0xbc952f12	-0.018210921
17	0x3cf28b2e	0.029607382
18	0x3d3840b1	0.04498357
19	0x3dea611b	0.11444303
20	0x3dbd5e1d	0.09246466
21	0x3d9ae616	0.07563417
22	0x3dff25b4	0.12458363
23	0x3cf0c61a	0.029391337
24	0xbdcc9266	-0.09988861
25	0x3c1131a8	0.008861937
26	0x3d9a65ba	0.07538934
27	0x3e2b719c	0.16742557
28	0xbd2330e9	-0.039841566
29	0x3d29a12d	0.041413475
30	0xbdd959f4	-0.1061286
31	0xbd9a6244	-0.07538274
32	0x3e079847	0.13241683
33	0x3e245ece	0.1605179
34	0x3d8a6fb0	0.06759584
35	0x3cb4b68e	0.022059705
36	0xbdc33421	-0.09531427
37	0x3cd576ac	0.026057564
38	0xbd634f58	-0.05549559
39	0xbc620e9d	-0.013797429
40	0x3d36e28c	0.044649646
41	0xbd44fc38	-0.048092097
42	0xbe1ac5e1	-0.15114547
43	0xbe3dfc04	-0.18553168
44	0x3d497a7a	0.04918907
45	0xbcdf5dd8	-0.027266428
46	0xbd4d84b2	-0.050175376
47	0xbd8e4222	-0.069462076
48	0x3e021ef3	0.12707119
49	0x3bc70da9	0.0060746265
50	0xbca5de12	-0.020247493
51	0x3dc1910a	0.09451492
52	0xbd804c85	-0.06264595
53	0x3dc75428	0.097328484
54	0x3df92a17	0.12166231
55	0xbe09548b	-0.13411157
56	0x3de0faf4	0.109853655
57	0xbce47f9f	-0.027892886
58	0x3df1fd2d	0.118158676
59	0xbe244ea6	-0.16045627
60	0xbde011a6	-0.10940866
61	0x3d84cfbb	0.06484934
62	0xbdcb18b3	-0.099168204
63	0x3c19339d	0.0093506845
64	0x3df226cb	0.118238054
65	0xbda10efc	-0.07864186
66	0x3e11d15d	0.14240022
67	0xbc95e739	-0.018298732
68	0x3c9cc95a	0.01913898
69	0xbd868e28	-0.06570083
70	0x3b6c6055	0.003606816
71	0xbd84b3c5	-0.06479601
72	0x3e29fae5	0.16599615
73	0xbd4f56a7	-0.050619747
74	0xbcf97934	-0.030453302
75	0x3e0749a6	0.13211688
76	0x3c9a1aa5	0.018811533
77	0x3c4f2a8c	0.012644421
78	0x3dbd8afd	0.092550255
79	0xbd7c3c94	-0.06158121
80	0x3d9ffd5c	0.07811996
81	0xbe22b415	-0.15889008
82	0x3d06b033	0.03288288
83	0xbcf3b3c0	-0.029748797
84	0x3d04fd90	0.03246838
85	0x3d72f0c1	0.059311632
86	0xbdc94e53	-0.09829392
87	0xbce85b94	-0.02836398
88	0xbd96427f	-0.07336902
89	0xbd81bf06	-0.06335263
90	0x3d974c58	0.07387608
91	0xbcbdc734	-0.023166277
92	0x3cf86051	0.030319365
93	0xbde9741e	-0.11399101
94	0xbd77e410	-0.06052023
95	0x3cf7de82	0.030257467
96	0x3c86a924	0.016438074
97	0xbce66da0	-0.028128445
98	0xbc95df92	-0.018295083
99	0xbdf20e10	-0.118190885
100	0x3d23c69f	0.03998434
101	0xbd7bc579	-0.06146762
102	0x3e25ed2d	0.16203757
103	0xbe485305	-0.1956292
104	0x3cd857fb	0.02640914
105	0xbd6a9357	-0.05726942
106	0xbdace54a	-0.08442171
107	0x3d9b5d75	0.07586185
108	0x3c4e1560	0.012578338
109	0xbd0db417	-0.034595575
110	0x3e177d09	0.14793791
111	0xbcbae28a	-0.0228131
112	0xbceccbc4	-0.028905757
113	0x3e40e1b8	0.18836105
114	0x3e61988d	0.2203085
115	0x3bc4e2d3	0.006008485
116	0xbd04cdbb	-0.032422762
117	0x3dab072f	0.083509795
118	0x3e463ba4	0.19358689
119	0x3baa7a69	0.0052025807
120	0x3dd5ca6b	0.10438999
121	0xbd70e11b	-0.058808427
122	0xbdb52d40	-0.088465214
123	0x3da2f55b	0.07956954
124	0x3d4bbf6e	0.04974311
125	0x3c0df1d5	0.008663614
126	0x3d9ab5a9	0.0755418
127	0xbd240e4a	-0.04005269
128	0x3c76df0e	0.015067829
129	0x3cbde9aa	0.023182709
130	0xbde8715f	-0.11349749
131	0xbdac0f15	-0.08401314
132	0xbdc8ce58	-0.09804982
133	0x3df64fc7	0.12026935
134	0xbb15a32f	-0.002283286
135	0x3dc33ed7	0.0953347
136	0x3d9c19ff	0.07622146
137	0xbd23ec7f	-0.040020462
138	0x3d99bf88	0.07507235
139	0xbd911462	-0.07083966
140	0xbd80f7d9	-0.06297273
141	0xbd8026e8	-0.06257421
142	0x3d5f7295	0.054552633
143	0xbe414b8b	-0.18876474
144	0xbdb19039	-0.086700864
145	0xbd77ffb6	-0.0605466
146	0x3d0942c0	0.033510923
147	0x3cc75566	0.024332713
148	0xbcc5235f	-0.024064718
149	0xbe3fe6eb	-0.18740432
150	0xbe14e08e	-0.14538786
151	0xbdc1f719	-0.09470958
152	0xbe83bb3b	-0.25728783
153	0x3cebdfd4	0.028793253
154	0x3a6da3f6	0.00090652646
155	0xbdfbfa0a	-0.123035505
156	0x3a870fea	0.0010304425
157	0x3d930a50	0.07179701
158	0x3d174178	0.03692767
159	0xbcdd7e24	-0.027037688
160	0x3d5c8f0a	0.05384735
161	0xbd584170	-0.05279678
162	0x3df407ae	0.11915527
163	0xbd69787e	-0.056999676
164	0xbe70efed	-0.23529024
165	0xbd7184de	-0.058964603
166	0x3e069c06	0.13145456
167	0x3de4182b	0.11137422
168	0x3c0e577d	0.008687851
169	0x3d064f8b	0.0327907
170	0xbd245198	-0.040116876
171	0x3e0849fb	0.13309471
172	0x3db5437a	0.08850761
173	0xbdcb3ec9	-0.09924085
174	0x3c18d665	0.009328459
175	0xbe528393	-0.20558004
176	0x3d4bfe30	0.04980296
177	0x3ce275cc	0.02764406
178	0x3da7a144	0.08185056
179	0x3a0d268c	0.0005384467
180	0x3ce49279	0.027901875
181	0x3e217059	0.15765513
182	0x3bc9c6f7	0.0061577517
183	0xbe036431	-0.12831189
184	0x3caf6d8d	0.021414543
185	0xbe4fa46e	-0.20277569
186	0x3cd75f56	0.026290577
187	0xbd321c8a	-0.04348425
188	0xbe05a865	-0.13052519
189	0x3e11a9cb	0.14224927
190	0x3d941238	0.072300375
191	0xbb90a342	-0.004413993
192	0xbbce5803	-0.006297113
193	0xbc790c62	-0.015200706
194	0x3bcab993	0.006186673
195	0x3d2ecc3c	0.04267524
196	0x3ca425b8	0.020037517
197	0xbd4e627d	-0.050386894
198	0xbd85e883	-0.06538489
199	0x3d06ebb3	0.032939624
200	0x3d898d2a	0.06716378
201	0x3cbf3d0e	0.023344543
202	0xbdd178ec	-0.10228142
203	0xbc90169c	-0.017588906
204	0xbdcde34c	-0.10053119
205	0x3e0a0535	0.13478549
206	0xbdc4a0b8	-0.09600967
207	0x3dda22b2	0.10651149
208	0xbd6b4d8d	-0.057447005
209	0xbc3a6bba	-0.011378223
210	0x3d97747e	0.07395266
211	0x3d2fa4f5	0.042881925
212	0xbd40821b	-0.04699908
213	0xbe40d781	-0.18832208
214	0xbdd3b638	-0.1033749
215	0x3e300c84	0.17192274
216	0x3dd341e7	0.10315304
217	0xba7bfc8f	-0.00096125243
218	0xbd04e9a6	-0.032449387
219	0xbe23bfeb	-0.1599118
220	0xbd914d83	-0.07094862
221	0xbe14b710	-0.14522958
222	0x3d8c6bf2	0.068565264
223	0x3c8eb865	0.01742191
224	0xbd950288	-0.072758734
225	0xbddb18cb	-0.10698088
226	0x3d6785d7	0.056524124
227	0x3d2c81af	0.042115863
228	0x3e44c5c1	0.19216062
229	0xbe5a7c75	-0.21336539
230	0xbd901333	-0.07034912
231	0xbe636ee7	-0.22210275
232	0xbdaadb79	-0.08342642
233	0xbd41b867	-0.047295
234	0x3df5130e	0.11966525
235	0xbd37c5b3	-0.044866275
236	0xbdc3fd73	-0.09569826
237	0xbb194c73	-0.0023391515
238	0xbcca1b85	-0.024671325
239	0xbdb0b448	-0.08628136
240	0x3d69ce66	0.057081603
241	0x3dfddcf3	0.12395658
242	0xbd8f8fc7	-0.07009845
243	0x3de2ce30	0.110744834
244	0xbe060177	-0.13086496
245	0xbd98ab12	-0.07454504
246	0xbdc9c7e5	-0.0985258
247	0xbd8a24da	-0.0674531
248	0x3d5ee71f	0.054419633
249	0xbd0cabee	-0.034343652
250	0x3db742ed	0.08948312
251	0xbe3781f1	-0.17920662
252	0xbe0cde4a	-0.13756672
253	0xbd2190aa	-0.039444603
254	0xbdfe6221	-0.1242106
255	0xbcf0b799	-0.029384421

weight f4 [32]
0	0x3f7c89cd	0.9864777
1	0x3f768b89	0.96306664
2	0x3f7d79c8	0.9901395
3	0x3f832e5b	1.0248522
4	0x3f781b67	0.9691681
5	0x3f75aa6e	0.9596318
6	0x3f8a45fe	1.080261
7	0x3f7b4202	0.98147595
8	0x3f8426ee	1.032438
9	0x3f80169f	1.0006903
10	0x3f80c624	1.0060468
11	0x3f783e88	0.96970415
12	0x3f77561a	0.96615756
13	0x3f7c0b1a	0.9845444
14	0x3f896e73	1.0736831
15	0x3f8079b7	1.0037144
16	0x3f80aee7	1.0053376
17	0x3f835462	1.0260127
18	0x3f7f914b	0.99831074
19	0x3f7330d1	0.9499636
20	0x3f7877c2	0.97057736
21	0x3f7b7970	0.98232174
22	0x3f75d960	0.9603481
23	0x3f892c20	1.0716591
24	0x3f70cbf1	0.9406119
25	0x3f8b689d	1.08913
26	0x3f7be83c	0.98401237
27	0x3f8020b8	1.0009985
28	0x3f90aa33	1.1301941
29	0x3f801057	1.0004987
30	0x3f89213b	1.0713266
31	0x3f834706	1.025605

bias f4 [32]
0	0x3cfc06b8	0.030764922
1	0xbd6eb806	-0.058280967
2	0xbde2738e	-0.110571966
3	0xbd5ba697	-0.05362567
4	0xbcc53be1	-0.024076404
5	0xbd3cb5ff	-0.046072003
6	0x3bf62638	0.0075118802
7	0xbd0316cd	-0.032004166
8	0xbcf3f620	-0.029780447
9	0xbd8b0eea	-0.06789954
10	0xbdc513ff	-0.096229546
11	0xbd5ee3e5	-0.054416556
12	0xbc83c9f4	-0.01608751
13	0xbd81398c	-0.06309804
14	0x3c8b4dd3	0.017004883
15	0xbc9dbfc9	-0.01925649
16	0x3ca686f6	0.020328026
17	0xbdadba81	-0.084828384
18	0xbd125f87	-0.035735633
19	0xbd9a453b	-0.07532736
20	0xbe083e83	-0.13305096
21	0xbe0033b4	-0.12519723
22	0xbe229ea7	-0.15880834
23	0xbd20f0c4	-0.039292112
24	0xbdba6cb8	-0.09102768
25	0x3bd72b12	0.0065664137
26	0xbd7271f8	-0.05919072
27	0xbdc37736	-0.09544222
28	0x3da69877	0.08134549
29	0xbd6f970a	-0.05849365
30	0x3d3e5a70	0.046472967
31	0xbd36ebc1	-0.044658426

running_mean f4 [32]
0	0xbd6f5841	-0.058433775
1	0x3e6c4ab3	0.2307537
2	0xbeab6b90	-0.334805
3	0xbf0ba438	-0.5454745
4	0xbdf071c8	-0.11740452
5	0xbe0eabe7	-0.13932763
6	0xbf13c619	-0.5772415
7	0xbed62e37	-0.41832134
8	0xbe9353fc	-0.28775012
9	0x3f0bbc6a	0.5458437
10	0xbdd7e5f1	-0.10541905
11	0x3ec994ec	0.3937143
12	0xbd8f8dd9	-0.07009477
13	0x3d69cb4b	0.05707864
14	0xbe9bf478	-0.30459952
15	0xbe943dde	-0.2895345
16	0xbdba38be	-0.09092854
17	0xbe1d4710	-0.1535914
18	0xbe4c20c4	-0.19934374
19	0x3e85301c	0.26013267
20	0xbe01c320	-0.1267209
21	0xbeaa2430	-0.33230734
22	0x3b7fa47f	0.003900796
23	0xbf073d58	-0.5282798
24	0xbec0f562	-0.37687212
25	0xbea7272b	-0.3264707
26	0xbedc0342	-0.42971236
27	0xbe8cd111	-0.27503255
28	0xbda1f56e	-0.0790814
29	0xbee633dc	-0.4496144
30	0xbe9480c9	-0.29004505
31	0x3e1d5c5d	0.15367265

running_var f4 [32]
0	0x3e34376e	0.1759927
1	0x3e1bbe06	0.15209207
2	0x3e8ea543	0.2786046
3	0x3e739f63	0.2379127
4	0x3e106766	0.14101943
5	0x3e10aff3	0.1412962
6	0x3ea44cb0	0.32089758
7	0x3e29495c	0.1653189
8	0x3dfac438	0.12244457
9	0x3e1f29ab	0.15543239
10	0x3e31ce6e	0.17363903
11	0x3e1eeb44	0.15519434
12	0x3ea2b566	0.3177902
13	0x3e035ff4	0.12829572
14	0x3e53e8e5	0.20694311
15	0x3e024f8f	0.12725662
16	0x3e0021ef	0.12512945
17	0x3e192e9a	0.14959183
18	0x3e4a3319	0.19746055
19	0x3e1d4123	0.15356879
20	0x3e13c683	0.14431195
21	0x3e32f3f4	0.17475873
22	0x3e0f2d98	0.13982236
23	0x3e81c439	0.25345019
24	0x3e14e055	0.14538701
25	0x3e58f47d	0.21187015
26	0x3e2cccdf	0.16875027
27	0x3dfc0bd1	0.12306941
28	0x3e416380	0.18885612
29	0x3e2ab921	0.16672184
30	0x3ec749d6	0.3892352
31	0x3e7500bd	0.23926063
