model/backups/charCNN-v1.pt (torch, 199438 bytes, 20 tensors)

weight f4 [32, 27, 3]
0	0x3c3b1664	0.011418913
1	0xbd3a19e3	-0.045434844
2	0xbc70de98	-0.014701508
3	0xbdc2d834	-0.09513894
4	0x3dcca4a6	0.09992342
5	0x3b777dc6	0.0037764176
6	0x3cd96b66	0.02654047
7	0x3cd3ac3c	0.025838964
8	0x3d7b960a	0.061422385
9	0x3da50615	0.08057801
10	0x3d414f51	0.047194783
11	0x3d3c2f39	0.045943473
12	0xbd915e64	-0.07098082
13	0xbda70480	-0.08155155
14	0x3e0837fc	0.13302606
15	0x3de7e5e8	0.11323148
16	0xbdd336b5	-0.10313169
17	0x3cd19ec9	0.02558841
18	0x3db5ea45	0.08882574
19	0x3c95fd4b	0.018309256
20	0xbc95de34	-0.018294431
21	0xbac4e534	-0.0015021921
22	0x3dbc97e8	0.09208661
23	0xbd871f4f	-0.065977685
24	0xbd028733	-0.031867217
25	0x3c01102f	0.007877394
26	0x3d689851	0.056785885
27	0xbd93a3a1	-0.07208944
28	0xbccd86d0	-0.025088698
29	0xbcfc84a7	-0.030824972
30	0xbdce1c50	-0.10063994
31	0x3de80722	0.113294855
32	0xbd9e4e99	-0.07729835
33	0x3d93bb55	0.07213465
34	0xbd1fc760	-0.0390085
35	0x3d7a30f3	0.061081838
36	0xbd93a7eb	-0.07209762
37	0x3da30394	0.07959667
38	0x3c44171d	0.011968401
39	0xbadd0c63	-0.0016864653
40	0x3d54e028	0.051971585
41	0x3de88158	0.11352795
42	0xbc9b4a10	-0.018956214
43	0x3cf190ea	0.029488046
44	0x3dd3afca	0.103362635
45	0xbc2b1283	-0.010441425
46	0xbdad33cc	-0.08457145
47	0xbbb11207	-0.0054037604
48	0x3dad64b1	0.08466471
49	0xbd591e65	-0.053007502
50	0x3dd8ef33	0.10592499
51	0xbe03523a	-0.12824336
52	0xbd2bd32d	-0.04194944
53	0x3db5ec1c	0.08882925
54	0x3da58649	0.080822535
55	0x3c4d3106	0.012523895
56	0x3bd41461	0.006472156
57	0x3d18013c	0.037110552
58	0xbdbb4f07	-0.09145933
59	0xbd8f7ea7	-0.07006579
60	0x3c17bde0	0.009261578
61	0xbc3cdc10	-0.011527076
62	0xbdbb0f67	-0.09133797
63	0x3d60db29	0.054896507
64	0xbdad65cf	-0.08466684
65	0x3dd67dbd	0.104732014
66	0xbbf844a7	-0.0075765434
67	0x3cdec965	0.027195642
68	0x3d5fe15e	0.054658286
69	0xbde875a4	-0.11350563
70	0xbcecf4cc	-0.028925322
71	0x3d8ecc17	0.06972521
72	0x3cb7115b	0.022347143
73	0xbcfe253b	-0.031023612
74	0x3e085aaf	0.13315843
75	0x3dd6489d	0.10463069
76	0xbd16aee0	-0.036787868
77	0x3d597787	0.053092506
78	0x3c07c186	0.008285886
79	0x3d5d285b	0.053993564
80	0x3afb8eed	0.0019192375
81	0x3db43215	0.08798615
82	0x3d2a8396	0.041629396
83	0xbd2b4ac4	-0.04181935
84	0xbda8b2b1	-0.08237208
85	0xbc5d7e27	-0.013518847
86	0xbdd89bd5	-0.105765976
87	0x3da9b284	0.08286002
88	0x3d0a03e7	0.033695128
89	0x3d64b886	0.055840038
90	0xbda20599	-0.07911224
91	0xbd8abbd1	-0.067741044
92	0x3c4ebfca	0.012618968
93	0xbbf95a69	-0.0076096547
94	0x3cc6034f	0.0241715
95	0xbdc9df69	-0.09857065
96	0xbd3df00a	-0.046371497
97	0x3d440053	0.04785187
98	0xbc36f918	-0.011167787
99	0x3c3bdf30	0.011466786
100	0xbb9a58d1	-0.004710295
101	0x3db3b4ae	0.08774696
102	0x3d8f0e83	0.0698519
103	0xbc05fc92	-0.008177893
104	0xbdad198c	-0.08452138
105	0x3cc88813	0.024478948
106	0xbd927bc0	-0.0715251
107	0x3c7b301d	0.015331295
108	0xbd755a47	-0.05990055
109	0x3d571d7d	0.052518357
110	0xbdd80f80	-0.105498314
111	0xbdb7228a	-0.08942135
112	0xbd652161	-0.055940036
113	0xbbff2d3a	-0.007787374
114	0x3c95ab07	0.018270029
115	0x3cd6e615	0.026232759
116	0x3dba6a69	0.091023274
117	0x3cd5a033	0.026077366
118	0x39ab46ed	0.00032668505
119	0xbd745984	-0.05965568
120	0x3ba27efc	0.0049589854
121	0x3cd5a38a	0.026078958
122	0xbcae60c8	-0.021286383
123	0xbc7020dc	-0.014656272
124	0xbccb2d7c	-0.024801962
125	0x3d4a1aeb	0.049342077
126	0xbdd213b8	-0.10257667
127	0x3cab2f76	0.020896655
128	0xbcb18bc2	-0.021673087
129	0xbcf825fd	-0.030291552
130	0x3ae322ff	0.0017329155
131	0xbd789716	-0.06069096
132	0xbda1db61	-0.07903171
133	0x3d898a7c	0.06715867
134	0xbce6c4ed	-0.028170073
135	0xbd6db79d	-0.058036435
136	0x3dbd5595	0.09244839
137	0x3d36f790	0.044669688
138	0x3dac75d1	0.08420909
139	0x3d6679b1	0.056268398
140	0xbb2614c1	-0.002534196
141	0xbd214bcc	-0.039378926
142	0xbda0e37d	-0.0785589
143	0xbca19893	-0.019726073
144	0x3aa387f6	0.0012476433
145	0x3d0ad9ef	0.033899244
146	0x3d36d02f	0.044632133
147	0x3d85f2dd	0.06540463
148	0xbd94e47e	-0.07270144
149	0xbd8a697a	-0.06758399
150	0xbda8667a	-0.08222671
151	0x3d302c60	0.04301107
152	0xbde2fb89	-0.11083133
153	0x3cef8872	0.029239867
154	0xbb891069	-0.0041828644
155	0xbc96f79f	-0.018428622
156	0x3cdc7f91	0.026916297
157	0x3dac29af	0.08406388
158	0x3cab59ec	0.020916902
159	0x3e0ea4c4	0.1393004
160	0x3ded5cab	0.11589941
161	0xbd98d018	-0.07461566
162	0x3dd264bd	0.102731206
163	0xbd97b9c7	-0.07408481
164	0x3dd09710	0.10185063
165	0x3cd7c750	0.026340157
166	0x3d4b8b2c	0.04969327
167	0x3deb301b	0.11483785
168	0xbd744b2d	-0.059642006
169	0x3c736300	0.014855146
170	0x3dd289a9	0.10280163
171	0x3d918759	0.07105894
172	0x3d77de6e	0.06051486
173	0xbbae309d	-0.0053158537
174	0xbd154562	-0.03644312
175	0xbd98b695	-0.074567
176	0x3d36180f	0.044456538
177	0xbd28960f	-0.041158732
178	0xbd938551	-0.072031625
179	0x3d7e9ccc	0.062161252
180	0xbdccc577	-0.09998601
181	0xbdff8a3e	-0.124775395
182	0x3dd2e13a	0.10296865
183	0x3d87f0f9	0.06637759
184	0x3c62adb1	0.013835357
185	0xbe16589d	-0.14682241
186	0xbd320611	-0.043462817
187	0xbcc95b28	-0.0245796
188	0x3dc280b4	0.094972044
189	0x3d986d15	0.07442681
190	0x3dd27053	0.102753304
191	0x3df4e47c	0.119576424
192	0xbd0e761c	-0.034780607
193	0x3dc2d027	0.09512358
194	0xbc301de2	-0.010749312
195	0xbd8c7936	-0.06859057
196	0xbb9ff0b7	-0.0048809904
197	0x3cf852ef	0.030312983
198	0xbb1e5f70	-0.0024165772
199	0x3dc4b24f	0.09604322
200	0xbd073246	-0.03300693
201	0xbd49d723	-0.049277436
202	0xbd0cd396	-0.03438147
203	0xbd94c9c2	-0.07265045
204	0x3c4471d2	0.0119900275
205	0xbd856510	-0.06513417
206	0x3d08b2d0	0.033373654
207	0x3d8c988d	0.06865034
208	0x3b9c1a06	0.0047638444
209	0xbdbbd574	-0.09171572
210	0xbcab8b52	-0.020940457
211	0x3d7ce846	0.06174495
212	0xbd559bb6	-0.05215045
213	0xbd89523e	-0.067051396
214	0xbcc83130	-0.024437517
215	0x3e01d056	0.1267713
216	0x3dbb1131	0.091341384
217	0x3de8c0b6	0.11364882
218	0xbd71a9ac	-0.058999702
219	0x3ccb947a	0.024851073
220	0xbd0468ff	-0.032326695
221	0x3d4fdf98	0.050750345
222	0xbc72ec91	-0.01482691
223	0xbd5cd0a0	-0.053909898
224	0x3dcd2f32	0.100187674
225	0x3d1bf64b	0.03807668
226	0x3c37f54d	0.011227918
227	0x3d3f1bf3	0.046657514
228	0x3dd0bc0d	0.10192118
229	0x3cfe09ac	0.031010471
230	0x3d231549	0.03981522
231	0xbcf7e39f	-0.030259905
232	0x3d7eb090	0.062180102
233	0xbcb010df	-0.02149242
234	0xbe04f3f0	-0.1298368
235	0x3d1e976e	0.038718633
236	0x3d9bb337	0.07602542
237	0x3c971c4d	0.018446112
238	0x3db1196c	0.08647427
239	0xbd8f0c9e	-0.069848284
240	0xba63322b	-0.00086668384
241	0x3d08474d	0.033271123
242	0xbc88e9ed	-0.016713107
243	0x3d30aefa	0.04313562
244	0x3d3258d8	0.04354176
245	0x3cb2c5b7	0.021822793
246	0xbe09703d	-0.13421722
247	0x3d6b330c	0.05742173
248	0xbbc541e3	-0.006019817
249	0x3bd367f6	0.006451602
250	0xbd413463	-0.0471691
251	0xbdab2e03	-0.083583854
252	0x3e106d20	0.14104128
253	0xbd24cdae	-0.040235214
254	0x3e0caf77	0.1373881
255	0x3c8a6af1	0.016896697

weight f4 [32]
0	0x3f78b2a6	0.97147596
1	0x3f806654	1.0031228
2	0x3f80fa9a	1.0076478
3	0x3f801cfa	1.0008843
4	0x3f805ab6	1.0027683
5	0x3f827aec	1.0193763
6	0x3f841048	1.0317469
7	0x3f832ade	1.0247457
8	0x3f83a91c	1.0285983
9	0x3f7e9316	0.99443185
10	0x3f812327	1.0088853
11	0x3f7ed87d	0.99549085
12	0x3f843b31	1.0330564
13	0x3f80279e	1.001209
14	0x3f8133b1	1.00939
15	0x3f819cd0	1.012598
16	0x3f810e26	1.0082443
17	0x3f7d1f9e	0.9887637
18	0x3f820734	1.0158448
19	0x3f833609	1.0250865
20	0x3f80b546	1.005532
21	0x3f808d3f	1.0043105
22	0x3f7dd0dd	0.99146825
23	0x3f7c2dde	0.9850749
24	0x3f8087c0	1.0041428
25	0x3f8252a3	1.0181469
26	0x3f76b654	0.9637196
27	0x3f7b0093	0.9804775
28	0x3f7d6895	0.98987705
29	0x3f807b8e	1.0037706
30	0x3f7e0dfb	0.9924008
31	0x3f824602	1.0177615

bias f4 [32]
0	0x3b8c6b47	0.0042852494
1	0xbcaed9b7	-0.021344049
2	0xbcfb5a79	-0.03068279
3	0xbd27e1b2	-0.040986724
4	0xbcdb178d	-0.026744628
5	0x3c75eb32	0.015009688
6	0xbaf20849	-0.0018465604
7	0x3c12ff90	0.008972064
8	0x3ba4edb6	0.00503322
9	0xbd53aad2	-0.05167658
10	0xbd15dbec	-0.036586687
11	0xbd2ac83c	-0.041694865
12	0xbd39ac7e	-0.045330517
13	0xbd3614d8	-0.044453472
14	0xbc388c7d	-0.011263964
15	0x3d3094bf	0.043110605
16	0xbda495c4	-0.08036378
17	0xbc129a3e	-0.008947907
18	0xbcefad42	-0.02925742
19	0x3d1cffca	0.038329877
20	0xbac770df	-0.0015216133
21	0x3d4d4106	0.05011084
22	0xbcb47083	-0.022026306
23	0xbcccc242	-0.024994973
24	0x3bfd7041	0.007734329
25	0xbd23d869	-0.040001307
26	0x3c1dd43a	0.009633118
27	0xbcda2e06	-0.026633274
28	0xbd0237cb	-0.03179149
29	0x3bec9795	0.0072202184
30	0x3bd77052	0.006574669
31	0xbd0ce16d	-0.03439467

running_mean f4 [32]
0	0x3b8330d7	0.004003625
1	0xbc321367	-0.010868884
2	0x3c9b580f	0.018962888
3	0x3aef3fde	0.0018253287
4	0x3c97ffc6	0.01855458
5	0xbb3ebd76	-0.0029104627
6	0xbb5e3142	-0.0033903872
7	0xbca906bc	-0.020633094
8	0x3c9e554c	0.019327782
9	0x3bb113fa	0.0054039927
10	0xbb69f599	-0.0035699366
11	0xbcacfb85	-0.021116028
12	0x3b3d8d03	0.002892316
13	0xbb9928bb	-0.004674045
14	0x3c520f32	0.012821006
15	0xbcfb14a5	-0.030649493
16	0x3cb0fdfa	0.02160548
17	0xbb8a9b54	-0.0042299423
18	0x3c5f6995	0.013636013
19	0x3d05d7c2	0.032676466
20	0xbbd71b04	-0.0065645
21	0x3b9d0f7f	0.004793107
22	0x3cbec6d3	0.023288166
23	0x3a31f4ab	0.00067884725
24	0x3c950226	0.018189501
25	0x3b9942b7	0.0046771425
26	0x3b673d37	0.003528429
27	0x3bac353b	0.005255369
28	0x3c98d7a5	0.018657515
29	0x3c798cec	0.015231352
30	0xbb82f4ad	-0.003996453
31	0x3afab2e5	0.0019126801

running_var f4 [32]
0	0x3b92ea06	0.004483464
1	0x3b6aef9e	0.003584839
2	0x3ba38952	0.004990735
3	0x3b871a4c	0.004123008
4	0x3b96bb2f	0.0045999507
5	0x3b98d182	0.004663647
6	0x3b84210b	0.0040322593
7	0x3b7b04b7	0.003830237
8	0x3bb26f75	0.0054454156
9	0x3b8e88b2	0.0043497914
10	0x3b8f3e50	0.004371442
11	0x3b95f934	0.0045768265
12	0x3b951ffa	0.004550931
13	0x3b74249c	0.0037253266
14	0x3b972368	0.004612375
15	0x3b959840	0.0045652688
16	0x3ba6a042	0.005085022
17	0x3b9133b5	0.004431213
18	0x3bbe4659	0.005806726
19	0x3ba5c423	0.0050587817
20	0x3b973b22	0.0046152035
21	0x3b785189	0.0037890396
22	0x3bb5376a	0.0055302875
23	0x3b813753	0.0039433627
24	0x3b92d762	0.004481242
25	0x3b817f32	0.0039519304
26	0x3b8d2fc9	0.004308675
27	0x3b8cc201	0.004295588
28	0x3b94006b	0.0045166514
29	0x3b8022ae	0.003910384
30	0x3bafe281	0.0053675775
31	0x3b848052	0.0040436173

weight f4 [32, 32, 3]
0	0xbd5337a6	-0.051566742
1	0xbcf0e752	-0.029407177
2	0x3d4c9684	0.04994823
3	0xbca77cf4	-0.020445324
4	0x3db33dab	0.087519966
5	0xbdad6ffd	-0.08468626
6	0xbd81352b	-0.06308969
7	0x3d47f070	0.048813283
8	0xbd992066	-0.07476883
9	0xbc9e78e3	-0.019344753
10	0xbdb93ceb	-0.09044822
11	0x3d94593d	0.07243583
12	0xbd081d96	-0.03323134
13	0xbdd1e915	-0.10249535
14	0x3d822945	0.06355528
15	0xbcaadeed	-0.020858252
16	0xbcf793a9	-0.030221777
17	0xbd79534f	-0.060870465
18	0x3d0aa185	0.033845443
19	0xbd844885	-0.064591445
20	0x3d9a4949	0.07533509
21	0x3cb2d3f5	0.021829585
22	0xbd91bdf6	-0.0711631
23	0x3d483c50	0.048885643
24	0x3d81757f	0.06321239
25	0x3d4a8162	0.049439795
26	0x3d3a92fd	0.045550335
27	0x3db3ec99	0.08785362
28	0x3de43c23	0.11144283
29	0xbdcddb34	-0.10051575
30	0xbda61a90	-0.08110535
31	0xbdc430c0	-0.09579611
32	0xbc33fa14	-0.010984916
33	0x3c59e308	0.013298757
34	0xbda23488	-0.07920176
35	0x3c14f688	0.009091981
36	0x3ce5d961	0.028057756
37	0xbd438008	-0.047729522
38	0x3d960fd9	0.073272415
39	0x3b8dc225	0.0043261223
40	0xbdc54b28	-0.096334755
41	0xbd0565b6	-0.032567702
42	0x3d613c4a	0.054989137
43	0x3cf73362	0.030175868
44	0xbdb616ad	-0.08891044
45	0xbd06afac	-0.032882378
46	0x3d979dca	0.07403143
47	0x3cfe4475	0.031038502
48	0xbda27c0d	-0.07933817
49	0x3caf0d60	0.021368682
50	0xbd00fa0d	-0.031488467
51	0xbd51276c	-0.051062986
52	0x3c2b230d	0.0104453685
53	0x3d019559	0.03163657
54	0xbdaad09b	-0.083405696
55	0xbd7a9833	-0.061180305
56	0xbd85d02c	-0.06533846
57	0xbd2da7bf	-0.042396303
58	0x3c0930ca	0.008373449
59	0x3d39c9d2	0.045358486
60	0x3d5d5b5e	0.054042213
61	0xbd99a21c	-0.07501623
62	0x3d97e6b1	0.07417048
63	0x3d85a62f	0.06525838
64	0xbdbb8886	-0.09156899
65	0x3bf4bf01	0.0074690585
66	0xbd4d0f17	-0.05006322
67	0xbda7da15	-0.08195893
68	0x3ce62f59	0.028098749
69	0x3dadf208	0.084934294
70	0xbb72586f	-0.003697898
71	0x3d2c7f3a	0.04211352
72	0xbdf6d282	-0.1205187
73	0x3ce6715d	0.028130228
74	0x3dce2fd8	0.10067719
75	0xbd985930	-0.07438886
76	0xbd38a353	-0.045077633
77	0xbcd15cf3	-0.025557017
78	0x3b96cc6d	0.004602006
79	0xbde637a3	-0.112410806
80	0x3aa50a72	0.0012591614
81	0xbd2fc7e4	-0.04291524
82	0xbd30b963	-0.04314555
83	0x3c6172d1	0.0137602845
84	0x3c965f4f	0.018355994
85	0x3cc254af	0.02372202
86	0xbda7090b	-0.08156022
87	0xbd46fd3d	-0.04858135
88	0x3c71a30f	0.014748349
89	0x3b9604ff	0.0045782323
90	0x3d84d308	0.064855635
91	0xbdd75616	-0.105144665
92	0x3db62adb	0.08894893
93	0xbdf4b273	-0.11948099
94	0x3d3cf7bb	0.04613469
95	0x3d00fa4c	0.0314887
96	0x3dc9c86c	0.098526806
97	0x3cf94a72	0.030431006
98	0xbd5a6f92	-0.053329058
99	0xbd36be56	-0.044615112
100	0xbca79540	-0.02045691
101	0xbd0a1427	-0.033710625
102	0x3b77e484	0.0037825415
103	0xbd975264	-0.07388762
104	0x3c614b52	0.013750868
105	0xbc24515f	-0.010029166
106	0xbc3490f4	-0.011020888
107	0x3d725f02	0.059172638
108	0x3d7f8b2c	0.062388584
109	0xbd0ea1ba	-0.034822203
110	0x3d50052a	0.050786175
111	0x3d8c6a75	0.068562426
112	0x3d2a637f	0.041598793
113	0x3c3c3323	0.011486801
114	0xbc7e0034	-0.015502978
115	0xbdb91454	-0.090370804
116	0x3d8e6ab7	0.06953948
117	0x3d08828d	0.033327628
118	0x3d418e63	0.04725493
119	0xbcae492d	-0.021275127
120	0xbddee394	-0.10883251
121	0x3db7c37c	0.089728326
122	0xbd5adbb4	-0.05343218
123	0xbd9ddb1d	-0.07707808
124	0x3c6c9f6f	0.014442309
125	0xbd90d94d	-0.07072697
126	0xbddff3a0	-0.1093514
127	0xbdba7274	-0.091038615
128	0x3cc7e59d	0.02440148
129	0xbd8a8004	-0.06762698
130	0x3db0ba27	0.08629256
131	0x3d807baf	0.06273591
132	0xbd47728b	-0.04869322
133	0xbd5a11c2	-0.05323959
134	0x3d3ea622	0.046545155
135	0xbd31666b	-0.043310564
136	0xbd27f579	-0.041005585
137	0x3c0390f2	0.008030163
138	0x3d975853	0.073898934
139	0xbd655a4b	-0.055994313
140	0xbcb96e9d	-0.022635752
141	0x3db8a6fe	0.09016226
142	0x3d3e1f42	0.04641653
143	0x3dcbc5db	0.09949847
144	0xbdb485f7	-0.08814614
145	0xbc2b627a	-0.01046049
146	0x3d2d7c9f	0.042355176
147	0xbdbbb9dc	-0.09166309
148	0x3d002664	0.031286612
149	0x3c3d5d8c	0.011557948
150	0xbd251af0	-0.040308893
151	0x3cfdf4f0	0.031000584
152	0xbd858b0c	-0.06520662
153	0xbd9aa7b1	-0.07551516
154	0xbde4ac5a	-0.11165686
155	0xbd98bcc1	-0.07457877
156	0x3cd88293	0.02642945
157	0xbd90e7e7	-0.07075482
158	0xbc552dd2	-0.013011413
159	0x3cb8abf1	0.022542926
160	0xbd86427f	-0.06555652
161	0x3d2cfa88	0.042231113
162	0x3cb21267	0.02173729
163	0xbdb54209	-0.08850486
164	0xbda5a83b	-0.08088728
165	0x3dd4cc61	0.10390545
166	0x3db960ab	0.09051641
167	0xbd67549b	-0.05647717
168	0xbd6ae09c	-0.05734311
169	0xbcb56b02	-0.022145752
170	0xbbd78a5e	-0.006577774
171	0xbba877e8	-0.005141247
172	0x3d27289e	0.04081022
173	0x3cae123d	0.021248931
174	0x3d1d2688	0.038366824
175	0xbd9aeb76	-0.07564442
176	0x3c830a15	0.015996018
177	0x3d6ed403	0.05830766
178	0xbd358c7a	-0.044323422
179	0xbd0267b6	-0.031837188
180	0xbd0258bc	-0.031822905
181	0xbd051303	-0.032488834
182	0xbba25cf3	-0.004954928
183	0xbda66cce	-0.081262216
184	0xbdacdbd6	-0.08440368
185	0xbd448a41	-0.04798341
186	0xbc1599ab	-0.009130876
187	0xbd32281e	-0.04349529
188	0x3c427d2e	0.0118706655
189	0xbd86b2bd	-0.0657706
190	0xbd3c2404	-0.045932785
191	0x3d7ea969	0.06217328
192	0x3cc94d60	0.024573028
193	0x3cb0d4a0	0.021585763
194	0x3d8b04b2	0.06788005
195	0xbdb5c005	-0.088745154
196	0xbcb98f0b	-0.022651216
197	0x3d0d8f7e	0.034560673
198	0x3d80560e	0.06266414
199	0x3d1b47a4	0.03791012
200	0x3d95949c	0.073037356
201	0x3dc7685a	0.097367
202	0xbdb20c17	-0.08693712
203	0x3d4357d2	0.047691174
204	0x3d8183b6	0.0632395
205	0x3d80c563	0.062876485
206	0x3da114d0	0.07865298
207	0x3d6d8732	0.05799026
208	0x3cb05033	0.021522617
209	0xbd122f26	-0.035689496
210	0xbd1fe823	-0.039039742
211	0x3d85b3a2	0.06528403
212	0xbd7f399b	-0.062310796
213	0xbd9b8542	-0.07593776
214	0xbda8cf44	-0.08242658
215	0xbd496b52	-0.049174614
216	0xbd1b93ed	-0.03798287
217	0xbc4f7eb0	-0.012664482
218	0xbcccb719	-0.024989652
219	0x3d9c9106	0.076448485
220	0xbd89a3e4	-0.06720713
221	0x3d06a35a	0.032870628
222	0x3bd66a29	0.006543417
223	0xbc7acadd	-0.015307155
224	0xba96c3b5	-0.0011502417
225	0x3cbc591d	0.022991711
226	0x3d0308a1	0.03199065
227	0xbcdb8f8a	-0.026801843
228	0xbcfb1909	-0.030651586
229	0x3d849c5c	0.06475136
230	0x3da445c9	0.08021123
231	0xbd531d4a	-0.051541604
232	0xbd93fe37	-0.07226222
233	0xbd238b0a	-0.03992752
234	0x3dc9cb57	0.09853237
235	0x3d338322	0.04382623
236	0xbaa9ec62	-0.0012964124
237	0xbda70ff9	-0.081573434
238	0x3c91e6d2	0.017810259
239	0x3d17c58c	0.03705363
240	0x3d43b410	0.047779143
241	0xbd9a6310	-0.07538426
242	0xbda5d886	-0.08097939
243	0x3d75d256	0.060015045
244	0x3cb1c700	0.021701336
245	0x3d0995e4	0.033590212
246	0xbc59028d	-0.013245237
247	0xbd19532a	-0.037432827
248	0x3d348202	0.044069298
249	0xbd5c0aa5	-0.05372109
250	0x3d44ad6b	0.048016947
251	0x3cea1d4a	0.02857842
252	0x3d0481c1	0.032350305
253	0x3d96cf9c	0.07363817
254	0xbb40eaee	-0.0029436904
255	0x3dbbfd67	0.09179192

weight f4 [32]
0	0x3f7ace8b	0.9797141
1	0x3f830eca	1.0238888
2	0x3f84e5ff	1.0382689
3	0x3f79cbd8	0.97576666
4	0x3f82916e	1.0200632
5	0x3f7e74b5	0.9939683
6	0x3f7b9613	0.9827587
7	0x3f7be098	0.9838958
8	0x3f79552c	0.97395587
9	0x3f878790	1.0588245
10	0x3f805a9e	1.0027654
11	0x3f7fb46b	0.9988467
12	0x3f773b4e	0.96574867
13	0x3f7eae47	0.99484676
14	0x3f86b488	1.0523844
15	0x3f7fde7e	0.9994887
16	0x3f7c2878	0.9849925
17	0x3f79bb9a	0.9755188
18	0x3f7cf1d7	0.9880652
19	0x3f8034e8	1.0016146
20	0x3f7eb0a6	0.99488294
21	0x3f7f5126	0.997332
22	0x3f822914	1.0168786
23	0x3f843f1a	1.0331757
24	0x3f7a36ba	0.97739756
25	0x3f7f1a46	0.99649465
26	0x3f806ff2	1.0034163
27	0x3f7b16ff	0.98081964
28	0x3f81e45b	1.0147814
29	0x3f82152d	1.0162712
30	0x3f81d1a4	1.0142102
31	0x3f7e9180	0.99440765

bias f4 [32]
0	0x3c090973	0.008364069
1	0x3c4e89dd	0.012606111
2	0x3d4ae4ab	0.04953448
3	0xba38ef1d	-0.00070546736
4	0xbc0d020f	-0.008606448
5	0x3c6accd3	0.01433106
6	0xbd4fa95d	-0.050698627
7	0xbb9026e0	-0.0043991655
8	0xbccf3f86	-0.025298845
9	0x3c2a31b2	0.010387825
10	0x3d089fef	0.03335565
11	0x3ad8aba6	0.0016530647
12	0xbc744a24	-0.014910255
13	0x3c4ea076	0.012611499
14	0x3ba68448	0.005081687
15	0xbb81eece	-0.0039652353
16	0xbd1de5e6	-0.038549326
17	0xbd72a599	-0.059239957
18	0xbd52f520	-0.0515033
19	0x3c2bd5f9	0.010488027
20	0x3aaefd74	0.0013350681
21	0xbbeb973f	-0.007189661
22	0x3cc734be	0.024317142
23	0x3d08eeac	0.03343074
24	0x3c1a1537	0.009404472
25	0xbc010759	-0.007875287
26	0x3cdf0407	0.0272236
27	0xbc7e4074	-0.0155182965
28	0x3cea48c9	0.02859916
29	0xbc9c1864	-0.0190546
30	0x3cde26ca	0.027118105
31	0xbc4d7bbb	-0.012541707

running_mean f4 [32]
0	0xbdaf2990	-0.08552849
1	0xbd8abcb4	-0.067742735
2	0x3db105fe	0.08643721
3	0x3cfbb3a9	0.030725317
4	0x3dd3eec5	0.10348276
5	0xbe7c4213	-0.2463458
6	0xbe050935	-0.12991793
7	0xbb09b613	-0.0021013066
8	0x3d1f9310	0.03895861
9	0xbdb883fd	-0.0900955
10	0x3e4b95de	0.19881389
11	0x3da5223e	0.08063172
12	0x3bd4605d	0.006481214
13	0x3d515b59	0.051112507
14	0x3db2ea6e	0.0873612
15	0x3d88fd9b	0.066889964
16	0xbc6d86e2	-0.014497491
17	0x3cad1902	0.021130089
18	0x3acec660	0.0015775673
19	0x3e3a3123	0.18182807
20	0xbda91ab3	-0.082570456
21	0x3ca4c77f	0.020114658
22	0x3d9c42b3	0.07629909
23	0x3d907a90	0.07054627
24	0xbe4acc6f	-0.19804548
25	0x3bb813cf	0.0056175957
26	0x3e3cc6a2	0.18435147
27	0x3d16abe6	0.03678503
28	0xbc71cb4b	-0.0147579415
29	0xbcd397bc	-0.025829189
30	0x3c7adfa1	0.015312106
31	0x3ca7198c	0.020397924

running_var f4 [32]
0	0x3e690d45	0.22758968
1	0x3ed5f7eb	0.4179071
2	0x3e9aa877	0.30206653
3	0x3e3d824c	0.18506736
4	0x3e484fbd	0.19561668
5	0x3f0c8aa1	0.5489903
6	0x3e21d048	0.15802109
7	0x3e61c147	0.22046386
8	0x3e2e5880	0.17025948
9	0x3ee41c08	0.44552636
10	0x3e97c463	0.2964202
11	0x3e242372	0.16029146
12	0x3e9f8d01	0.31162265
13	0x3e987300	0.29775238
14	0x3e6f287b	0.23355286
15	0x3e51d68c	0.20492
16	0x3dcd77d5	0.10032622
17	0x3e87f70b	0.26555666
18	0x3df9f70c	0.122053236
19	0x3ea34977	0.31891987
20	0x3e50c42e	0.20387337
21	0x3e7996aa	0.2437388
22	0x3e834bcd	0.2564377
23	0x3e62e51e	0.22157714
24	0x3e9df29d	0.30849162
25	0x3e2a3272	0.16620806
26	0x3eb70996	0.357495
27	0x3e18366b	0.14864509
28	0x3e9a3def	0.30125377
29	0x3e2ff475	0.17183097
30	0x3e8b8fd6	0.27258176
31	0x3e4ec0da	0.20190755

weight f4 [32, 32, 3]
0	0x3d89d14c	0.06729373
1	0x3cbe944c	0.023264073
2	0xbda6bc26	-0.08141355
3	0xbd848930	-0.06471479
4	0xbd93dad0	-0.072194695
5	0xbc8f22f5	-0.017472723
6	0xbd897e55	-0.06713549
7	0x3d87f7d4	0.06639066
8	0xbd2dadd8	-0.04240212
9	0xbbe546b4	-0.006996954
10	0x3d0218d4	0.03176196
11	0x3c9ff10d	0.019524122
12	0x3b3acbc9	0.0028502813
13	0xbdf1264e	-0.11774884
14	0xbb893f96	-0.0041884882
15	0x3d17ea55	0.03708871
16	0x3da6db62	0.08147313
17	0x3d9cc79c	0.0765526
18	0x3b4d661f	0.0031341386
19	0xbd9ba9a9	-0.076007195
20	0x3d9943d5	0.07483641
21	0x3d88cece	0.0668007
22	0xbd0b597d	-0.03402089
23	0xbd27f466	-0.04100456
24	0x3c7ab233	0.015301275
25	0xbc56912a	-0.013096133
26	0xbcf90696	-0.030398648
27	0x3dceaf55	0.10092036
28	0xbd2348a7	-0.03986421
29	0x3db76dad	0.08956466
30	0x3c10763b	0.008817251
31	0xbe030eb7	-0.12798582
32	0xbd543429	-0.051807556
33	0xbd5df30e	-0.054186873
34	0xbbb96bfb	-0.005658624
35	0x3d526621	0.05136693
36	0xbda2068a	-0.079114035
37	0xbd65c8bd	-0.056099642
38	0x3da36141	0.07977534
39	0xbd9f6ef7	-0.07784837
40	0xbc36b804	-0.011152271
41	0xbda884f7	-0.08228486
42	0x3c23b200	0.009991169
43	0xbd8e5826	-0.06950407
44	0x3da6fa68	0.0815323
45	0xbdb3e667	-0.0878418
46	0x3cf37d4a	0.029722828
47	0xbdcdcc18	-0.100486934
48	0xbd9b9375	-0.075964846
49	0x3d773460	0.060352683
50	0x3d1997d6	0.037498318
51	0xbd3e3467	-0.046436694
52	0xbdc04dd0	-0.093898416
53	0xbdb2af65	-0.0872486
54	0x3d57332f	0.052539047
55	0xbd3f07ec	-0.046638414
56	0xbd69fa20	-0.057123303
57	0xbdc8683c	-0.09785506
58	0x3c972162	0.018448535
59	0x3b66950e	0.0035184058
60	0xbd519ffd	-0.051177967
61	0xbd598bb6	-0.053111754
62	0x3d31398c	0.04326777
63	0xbcfe1411	-0.031015428
64	0x3caadefa	0.020858277
65	0xbd84ade1	-0.06478477
66	0xbdc17679	-0.09446425
67	0x3b6f4e73	0.0036515265
68	0xbdd5bc40	-0.104362965
69	0xbbde4687	-0.00678331
70	0xbd9cd8ad	-0.07658515
71	0xbdc5aded	-0.09652314
72	0xbd92c8ba	-0.07167192
73	0xbcfa54ab	-0.030557951
74	0xbd5befd6	-0.053695522
75	0xbdba8884	-0.091080695
76	0xbddb7c6e	-0.107170925
77	0xbc387c19	-0.011260056
78	0x3c8cb151	0.017174395
79	0xbc92d3bf	-0.017923234
80	0xbd86146a	-0.065468624
81	0x3d9bbb99	0.07604141
82	0x3d165584	0.036702648
83	0xbdba7572	-0.09104432
84	0x3d3b2027	0.04568496
85	0x3d95a797	0.07307356
86	0xbc458206	-0.012054926
87	0x3ccf7b4b	0.025327345
88	0xbcde9299	-0.027169513
89	0x3d34074d	0.043952275
90	0x3d61a290	0.055086672
91	0xbcf07bf2	-0.029355977
92	0xbe0619e8	-0.1309582
93	0x3d4d231d	0.050082315
94	0x3d8bea8e	0.06831847
95	0xbdd17d43	-0.1022897
96	0x3db6a3e4	0.089179784
97	0xbcab06e4	-0.02087731
98	0xbd82f12c	-0.06393656
99	0xbd620605	-0.055181522
100	0xbd31fd08	-0.0434542
101	0x3d474540	0.048650026
102	0x3d6fc528	0.058537632
103	0x3d8c714e	0.06857549
104	0xbda161ea	-0.07880004
105	0x3daf8cc6	0.08571772
106	0xbd759661	-0.059957866
107	0x3df01069	0.1172188
108	0x3dbd560e	0.09244929
109	0xbd27bcd4	-0.040951565
110	0x3d679459	0.05653796
111	0xbb9293e2	-0.0044731954
112	0xbccf1fc1	-0.025283696
113	0x3e03fe78	0.12890041
114	0x3c0045fa	0.007829184
115	0x3d5b9283	0.05360652
116	0x3d816f7a	0.063200906
117	0xbcf0c342	-0.029389981
118	0x3d21929c	0.03944646
119	0x3c866011	0.01640323
120	0x3d4e6662	0.05039061
121	0x3d851c5e	0.06499551
122	0xbd770aac	-0.060312912
123	0xbde7be40	-0.11315584
124	0x3d155848	0.036461145
125	0x3d216b16	0.039408766
126	0x3c0429fe	0.008066652
127	0x3c493fad	0.012283248
128	0xbd83a810	-0.0642854
129	0x3cc8b688	0.0245011
130	0x3d800655	0.06251208
131	0xbd17a59c	-0.03702317
132	0x3dc0fb76	0.09422962
133	0xbdadac90	-0.08480179
134	0x3da92001	0.082580574
135	0x3d88d16c	0.06680569
136	0x3d8a1522	0.06742312
137	0x3d5f23a4	0.05447735
138	0x3dd6b073	0.10482874
139	0x3da2eb93	0.079550885
140	0xb9c72e7d	-0.00037990874
141	0x3c846077	0.01615928
142	0x3cc1870c	0.023623966
143	0x3c902a39	0.017598258
144	0x3dbf4610	0.09339535
145	0x3dc57858	0.096420944
146	0xbdbfaf6c	-0.09359631
147	0xbda44e15	-0.080227055
148	0xbdb2737c	-0.08713433
149	0x3b286be6	0.0025699078
150	0xbc5d03eb	-0.013489704
151	0x3d81b6a3	0.06333663
152	0x3d798782	0.060920246
153	0x3d07acf9	0.033123944
154	0xbd510ac8	-0.051035672
155	0x3be7dcb5	0.007075871
156	0x3d8e75c2	0.06956054
157	0xbd09c39b	-0.03363381
158	0xbd673dba	-0.05645535
159	0xbc8be84e	-0.017078545
160	0x3cd608f7	0.026127322
161	0x3d8f25da	0.069896415
162	0x3dc1baaa	0.094594315
163	0x3d564858	0.052315086
164	0x3d811a42	0.063038364
165	0x3dace659	0.08442373
166	0x3d61d54c	0.055135056
167	0x3dbfc80b	0.09364327
168	0x3daaac2c	0.083336204
169	0x3d57037f	0.05249357
170	0x3dc33754	0.095320374
171	0x3cd59339	0.026071178
172	0xbd210f81	-0.039321426
173	0x3d938e2e	0.07204853
174	0x3da28673	0.079358004
175	0x3b8f2c3f	0.004369288
176	0x3d43f983	0.047845375
177	0x3c25ca2a	0.010119
178	0xbd828924	-0.06373814
179	0xbc95197b	-0.018200627
180	0x3d23d1be	0.039994948
181	0x3db81c07	0.08989721
182	0x3de6499f	0.11244511
183	0x3dc3f330	0.09567869
184	0x3d13b5dd	0.03606211
185	0x3dbb26e2	0.09138276
186	0x3dc9b723	0.09849384
187	0x3d59e649	0.053198133
188	0x3d4c3c9d	0.049862493
189	0xbd160713	-0.03662784
190	0xbdaa705e	-0.083222136
191	0x3c1eef2f	0.0097005805
192	0xbd399187	-0.0453048
193	0x3d9d53cb	0.07681998
194	0x3d28d0ee	0.041214876
195	0x3d96ddaa	0.07366498
196	0xbd81211d	-0.06305144
197	0xbd90ac39	-0.07064099
198	0xbc827645	-0.015925536
199	0x3d882ca1	0.06649137
200	0x3d5944c5	0.0530441
201	0xbc12c533	-0.008958149
202	0x3b3fcb25	0.002926537
203	0xbd00b2cf	-0.031420525
204	0x3db7b294	0.08969608
205	0xbcfee7ed	-0.03111645
206	0x3d0e52f9	0.034747098
207	0x3bbf00cc	0.0058289524
208	0xbce15f1f	-0.027511178
209	0xbcec1c4d	-0.028822089
210	0xbd59c186	-0.053163074
211	0xbc89fcc5	-0.016844163
212	0xbd4556d5	-0.048178513
213	0xbc9401cd	-0.018067265
214	0xbd749dec	-0.05972092
215	0xbd2b240b	-0.04178242
216	0xbc8ac547	-0.016939772
217	0x3d8f110b	0.069856726
218	0x3ce9452a	0.028475363
219	0xbdab4486	-0.08362679
220	0x3cc016dd	0.023448402
221	0x3dbb37b8	0.09141487
222	0xbc5a8176	-0.01333653
223	0x3df5a87c	0.119950265
224	0x3dd95333	0.10611572
225	0xbd5da0ab	-0.054108303
226	0x3dc21d1f	0.09478211
227	0xbd0cdb73	-0.03438897
228	0x3cac8614	0.021060027
229	0xbd498405	-0.04919817
230	0x3cb1e151	0.021713885
231	0x3d8f4ff7	0.06997674
232	0x3d4548ff	0.048165318
233	0xbcb786d8	-0.022403166
234	0x3db043ab	0.08606657
235	0x3cf075f9	0.029353129
236	0x3da569d7	0.08076828
237	0x3dbfbf89	0.09362704
238	0xbb17bc6a	-0.0023153075
239	0x3d9d2618	0.076732814
240	0x3dc9fdff	0.09862899
241	0x3dd6795a	0.10472365
242	0xbd171b5b	-0.036891323
243	0x3cede871	0.0290415
244	0xbd05e773	-0.03269143
245	0xbcad0e74	-0.021125056
246	0x3d023157	0.031785335
247	0xbd845084	-0.0646067
248	0x3d1f18a5	0.038841862
249	0x3d3f6762	0.046729453
250	0x3dbe0014	0.09277359
251	0x3df5dab1	0.12004603
252	0xbd1c5adc	-0.038172588
253	0x3d2d0c12	0.04224784
254	0x3df5ae3b	0.119961224
255	0xbbae2512	-0.0053144777

weight f4 [32]
0	0x3f775318	0.96611166
1	0x3f76724f	0.9626817
2	0x3f78a817	0.97131485
3	0x3f707f9c	0.93944716
4	0x3f774918	0.9659591
5	0x3f71d153	0.9446003
6	0x3f7803ca	0.9688078
7	0x3f738be3	0.95135325
8	0x3f784c3e	0.96991336
9	0x3f6e762b	0.9314906
10	0x3f774416	0.96588266
11	0x3f75a53a	0.9595524
12	0x3f72ef22	0.9489614
13	0x3f752c92	0.95771134
14	0x3f709d77	0.9399027
15	0x3f709c8e	0.93988883
16	0x3f73ebb0	0.95281506
17	0x3f7e4146	0.9931835
18	0x3f7507b3	0.95714873
19	0x3f799c64	0.9750426
20	0x3f78d4cf	0.9719972
21	0x3f785639	0.97006565
22	0x3f741a3a	0.9535252
23	0x3f781b2e	0.9691647
24	0x3f72dea5	0.9487098
25	0x3f76ffe7	0.96484226
26	0x3f74881c	0.95520186
27	0x3f76d1e6	0.9641403
28	0x3f7941e6	0.9736618
29	0x3f7640ed	0.9619282
30	0x3f76b118	0.96363974
31	0x3f6b7a28	0.9198327

bias f4 [32]
0	0xbc28c63c	-0.010301169
1	0xbc52831f	-0.0128486445
2	0xbbc6731c	-0.0060562026
3	0xbbcf2eb7	-0.0063227075
4	0xbc48b856	-0.01225098
5	0xbc8cb197	-0.017174525
6	0xbc593838	-0.0132580325
7	0xbafd2e12	-0.0019316098
8	0xbc4743bd	-0.012162146
9	0xbd07e774	-0.033179715
10	0xbc8cc55e	-0.017183956
11	0xbb8f131c	-0.0043662917
12	0xbc6e1535	-0.014531423
13	0xbc9422ef	-0.018083064
14	0xbca7323e	-0.0204097
15	0xbc015aba	-0.007895166
16	0xbc964e66	-0.01834793
17	0xbb9ba125	-0.0047494345
18	0xbcb473e0	-0.02202791
19	0xbc4c6021	-0.012474091
20	0xbc3d9270	-0.011570558
21	0xbd118284	-0.03552486
22	0xbcdd850d	-0.027040983
23	0xbc6b2a32	-0.014353322
24	0xbc66abe3	-0.014079067
25	0xbd3b955c	-0.045796737
26	0xbc481730	-0.01221256
27	0xbcc60e76	-0.024176817
28	0xbc3444e3	-0.011002752
29	0xbb8801b5	-0.004150594
30	0xbbec644e	-0.0072141057
31	0xbc821a7a	-0.015881766

running_mean f4 [32]
0	0xbf26a724	-0.65098786
1	0x3f7855e1	0.9700604
2	0x3f383042	0.71948636
3	0x3f58a815	0.8463147
4	0xbea1d85b	-0.3161038
5	0x3f2c1742	0.6722299
6	0xbeadd664	-0.3395263
7	0x3eb6c31d	0.35695735
8	0xbec015ca	-0.37516624
9	0xbeb53291	-0.35390142
10	0xbeeaa855	-0.45831552
11	0x3ed6b6be	0.41936296
12	0x3f1be1f7	0.6089167
13	0xbea05f74	-0.31322825
14	0xbea2f9cd	-0.31831208
15	0x3f248856	0.6427053
16	0xbe6e3e06	-0.23265848
17	0xbeabcf6a	-0.33556682
18	0xbec604d6	-0.38675565
19	0xbf38218a	-0.71926177
20	0xbeb8e363	-0.36110982
21	0xbea154c6	-0.3150999
22	0xbeae7932	-0.3407684
23	0xbeeca697	-0.46220848
24	0xbe59b349	-0.21259798
25	0xbdfc8be5	-0.1233137
26	0xbef0d5bb	-0.47038063
27	0xbe979305	-0.29604355
28	0xbf550541	-0.8321114
29	0x3f4d4955	0.8019002
30	0xbe5961dd	-0.21228738
31	0xbe7e71dc	-0.24848121

running_var f4 [32]
0	0x3ff0b073	1.8803848
1	0x3fbfa846	1.4973228
2	0x4026d7b4	2.6069155
3	0x40618ba1	3.5241473
4	0x3fb0cc5d	1.3812367
5	0x3fc32458	1.5245466
6	0x3fe68ec0	1.8012314
7	0x3fabe1b4	1.3428254
8	0x3f2ff6e1	0.6873608
9	0x3f270b8c	0.65251994
10	0x3fce6f93	1.61278
11	0x3fea242c	1.8292289
12	0x3fc043b9	1.5020667
13	0x3fecf9f4	1.851378
14	0x3f58b952	0.84657776
15	0x403467af	2.8188283
16	0x3f17142b	0.5901515
17	0x3ebcf5f5	0.369064
18	0x3fa296eb	1.2702307
19	0x3fa0168b	1.250688
20	0x3f84c036	1.0371158
21	0x3f3268e5	0.69691306
22	0x40000961	2.0005724
23	0x3f91f7ad	1.140371
24	0x3fa19010	1.2622089
25	0x3f08d367	0.53447574
26	0x3f540f24	0.828356
27	0x3f003c26	0.5009178
28	0x40058c00	2.08667
29	0x4023bca1	2.558388
30	0x3eb02e3b	0.3441027
31	0x3f807be1	1.0037805

weight f4 [128, 160]
0	0xbcae767d	-0.021296734
1	0xbcfdb63a	-0.030970681
2	0x3d5352fc	0.051592812
3	0x3d98e39b	0.07465287
4	0x3d223f7f	0.039611336
5	0x3d2a5fb3	0.041595172
6	0xbcaf14f1	-0.02137229
7	0xbcb9184b	-0.022594592
8	0x3ca4b840	0.020107388
9	0xbcba1ab5	-0.022717813
10	0xbc24ce1d	-0.010058907
11	0xbba3d8cd	-0.00500021
12	0x3c028760	0.007966846
13	0xbcc39c05	-0.023878107
14	0x3cb034ee	0.021509614
15	0x3d9674ef	0.07346522
16	0x3b42212e	0.0029621827
17	0xbd1a5e52	-0.037687607
18	0x3d2f47bf	0.04279303
19	0x3d53e11e	0.05172836
20	0x3cd4af29	0.02596243
21	0xbd96fc8f	-0.073723905
22	0xbb59313b	-0.0033140916
23	0xbd2afac2	-0.041743048
24	0x3d8c9cce	0.068658456
25	0xbd862439	-0.06549878
26	0x3d8b8fe5	0.06814555
27	0x3d85009c	0.06494257
28	0x3d820c29	0.063499756
29	0x39f7dc2b	0.0004727555
30	0x3da09609	0.07841117
31	0x3d3a09d6	0.045419537
32	0x3d6b9f9d	0.057525266
33	0x3c7aa6ba	0.01529854
34	0xbd6d754f	-0.057973202
35	0x3c36122e	0.011112733
36	0xbd6040ab	-0.054749172
37	0xbd4d59b5	-0.05013438
38	0x3b547ab6	0.0032421774
39	0x3d797468	0.06090203
40	0x3c42b37f	0.0118836155
41	0x3c3b2622	0.011422666
42	0x3d5c2ef7	0.053755727
43	0xbd624d5c	-0.055249557
44	0x3cc2e911	0.023792775
45	0x3c1d3a6f	0.009596451
46	0x3b05ff8d	0.002044651
47	0x3d4df9ca	0.050287046
48	0x3c3fb3b5	0.01170056
49	0x3cec01ae	0.028809395
50	0xbd349acc	-0.04409294
51	0x3d8e28e7	0.06941395
52	0x3cd8d99a	0.026470948
53	0x3d8ebe28	0.06969863
54	0xbd0947fb	-0.03351591
55	0xbd8716fc	-0.06596181
56	0x3d60ca60	0.0548805
57	0x3dbb411a	0.091432765
58	0xbd2dd385	-0.04243805
59	0x3cb05182	0.021523241
60	0xbc5d7a65	-0.013517951
61	0xbd08ecf6	-0.03342911
62	0xbd775604	-0.060384765
63	0x3d782c06	0.06058886
64	0xbd5e91a8	-0.054338127
65	0x3c5c51c4	0.013447229
66	0xbd84572f	-0.064619415
67	0x39a3255c	0.00031117618
68	0x3ca61a4d	0.020276213
69	0xbd55fee7	-0.052245047
70	0x3d9aa7ec	0.0755156
71	0xbd21ada5	-0.03947224
72	0x3d33053a	0.043706156
73	0xbcca87f3	-0.024723029
74	0x3cee8632	0.029116724
75	0x3d368b10	0.044566214
76	0x39be6b87	0.00036319738
77	0x3c81d331	0.015847774
78	0xbd26267a	-0.040564038
79	0x3b20213b	0.002443387
80	0x3d7e1551	0.062032048
81	0xbcffda5a	-0.031232048
82	0xbd5a941e	-0.05336391
83	0x3db1d15a	0.08682509
84	0xbba82b3f	-0.0051321085
85	0xbd6a64ef	-0.057225164
86	0x3c35d99b	0.0110992445
87	0x3d9c2abb	0.07625338
88	0xbc8eeafc	-0.017446034
89	0xbd67726c	-0.056505606
90	0x3d999ebb	0.075009786
91	0x3d782395	0.06058081
92	0xbd29bd9b	-0.041440587
93	0x3d81ce4c	0.06338176
94	0xbb2c0f8b	-0.0026254382
95	0xbc14b167	-0.009075499
96	0x3b92a2fe	0.0044749966
97	0xbc629173	-0.013828623
98	0xbd3b15dd	-0.045675147
99	0xbacb30fc	-0.0015502269
100	0x3d4da4a7	0.050205853
101	0xbcf45369	-0.02982493
102	0xbb1e244b	-0.002413052
103	0xbc6f5be9	-0.014609315
104	0xbd807259	-0.0627181
105	0xbd2f69c1	-0.042825464
106	0xbda405fa	-0.080089524
107	0xbc230a6a	-0.009951213
108	0xbcd9c2b3	-0.026582098
109	0x3d71de2e	0.059049778
110	0xbd034e60	-0.032057166
111	0xbc0dcdf3	-0.008655059
112	0x3c3e8a32	0.011629628
113	0xbbbc127a	-0.0057395073
114	0xbc7e9f06	-0.015540844
115	0xbd9a246c	-0.07526478
116	0xbd5edfa6	-0.054412507
117	0xbd847f40	-0.064695835
118	0xbd55fb02	-0.052241333
119	0x3c783706	0.015149837
120	0x3caba296	0.02095155
121	0xbd8320d8	-0.06402749
122	0xbd880111	-0.066408284
123	0x3d4016f8	0.046896905
124	0xbcbebc95	-0.023283282
125	0x3d2eaaa7	0.042643216
126	0x3d3a55d6	0.045492016
127	0x3be3c5ce	0.0069510704
128	0x3cd4fef8	0.026000485
129	0x3da2c886	0.07948403
130	0x3d819661	0.063275106
131	0xbcb7aefd	-0.022422308
132	0x3c7c2b2c	0.015391152
133	0x3d2c652b	0.04208867
134	0xbd78fdc0	-0.06078887
135	0xbd04f91a	-0.032464124
136	0xbd27a1db	-0.04092584
137	0xbd10822d	-0.035280395
138	0xbcc6c092	-0.024261747
139	0xbceb2b2a	-0.028707106
140	0xbd89359c	-0.06699678
141	0x3bc74840	0.006081611
142	0xbd87f45f	-0.06638407
143	0xbd3ada9e	-0.045618646
144	0x3d4c9df2	0.049955316
145	0x3c1d5a54	0.009604055
146	0xbb9f0c01	-0.004853726
147	0xbd21a9c6	-0.03946855
148	0xbd66b133	-0.056321334
149	0x3c676edc	0.014125552
150	0x3d6c2ab3	0.05765791
151	0x3d844404	0.064582855
152	0x3c54a2cf	0.01297827
153	0x3d92dd43	0.071711086
154	0x3d0258c9	0.031822953
155	0xbc1b7cb6	-0.009490183
156	0xbc8931ed	-0.01674744
157	0xbd8916fe	-0.066938385
158	0x3c9084a8	0.01764138
159	0xbcdf5a20	-0.027264655
160	0x3d4eccb7	0.0504882
161	0x3b527740	0.0032114536
162	0x3d3c48e2	0.045967944
163	0x3d8d0826	0.0688632
164	0xbccd89af	-0.025090067
165	0xbba25b33	-0.0049547195
166	0x3d99124f	0.07474195
167	0x3d9d3caf	0.0767759
168	0xbd0372c2	-0.032091863
169	0x3d894efc	0.06704518
170	0x3d496cd9	0.04917607
171	0xbb906f35	-0.004407788
172	0x3d12bb72	0.035823293
173	0x3cf47297	0.029839797
174	0x3d6b9255	0.0575126
175	0x3d80c96f	0.062884204
176	0xbce3bddd	-0.027800495
177	0xbc7d7697	-0.015470169
178	0xbccef725	-0.025264332
179	0x3cc306ea	0.023807008
180	0x3c9ffc5d	0.019529516
181	0x3b24c768	0.002514327
182	0xbbd9c079	-0.006645259
183	0x3d6c019b	0.05761872
184	0xbd575f31	-0.052581016
185	0xbd658035	-0.05603047
186	0x3d03bbe5	0.032161612
187	0xbd653ffe	-0.05596923
188	0xb98bf807	-0.0002669694
189	0xbc45798f	-0.012052908
190	0xbd46d15e	-0.04853951
191	0xbc55867a	-0.01303255
192	0xbcf243f1	-0.029573413
193	0x3d4f3a82	0.050592907
194	0x3d1c169f	0.03810751
195	0xbcaab109	-0.02083637
196	0xbbd9deb3	-0.0066488623
197	0x3d812111	0.06305135
198	0xbd638a8c	-0.05555205
199	0xbd7da9ef	-0.06192964
200	0xbc7554e3	-0.014973852
201	0xbd5a2548	-0.05325821
202	0x3da71a74	0.081593424
203	0x3c649a39	0.013952785
204	0x3d04856d	0.032353807
205	0x3d9083fc	0.07056424
206	0x3d1df7a1	0.038566235
207	0xbd5516e8	-0.0520238
208	0xbd803d0b	-0.06261643
209	0xbd525bd2	-0.051357098
210	0x3d744de6	0.059644602
211	0x3d4f25ef	0.050573286
212	0x3c9622d4	0.018327154
213	0xbd63b8d1	-0.055596177
214	0x3d74763a	0.059683062
215	0x3d538b22	0.05164636
216	0xbc9b455e	-0.018953975
217	0x3d2b3c26	0.04180541
218	0xbd8b5282	-0.068028465
219	0x3d779b89	0.060451064
220	0x3d87659f	0.066111796
221	0x3c26e4cc	0.010186385
222	0x3d86ef33	0.065885924
223	0x3cf23c12	0.02956966
224	0x3d7ed007	0.06221011
225	0xbd77b41b	-0.060474496
226	0x3cd882dc	0.026429586
227	0x3d6ef9cc	0.058343694
228	0xbd6080bb	-0.054810267
229	0x3d90be37	0.070675306
230	0x3d91668f	0.070996396
231	0xbcd86a0f	-0.02641776
232	0x3c1a6fb8	0.00942605
233	0xba0baf5a	-0.00053285586
234	0xbd2051d5	-0.03914054
235	0x3d3cbfb1	0.04608125
236	0x3d4f909a	0.050675012
237	0xbcad6ff4	-0.021171547
238	0x3d828a42	0.06374027
239	0x3cfef7b1	0.031123968
240	0x3d13d0c7	0.036087777
241	0x3d82671d	0.063673235
242	0x3cf5f324	0.030023165
243	0x3c248a2c	0.010042708
244	0x3cd958af	0.026531545
245	0xbd51298e	-0.05106502
246	0xbd8569a6	-0.065142915
247	0x3daa64cc	0.08320007
248	0xbca2da95	-0.019879619
249	0xbbc437a8	-0.00598808
250	0x3d8c0325	0.06836537
251	0x3d02ef6e	0.03196662
252	0xbd642626	-0.055700444
253	0xbd7c40b0	-0.06158513
254	0x3d8cb54e	0.068705186
255	0xbd8eb269	-0.06967623

bias f4 [128]
0	0x3cc520d4	0.024063505
1	0xbc0ce60f	-0.008599772
2	0xbd2ecb45	-0.04267432
3	0xbd79a5a8	-0.060948998
4	0x3d48a81a	0.04898844
5	0x3ba35b2b	0.0049852333
6	0xbd3c841c	-0.046024427
7	0x3d5960f6	0.053070985
8	0xbd532abf	-0.051554438
9	0x3cca5a5b	0.024701288
10	0xbd5b28a4	-0.053505555
11	0xbc6ecd6a	-0.014575342
12	0x3d2ac1c2	0.041688688
13	0xbcc2e972	-0.023792956
14	0xbcb022a2	-0.02150089
15	0x3d362631	0.044470016
16	0xbd9948e3	-0.07484605
17	0xbd1344fe	-0.035954468
18	0xbd9efb4c	-0.07762775
19	0xbd742510	-0.059605658
20	0xbd945c83	-0.07244208
21	0x3d12dd41	0.035855535
22	0x3bea8e76	0.007158096
23	0x3bbf2fd6	0.00583456
24	0xbd2e89ce	-0.04261189
25	0x3d804da8	0.06264812
26	0xbd27ee73	-0.040998887
27	0x3cb11a28	0.021618918
28	0xbcd76e69	-0.026297765
29	0xbd26d3a3	-0.040729176
30	0xbcdfeb7b	-0.027333966
31	0xbb28ee6b	-0.0025776874
32	0xbd861305	-0.065465964
33	0x3d2e5354	0.042559937
34	0x3d7ca414	0.061679915
35	0xbcbb30ec	-0.022850476
36	0xbd506649	-0.050878797
37	0xbd0f61a8	-0.03500524
38	0x3d67991a	0.056542493
39	0x3d9204ca	0.0712982
40	0x3c469d8b	0.012122522
41	0xbd5b5851	-0.053551022
42	0x3d3f9955	0.04677709
43	0xbd0c8a83	-0.034311783
44	0x3c28eadf	0.010309904
45	0x3d82d87f	0.063889496
46	0xbd6aa18d	-0.057282973
47	0xbd66933c	-0.056292757
48	0xbcd42a05	-0.025898943
49	0x3cbe63f8	0.023241028
50	0x3c9cbee3	0.01913399
51	0xbd5f96b5	-0.054587085
52	0x3d7a5635	0.06111737
53	0x3d31d47b	0.043415528
54	0x3c4c7e44	0.012481276
55	0x3c02b121	0.007976801
56	0x3cf8cd8c	0.03037145
57	0x3a53f60c	0.0008085675
58	0xbd6a0208	-0.057130843
59	0x3d850924	0.06495884
60	0xbccddc37	-0.02512942
61	0x3d901bff	0.0703659
62	0x3d8babfc	0.06819913
63	0x3cbad298	0.022805497
64	0x3c850951	0.016239794
65	0xbcdedef3	-0.02720592
66	0x3d9434ae	0.0723661
67	0xbc9fdd22	-0.019514624
68	0x3c6086bc	0.013703998
69	0x3d88fec3	0.06689217
70	0xb8a2d9a1	-7.7652985e-05
71	0xbd4cebdd	-0.050029624
72	0xbd27b42b	-0.040943306
73	0x3d8291f7	0.06375497
74	0xbd5f15db	-0.054464202
75	0xbd252205	-0.040315647
76	0xbce5a950	-0.028034836
77	0xbd18487f	-0.037178513
78	0x3ce06deb	0.027396163
79	0xbd39e66b	-0.04538576
80	0x3c2ba4e7	0.0104763275
81	0xbb13d39f	-0.0022556556
82	0x3c9737ef	0.018459288
83	0xbd8c69be	-0.06856106
84	0xbd19d8fa	-0.03756044
85	0xbd06b2dc	-0.032885417
86	0x3d426f05	0.047469158
87	0x3d576c5f	0.052593585
88	0xbd6dd9f7	-0.058069196
89	0xbd04dc37	-0.032436576
90	0xbd8199c5	-0.06328157
91	0x3c5fc3a3	0.013657483
92	0xbd5e0217	-0.05420121
93	0x3da3e5c7	0.08002811
94	0x3ca7c937	0.020481689
95	0x3d1776fa	0.0369787
96	0x3c2a3a97	0.0103899455
97	0xbd9d70ca	-0.076875284
98	0x3d00a323	0.03140558
99	0x3d6fbb77	0.05852839
100	0xba0d8c52	-0.00053996325
101	0x3d9736b7	0.07383483
102	0x3d73ba3b	0.059503775
103	0xbc737336	-0.014859011
104	0x3c1b1610	0.009465709
105	0xbd8d6e3f	-0.069057934
106	0xbc35fe7e	-0.011108039
107	0x3bc40d86	0.0059830574
108	0x3b8c3b62	0.00427954
109	0xbc42e771	-0.011896
110	0xbc2fad2a	-0.010722438
111	0x3ca524ed	0.02015921
112	0xbbf6b0db	-0.007528407
113	0xbd86507f	-0.06558322
114	0x3d9fe7a1	0.078078516
115	0x3cb7ab21	0.022420468
116	0xbd7f0de5	-0.06226911
117	0x3d2a3c81	0.041561607
118	0xbcb5da7c	-0.022198908
119	0xbd6df8c0	-0.058098555
120	0xbc381c57	-0.0112372255
121	0x3c834480	0.016023874
122	0xbc8c6547	-0.017138137
123	0xba5cbcb5	-0.00084204535
124	0x3c8ed081	0.017433407
125	0x3cd1bd21	0.025602879
126	0x3d33411e	0.043763272
127	0x3ccf6aa5	0.025319407

weight f4 [128, 128]
0	0xbda2848f	-0.0793544
1	0xbd8ddf0f	-0.06927311
2	0x3d1db1a9	0.038499508
3	0xbc9def69	-0.019279199
4	0xbd724b03	-0.059153568
5	0x3d6180d3	0.055054497
6	0x3da6bfc8	0.08142048
7	0xbbba850d	-0.0056921304
8	0xbd9490c4	-0.07254174
9	0x3d439345	0.04774787
10	0x3daf42ce	0.08557664
11	0xbd6c1722	-0.05763925
12	0xbbb2a84e	-0.0054521924
13	0x3d03dd61	0.032193545
14	0x3cd9b330	0.026574701
15	0x3d88f0cd	0.06686554
16	0xbc98879c	-0.018619351
17	0x3da566c2	0.0807624
18	0x3c9c9d9d	0.019118125
19	0xbd5be4af	-0.053684887
20	0xbc502a04	-0.01270533
21	0xbd21ab24	-0.039469853
22	0xbce77eb7	-0.028258665
23	0x3d0423c6	0.03226068
24	0xbb9c53f2	-0.0047707492
25	0xbd169b2a	-0.03676907
26	0x3c9b1387	0.01893021
27	0xbcb2eae6	-0.021840524
28	0x3da13537	0.07871478
29	0xbcaff55f	-0.021479307
30	0x3da294fe	0.07938574
31	0xbd8b9488	-0.068154395
32	0x3d912149	0.07086427
33	0xbd6a7445	-0.05723979
34	0xbc5520e2	-0.013008328
35	0xbdab21b5	-0.083560385
36	0x3ceaf23f	0.028679965
37	0xbcb4c5c4	-0.022066958
38	0xbd7cc4f4	-0.061711267
39	0xbd92ba45	-0.07164434
40	0xbd5fa387	-0.05459931
41	0xbd90e85d	-0.0707557
42	0x3ceb4f3c	0.028724305
43	0xbd93e535	-0.07221452
44	0xbd393675	-0.04521795
45	0x3b4076ac	0.002936761
46	0xbd7dee2e	-0.061994724
47	0xbcaa1333	-0.020761108
48	0x3c435dca	0.0119242165
49	0x3cc9d5a0	0.024637997
50	0xbdabdaed	-0.08391366
51	0xbb13a788	-0.0022530276
52	0x3bfc672d	0.007702729
53	0xbd974c03	-0.07387545
54	0xbd836d9a	-0.06417389
55	0xbd5276a8	-0.05138269
56	0x3c46ce09	0.012134084
57	0x3d456e85	0.048201103
58	0xbd6138bc	-0.054985747
59	0x3d9b543d	0.075844266
60	0x3b02addf	0.001994006
61	0xbc029cfc	-0.007971998
62	0x3d84402c	0.06457552
63	0xbcaa4e31	-0.020789238
64	0xbd1e1d7b	-0.038602334
65	0x3d9c032b	0.07617792
66	0xbd65b92c	-0.056084797
67	0x3d90b766	0.070662305
68	0x3cfc24cb	0.030779263
69	0xbc867089	-0.016411083
70	0x3ceb6a61	0.028737249
71	0xbda11edd	-0.07867215
72	0xbd6fc610	-0.058538496
73	0x3ba16eca	0.004926537
74	0x3b43f66f	0.0029901525
75	0x3d77867e	0.060430996
76	0x3db47db7	0.08813041
77	0x3ca63b11	0.020291837
78	0xbd52f7ab	-0.051505726
79	0x3d8b8fd8	0.068145454
80	0xbd8a2a09	-0.06746299
81	0x3d619759	0.055075977
82	0xbc7c9998	-0.015417479
83	0xbd9d0d74	-0.076685816
84	0x3c4f7be5	0.012663816
85	0xbc820a68	-0.015874103
86	0x3cd2f1f3	0.025750136
87	0x3d77e607	0.060522106
88	0xbd84ac48	-0.064781725
89	0x39c1bc62	0.00036952185
90	0x3c889e51	0.016677054
91	0x3dae6c7c	0.085167855
92	0x3d981b0a	0.07427032
93	0xbd80e552	-0.062937394
94	0xbd18180b	-0.037132304
95	0x3c884553	0.016634619
96	0xbd8dc9a5	-0.06923226
97	0x3bbf1bc5	0.005832168
98	0xbc160c8c	-0.009158265
99	0xbcb245a9	-0.021761732
100	0x3d4d94a4	0.050190583
101	0xbd4038c1	-0.046929125
102	0x3d02f282	0.031969555
103	0xbd794c45	-0.060863752
104	0xbd49e89e	-0.049294107
105	0x3d44c949	0.048043523
106	0x3d28721c	0.04112445
107	0xbd4b875f	-0.049689647
108	0x3d30b06b	0.043136995
109	0xbb652a03	-0.0034967668
110	0xbd794159	-0.060853336
111	0xbd82c514	-0.06385246
112	0x3c837aa6	0.016049694
113	0xbc9b50bd	-0.018959397
114	0xbd4d5204	-0.050127044
115	0x3c95cad3	0.01828519
116	0x3c20e68f	0.009820594
117	0x3cb8646c	0.022508822
118	0xbd82a961	-0.06379963
119	0xbda10933	-0.07863083
120	0xbd7e2fce	-0.06205731
121	0xbd62973b	-0.055320006
122	0xbca9ba17	-0.020718617
123	0xbc625b12	-0.013815658
124	0xbc30a698	-0.010781907
125	0xbc8640c5	-0.016388306
126	0x3cbcb697	0.023036284
127	0xbb169a23	-0.0022980056
128	0xbda71442	-0.08158161
129	0xbccb652d	-0.024828518
130	0x3d3a29bc	0.045449957
131	0xbd6f3d51	-0.058408085
132	0xbcd63923	-0.026150292
133	0x3c88d1c0	0.01670158
134	0x3c805627	0.01566608
135	0x3d33b24a	0.0438712
136	0xbcfd7c39	-0.030943023
137	0x3da3f92e	0.08006512
138	0xbd890b0a	-0.06691559
139	0x3dab767b	0.08372208
140	0xbd6e42af	-0.058169063
141	0xbd35b369	-0.044360552
142	0xbc04e8bb	-0.008112128
143	0x3c182e00	0.009288311
144	0x3c9ec629	0.0193816
145	0xbd808a32	-0.06276359
146	0xbd2a2f33	-0.04154892
147	0xbd80eb16	-0.06294839
148	0xbad5299a	-0.0016263009
149	0x3d20a678	0.039221257
150	0x3d5490c7	0.051895883
151	0xbcebdc85	-0.028791675
152	0x3d229c09	0.039699588
153	0x3d37c579	0.04486606
154	0x3d2007b7	0.039069857
155	0x3d004955	0.031319935
156	0xbcf34226	-0.029694628
157	0x3cf9218a	0.0304115
158	0x3d03d901	0.032189373
159	0xbd86a202	-0.06573869
160	0x3d8f54a8	0.06998569
161	0x3d900a1e	0.0703318
162	0x3bccef45	0.006254109
163	0xbd2f5d06	-0.042813323
164	0x3c9cd526	0.019144606
165	0x3c3f6d4b	0.011683772
166	0xbcacf206	-0.0211115
167	0xba6e42ed	-0.0009088952
168	0x3da40f11	0.08010686
169	0xbc7e8471	-0.015534506
170	0xbd366457	-0.044529285
171	0x3d3c768d	0.046011496
172	0xbd5c821c	-0.05383502
173	0xbd5ae1d4	-0.053438023
174	0x3cdd88fb	0.027042856
175	0x3d54fd65	0.05199947
176	0x3d83859d	0.06421969
177	0xbd1ae0ff	-0.03781223
178	0x3d34e3e7	0.044162657
179	0xbd2a8804	-0.04163362
180	0x3d5515ad	0.052022625
181	0x3cf60797	0.030032916
182	0xbd5a83e9	-0.053348456
183	0xbd640db8	-0.055677146
184	0xbd053aae	-0.032526664
185	0x3c68198b	0.014166246
186	0x3d47c1a7	0.048768666
187	0x3d8d646e	0.06903921
188	0x3cc538f5	0.02407501
189	0xbd850cfe	-0.06496619
190	0xbb845564	-0.0040384997
191	0x3bc8c892	0.0061274255
192	0xbd99677b	-0.074904405
193	0xbd2626e7	-0.040564444
194	0xbd332443	-0.043735754
195	0xbc9e0daf	-0.019293634
196	0x3da820e2	0.08209397
197	0xbc68a232	-0.014198827
198	0xbd38f1fe	-0.045152657
199	0xbc94baf9	-0.018155562
200	0xbd088258	-0.03332743
201	0x3d3e3e57	0.04644617
202	0x3d1c2caa	0.038128532
203	0xbc9c68af	-0.019092886
204	0xbd77f92d	-0.060540367
205	0xbba5eaeb	-0.005063405
206	0x3bb9a070	0.0056648776
207	0x3dabd2f9	0.08389849
208	0xbd0f0d60	-0.034924865
209	0xbcbcf3ad	-0.023065412
210	0xbcba6f7b	-0.022758236
211	0xbd824166	-0.0636013
212	0xbd48972e	-0.0489723
213	0xb9c3be6e	-0.0003733518
214	0xbc86d282	-0.0164578
215	0x3d828a0e	0.06373988
216	0xbd9cc04b	-0.076538645
217	0xbba0b2c6	-0.004904124
218	0x3d79cd8d	0.060987044
219	0xbd8446b6	-0.064587995
220	0x3db6250f	0.08893787
221	0xbc8a6414	-0.016893424
222	0x3ca1af70	0.019736975
223	0xbd55ded2	-0.05221445
224	0xbaefd5ca	-0.0018297967
225	0x3d17ad25	0.037030358
226	0x3cf9398b	0.030422946
227	0x3c1cbefa	0.009567017
228	0xbd64a31e	-0.055819623
229	0xbdab1d3b	-0.08355185
230	0x3c10be3e	0.00883442
231	0xbd0eb2f8	-0.034838647
232	0xbc61ce15	-0.013782044
233	0xbd1905d7	-0.037359085
234	0x3d81faa7	0.06346636
235	0x3b2588b1	0.0025258476
236	0xbd816116	-0.06317346
237	0x3ab006ac	0.0013429723
238	0x3c9fc2da	0.019502092
239	0xbcd13eb7	-0.0255426
240	0x3d308a05	0.043100376
241	0xbc8b130b	-0.016976854
242	0x3d328adb	0.043589454
243	0x3d066e2a	0.032819904
244	0x3d6fc099	0.058533285
245	0x3cd4678c	0.025928281
246	0x3d65a090	0.056061327
247	0x3ba13ac6	0.0049203364
248	0x3d8aafde	0.06771825
249	0xbbc65624	-0.006052749
250	0x3dc336c3	0.09531929
251	0xbbba02b0	-0.00567659
252	0xbcf99b53	-0.030469572
253	0xbd88b174	-0.066744715
254	0x3d9c2e25	0.07625989
255	0x3d90a7bc	0.07063243
